data.pth (torch, 5994 bytes, 6 tensors)

l1.weight f4 [8, 38]
00000000: f053 c4bc 73aa 23be d80e 61bd 82ff 04be
00000010: 6059 f23b db9d bfbd 7872 e5bc 30b3 5f3c
00000020: 7cfd 433d 79ec 1a3e de91 b13d b330 e53b
00000030: 7415 96bd ca78 b2bd f118 153d e45d 04be
00000040: 64fd 5e3d 5e0d fb3d 4049 0c3b 3b14 b9bd
00000050: 5838 efbc 90bf 6bbc 36c9 fdbd eab9 d1bd
00000060: 6ea7 bb3d 0213 abbd 220d bcbd dc80 edbd
00000070: 514b 133e 7c00 a93d c6b1 b23d 5a94 4cbd
00000080: 3988 043e aafc d33c de80 c33d e452 85bd
00000090: 49c3 053d 9f1e 3cbd 5d05 1c3f 9863 24be
000000a0: 41f3 2e3c d05b 6bbe 38ce 15bf 3da2 cf3d
000000b0: b418 5d3f f215 44bf 2d62 7abe c9c2 473f
000000c0: 6ac4 173f 0616 10bd 1ef5 113f 12d5 64bf
000000d0: af70 e33d 5ccb 35bf 420c 1d3e 6b57 f63e
000000e0: f9cf bd3e 5bba 123f 7d71 333f c52b 433f
000000f0: d5b6 2ebe 5bd0 b1be 4d10 4abf e723 763f
00000100: 05ad e03d 583b 293f 9d2d 3cbe fde1 a43d
00000110: a783 cabe 20a1 93be a545 15be d03d 853d
00000120: 29f8 d73e a2f4 c23e 7380 823e 4e5a 5b3e
00000130: 747d 8b3e 9966 de3e 1832 59be 5c2b 78be
00000140: 49bd e9bc 665f ff3e 837f 543f d296 16be
00000150: 6a5b d53e fbb1 5b3f 1fa3 3d3f 91e5 f33e
00000160: b183 803e 2acc 04bf cf9b d83e 3326 7abe
00000170: 4996 cabe fe12 9a3e ee1b 473e a17f 983d
00000180: b43c 1fbf 7e7e 30bf a42f 0a3f e9ec 313f
00000190: ac87 62bf 47fd 863f ef09 46bf 610c 873d
000001a0: ca4f 233f 659c eeba 063b 343f a951 133f
000001b0: 43a3 4cbe 844b d83e 96ad 4e3f e4db 903e
000001c0: aa77 bb3e 70e0 f13e dcab 38bd e2a0 7c3d
000001d0: ebe2 f53e ea07 b6bc ae14 033f ef97 873e
000001e0: 4e03 35be 3ca9 fc3e 2077 bfbe 7d04 68be
000001f0: b371 5fbf 7480 47be 2214 1abe 8a96 9e3f
00000200: fc85 183f 1e74 eebe 89a0 b83d fc06 4dbd
00000210: 28f1 f4bd e0ac a53c 9c3f 403f 8843 1f3f
00000220: 5aaa cbbe 62b2 383f 5600 583f cb82 80bf
00000230: 91a3 0e3f 7297 823e b739 f9be c706 143f
00000240: 385a 393f cb3b 8ebe 8769 33bc c1a2 b43e
00000250: b16e 66bf ae47 0f3f f7c3 953e 95e5 e23e
00000260: a460 69bd 696b e8be 7674 cd3e 898d 25bf
00000270: 7027 77bf 2b23 063f 00e5 333f e7ea 60bf
00000280: 79e8 483f 9f3e 503f f62f 1c3f 7be6 c8be
00000290: 6a26 1abe c80e 62bf d96e 4dbf e2aa 163d
000002a0: 6d18 793f 1d46 e5bd 5b31 acbd b044 5bbd
000002b0: b332 8b3d 8834 593e a7d7 4b3f bb96 8fbe
000002c0: 1bda 32bf 0835 0a3f 54a6 4d3f 264f 563f
000002d0: ae24 1c3f e636 6fbe aa5f 76be 758f 193f
000002e0: ff59 4dbf 9ac2 d63e f239 263f e461 d0be
000002f0: 3447 063f 73a9 da3e a78c 063f 0074 f13e
00000300: d650 073e 022a 60be aec4 613d c6d5 fe3d
00000310: fdc3 433f 9701 db3d 1989 0dbf 7f0c 283f
00000320: 0052 9fbd f665 003f c388 e13e 86df 7a3f
00000330: 4687 3c3f 2936 38bf a26f d3be 618e 1e3f
00000340: 4a09 eb3e 8c6c e73e 6413 5c3f 4ccc 823f
00000350: 03e5 e9be 7c89 013f 7d31 813f 6e49 883f
00000360: db6a 3cbe 6c7c bebe 658c e9be 3e52 0d3f
00000370: 2535 ce3e a9bd f4be 7c0e 93be ee3c 603e
00000380: d47c 8cbe 8436 053f 21d8 8c3e 330d b63e
00000390: 1dd2 18be 6110 97bd 5f73 7f3e f043 ea3e
000003a0: 2bc9 3a3f 1c2e f73e e5c2 ebbe 37d5 153f
000003b0: 8728 183f 5da6 0cbf f0c1 293f 89d3 51bd
000003c0: 7c00 bf3c 36a3 debe 34df e7be 9986 6e3f
000003d0: a0bc 563f c6e1 2e3d 0c0a 11bd 1412 4bbe
000003e0: fcbe 37bf 7056 44bf 8ba0 003f 656b 483e
000003f0: 3398 22bf 37ab 7abf a5e8 6a3f c14a d03e
-0.023965806 -0.1598299 -0.054945797 -0.12988093 0.0073959082 -0.093562804 -0.028008685 0.0136535615
0.047849163 0.1512927 0.086704 0.006994331 -0.073283106 -0.08714445 0.03640074 -0.12926441
0.05444087 0.12258409 0.0021405965 -0.09037062 -0.029201671 -0.014388934 -0.123918936 -0.102405384
0.09162794 -0.08353235 -0.091821924 -0.115968436 0.143842 0.082520455 0.08725314 -0.049946167
0.1294259 0.025877316 0.09546064 -0.06509951 0.03265694 -0.04592764 0.60945684 -0.16053617
0.010678113 -0.22984242 -0.5851779 0.10138366 0.8636582 -0.76595986 -0.24451514 0.78031594
0.5928408 -0.035177253 0.57014644 -0.8938762 0.11105477 -0.71013427 0.15336707 0.4811357
0.37072733 0.57315606 0.70095044 0.7623866 -0.17061932 -0.34729275 -0.78931123 0.9614853
0.10970501 0.66106176 -0.18376775 0.08050916 -0.39553568 -0.28833866 -0.14577349 0.065059304
0.4218152 0.38077265 0.25488624 0.21421167 0.2724415 0.4343765 -0.21210515 -0.2423529
-0.028532641 0.4987747 0.8300707 -0.14705971 0.41671306 0.8581845 0.7407703 0.47636083
0.25100473 -0.5187403 0.42306373 -0.24428634 -0.39567783 0.30092615 0.19444248 0.07446218
-0.62202 -0.6894301 0.53978944 0.6950212 -0.8848827 1.0546044 -0.7735891 0.06594158
0.63793623 -0.0018204568 0.7040256 0.5754648 -0.19984154 0.42245114 0.8073362 0.28292763
0.36614734 0.47241545 -0.045085773 0.061676867 0.48024687 -0.02222057 0.5120343 0.26483104
-0.17677042 0.49347866 -0.37395573 -0.22657962 -0.87282866 -0.19482595 -0.15046743 1.2389691
0.59579444 -0.46572965 0.09014995 -0.05005549 -0.119600594 0.020224035 0.7509706 0.6221242
-0.39778405 0.7214719 0.8437551 -1.0039915 0.5571833 0.2550617 -0.48676845 0.5782284
0.7240329 -0.27779993 -0.010950453 0.3528042 -0.9001265 0.5596875 0.29251072 0.44315782
-0.05697693 -0.45394447 0.40127915 -0.6466909 -0.9654455 0.5239741 0.702713 -0.8785843
0.78479725 0.8134555 0.6101068 -0.39238343 -0.15053716 -0.88303804 -0.80247265 0.03678406
0.97302896 -0.11195014 -0.08407851 -0.053532302 0.067967795 0.21211445 0.79625934 -0.28044686
-0.6986405 0.5398717 0.8033192 0.8371452 0.6099347 -0.23360786 -0.2405993 0.59984523
-0.8021545 0.41945344 0.6493217 -0.40699685 0.524524 0.42707404 0.5255837 0.47158813
0.1321443 -0.21891025 0.05511921 0.12443118 0.7647093 0.106936626 -0.5528732 0.6564407
-0.07779312 0.5015558 0.44049653 0.9799732 0.7364391 -0.7195764 -0.41296107 0.61936
0.45905524 0.45200002 0.8596709 1.0218596 -0.45682535 0.5060041 1.0093228 1.0647409
-0.18400137 -0.372043 -0.45614925 0.55203617 0.4027492 -0.4780095 -0.28721988 0.21898243
-0.27438986 0.5203631 0.27508643 0.35556945 -0.14923902 -0.07376171 0.24946354 0.45754957
0.7296321 0.48277366 -0.4604713 0.58528465 0.5943684 -0.5494135 0.6631155 -0.051227126
0.02331566 -0.43483895 -0.45287478 0.9317413 0.8388157 0.042695783 -0.035409972 -0.19831115
-0.71775794 -0.76694393 0.5024497 0.19572218 -0.6351349 -0.97917503 0.9176124 0.40682033

l1.bias f4 [8]
00000000: b794 37bd ba69 e23e a668 013f 9fa4 a43e
00000010: 5ace ee3e 5bea 813e 48d4 9e3e b35a 013f
-0.04481956 0.44221288 0.50550306 0.32156846 0.4664181 0.25374112 0.31021333 0.5052902

l2.weight f4 [8, 8]
00000000: 69dd 9f3e d2b4 e6bd 7734 e6be c62e a33f
00000010: 250c 8e3f 66f1 bf3e 2cca 443f 5978 8bbf
00000020: 67ae 2c3e c56e 3b3f 31d3 7cbd be80 353f
00000030: 69bc e23d fc1c 823f 1d7f e6be 900b 16bf
00000040: efd6 763e b73d b3bf a268 363f c27a 673f
00000050: 74e6 1bbf 28c3 733f 6f53 b23e 6bb9 c73f
00000060: f972 223e 60a4 c33e 31b8 a43f 911f 25bf
00000070: 15f6 483f c4af 9cbf 8b63 693f e8a1 5b3f
00000080: 16d3 163e bb77 2bbe edfa 9d3e 8fb4 aabe
00000090: 1dde 41be 6004 d73c 7770 90be 4463 bbbd
000000a0: 5061 b1bc e09d a63d 8931 08be 800a 043e
000000b0: 9483 98be c220 11be f02b 5dbd c02a af3c
000000c0: e359 993d 68b1 733f 1e50 f13e 9f06 413f
000000d0: 04bc 4a39 291e a83f ac36 0bbf 5f95 fabd
000000e0: 68c0 2bbe 0051 223f 5781 a83f 5b23 fbbe
000000f0: f3a7 823e 3248 873f cf72 31bf a98a 8c3e
0.3122361 -0.112649575 -0.44961902 1.2748649 1.1097456 0.3748886 0.7687099 -1.0896102
0.16863404 0.73215896 -0.061724845 0.7089957 0.11071093 1.0165095 -0.45018855 -0.5861139
0.24105428 -1.4003209 0.71253407 0.9042169 -0.6089852 0.9521966 0.3482928 1.560346
0.15864171 0.38211346 1.2868711 -0.6450129 0.7850049 -1.224114 0.91167516 0.85793924
0.1472896 -0.16744892 0.30855504 -0.3334088 -0.18932386 0.026247203 -0.28210804 -0.09149793
-0.021652848 0.08135581 -0.13300146 0.1289463 -0.29787886 -0.14172652 -0.05399698 0.02138269
0.07487848 0.95192575 0.47131437 0.7540073 0.00019334262 1.3134204 -0.543803 -0.122355215
-0.16772616 0.63404846 1.3164471 -0.49050412 0.2551876 1.0568907 -0.6931581 0.2744954

l2.bias f4 [8]
00000000: c1d5 2e3f 7bce cd3d 1d44 053f 75c5 063e
00000010: e27b a5be 1c28 9abd a078 b43d 777e 123e
0.6829491 0.10049149 0.5205706 0.13161261 -0.32321078 -0.075271815 0.0881207 0.14306055

l3.weight f4 [17, 8]
00000000: 939b c9bf e5ee 87bf 21b2 4d3e 2b6c ce3e
00000010: aefc 003e f0ce 6abd 2ebb afbf e49f 1a3e
00000020: 560e f0bf 6afc cabf 84b0 773e 3f75 303d
00000030: 800b ae3d e948 67be aee9 cb3e 86dc d33d
00000040: 2187 c9bf 8d61 cbbe 84a6 033f 54d9 90bf
00000050: dba7 0abe a840 d63d 6a40 d13e 996a 913e
00000060: 69bb df3e de92 97bf b91d 5dbe c8af bd3d
00000070: 507c ca3c b43c c13d f544 f1bf 0796 c1bf
00000080: 4132 253f d5e9 293e 49b5 27be 13d0 babf
00000090: 50f0 473d 283c 80bd be7d 573e 09bf 02c0
000000a0: ee7b 653e 5871 cfbf 4dcc 263f 9560 aabe
000000b0: da89 31be f5a7 3abe 3b27 9cbf 610f 9bbf
000000c0: e37e d33d 2466 1cbe 5fe7 91bf 91ef cbbe
000000d0: e4b1 77be a627 5f3e 4ec2 6a3e 7b14 2e3e
000000e0: e89f 3cbf 647d acbf 0140 00bf 8e74 e93e
000000f0: ee4c 603e 7456 cb3d b7c5 d1be 0d72 6d3e
00000100: 9618 863e 6b94 f83e 4893 76bf 9b7d cbbf
00000110: 1af0 783e 381f 1bbd ff5b 0f3f b579 0dbf
00000120: 019f bf3d f94b 153e f680 c13e 6880 73bf
00000130: 3f2d 8f3e 5a7b 143e dd18 983d 39d7 7abf
00000140: 0144 303e a37a 0ebe c224 ffbd b987 3abe
00000150: 088c 76bd 47fd 48be f9de e93d 5b85 95bf
00000160: 63d6 8abe bb12 45bf 4510 bd3e bcc2 edbe
00000170: c4e7 76be 0083 87bc 4558 213e 3a20 8bbb
00000180: 6745 37bd f91e 88bf 0ee2 bebf 7e19 fb3e
00000190: 6ef1 7b3e c357 52be a927 80bf 6a61 b3be
000001a0: 564b c73e ef28 26be 4bcb 86bf d0d7 05bd
000001b0: 46cf d6bd 601d 093e 02e5 523c b126 dcbf
000001c0: 5a50 7abf 59d4 62bf f400 1d3f ee8f d33e
000001d0: 1cc6 85bd 759e b03e 6ff9 84bf ee3a c4bf
000001e0: 187f 71bf fd86 f33e 5e6f 9abf a256 b9bf
000001f0: b866 ff3d e00e 1f3c 8939 c43e b717 363f
00000200: 6abf 1abf 86e6 85be 1c31 b5be 1db3 83be
00000210: d8e4 85bd 0006 bb3c 98ff df3d f341 203f
-1.5750602 -1.061978 0.20087482 0.403169 0.1259639 -0.057326257 -1.3728998 0.15100056
-1.8754375 -1.5858281 0.24188429 0.043080565 0.08498287 -0.22586407 0.3982672 0.10344796
-1.5744363 -0.39722863 0.5142596 -1.1316323 -0.13540594 0.10461551 0.40869457 0.2840164
0.4369767 -1.1841695 -0.2159337 0.09262043 0.02471748 0.09435406 -1.8849169 -1.512391
0.64529806 0.16593106 -0.16377749 -1.4594749 0.048813164 -0.06261474 0.2104406 -2.0429099
0.22410557 -1.6206465 0.6515549 -0.3327681 -0.17337742 -0.18228133 -1.2199472 -1.2114068
0.10326936 -0.15273339 -1.1398734 -0.39831212 -0.24188954 0.21792468 0.22925684 0.17
-0.736815 -1.3475766 -0.5009766 0.45596737 0.21904346 0.09928599 -0.40971157 0.23188038
0.26190633 0.48550734 -0.96318483 -1.5897707 0.24310341 -0.03787157 0.5599975 -0.55263835
0.093564995 0.14579763 0.37793702 -0.9511781 0.27964208 0.1450018 0.07426617 -0.97984654
0.17213441 -0.1391397 -0.12458183 -0.18215837 -0.060192138 -0.19627868 0.11419482 -1.1681322
-0.2711669 -0.76981705 0.36926475 -0.46437633 -0.24111849 -0.016541958 0.15756328 -0.004245785
-0.04474392 -1.0634452 -1.4912736 0.49042886 0.24603817 -0.20541291 -1.0012103 -0.3503526
0.38924664 -0.16226552 -1.053079 -0.032676518 -0.10488753 0.13390112 0.0128719825 -1.7199308
-0.97778857 -0.88605267 0.6132958 0.41320747 -0.06531927 0.34495893 -1.0388621 -1.5330484
-0.94334555 0.47563925 -1.2065237 -1.4479563 0.12470764 0.009708136 0.38325146 0.71129936
-0.60448325 -0.26152438 -0.3538903 -0.2572259 -0.06537789 0.02283001 0.109374225 0.6260063

l3.bias f4 [17]
00000000: d67f bbbe 84fc a8bc ee49 0ebd ade7 c73e
00000010: a64f 3dbc 61e5 a83c dcdc b7be 2df0 473e
00000020: 5149 6cbe c4d1 c73d c026 89bd 8320 64be
00000030: 8bac 3a3e 5b75 cc3c 62a0 db3e 8386 413e
00000040: 107b 913d
-0.3662097 -0.020628221 -0.034738474 0.39043942 -0.011554634 0.020617189 -0.3591069 0.19525214
-0.23074843 0.097568065 -0.06696844 -0.22278027 0.18229882 0.024958303 0.428958 0.18898968
0.071035504
