data.pth (torch, 17194 bytes, 6 tensors)

l1.weight f4 [8, 92]
000000 9b c5 89 bf 79 46 0a be 84 38 00 bf 23 af 12 bf
       -1.0763429 -0.13503446 -0.50086236 -0.5729849
000010 61 36 18 3f 4f 35 97 3e 49 f4 bb 3d 13 d7 c9 3e
       0.59457976 0.2953286 0.09177453 0.394219
000020 70 0d 29 40 f3 e0 ad be 66 d6 29 40 0a de 50 bf
       2.6414452 -0.33960685 2.6537108 -0.81588805
000030 60 1e 0e 40 5e ad 19 3f 73 57 d1 3f 0b a9 ab 3f
       2.220604 0.6003016 1.6354812 1.3410963
000040 40 ee 2d 40 8b f3 7b 3f fd 79 21 3f eb 5b 8a be
       2.7176666 0.9841849 0.63076764 -0.27023253
000050 f8 a0 7b 3f c4 25 3c bf b3 14 2a 40 16 c3 71 bf
       0.98292494 -0.73495126 2.6575134 -0.944383
000060 8f 4b 82 3d e6 ed 27 bf 0f 7f b3 3f 95 8d 96 3f
       0.06362068 -0.6559738 1.402315 1.1761957
000070 d5 88 f1 3f 25 68 3a bf d3 2b dc 3f 55 d8 21 3f
       1.8869883 -0.7281516 1.7200874 0.6322072
000080 db 28 16 3e a3 2e d6 be 29 f9 cf 3f a7 3a c3 3f
       0.14664023 -0.41832456 1.6247913 1.5252274
000090 2c 67 29 bc 15 53 53 3f e1 98 8d 3d b5 1c d5 3e
       -0.0103395395 0.8254865 0.06913925 0.41623464
0000a0 29 eb a5 3f 37 ab 0e 40 dd 53 24 3e a3 d2 86 3f
       1.296239 2.2292001 0.16047616 1.0533031
0000b0 32 5d a2 bd 2f 63 14 3f 21 14 25 3e 24 8d 26 40
       -0.07927932 0.5796384 0.1612096 2.6023645
0000c0 7e 6d e0 3e 79 84 51 3f 77 b0 db 3f 69 2c ad 3d
       0.43833536 0.8184276 1.7163228 0.08455736
0000d0 39 81 0b bf b9 dd 15 3d a6 53 fa 3e 25 db 82 be
       -0.54494053 0.036588404 0.48891944 -0.2555782
0000e0 62 a7 d2 3b a7 f8 10 3e 03 db ad bd ad a4 62 3f
       0.006428645 0.14157353 -0.08489039 0.88532525
0000f0 eb bf 98 3f 65 25 0d 3f 82 0d 36 c0 6b ad 31 c0
       1.1933569 0.55135185 -2.8445745 -2.7762096
000100 19 e1 95 be 6e 8a ba 3f a7 2d 40 bd df 0a 21 40
       -0.29273298 1.4573495 -0.046918537 2.5162885
000110 1e e3 94 3f 21 7f 7a 3f 27 c2 ae 3e 1e 36 38 bf
       1.1631811 0.97850233 0.341325 -0.71957576
000120 ac 47 5b bc 18 01 8e 3f bd 29 4c 3f 3a f3 71 3e
       -0.013383787 1.1094084 0.7975119 0.2362794
000130 b1 78 d5 be 67 1b ee be b7 c6 84 be 99 2f 0c 3f
       -0.41693643 -0.4650528 -0.25932857 0.5476013
000140 b1 82 0e 40 1d 49 69 bf 36 48 c2 3f 47 c7 e7 be
       2.2267268 -0.91127187 1.5178287 -0.45269224
000150 73 49 c6 3f 61 f0 74 40 37 8f 46 be 12 f7 52 bf
       1.5491165 3.8271716 -0.1939057 -0.8240825
000160 0d f6 3f 3f 07 f5 78 bf c5 39 17 bf 96 7c 33 bf
       0.7498482 -0.9724888 -0.59072524 -0.7011198
000170 e8 b2 08 40 9d b1 8c 3f ec 09 a7 3f ba 77 a3 3f
       2.1359196 1.0991703 1.3049903 1.2770913
000180 c1 79 bd be 2d 29 86 bd 7a d5 06 be d0 47 9d 3c
       -0.37006953 -0.065508224 -0.13167372 0.019199282
000190 a9 7e 92 3f 11 ee 7a 3f 92 a8 99 3e c9 8f fe 3f
       1.1444904 0.9801951 0.3001142 1.988763
0001a0 bd 96 fb be 48 19 03 3f aa 05 eb bf 56 4b fd 3d
       -0.49138442 0.5121045 -1.8361104 0.12367885
0001b0 a6 1e 1f 3e 45 ad e4 3f 0c 05 8a 3f e5 a5 59 3f
       0.15539035 1.7865378 1.078279 0.8501876
0001c0 9a 27 80 3f 4b f7 84 3f 3c bd 2b 3e 61 f9 82 3e
       1.0012085 1.0387968 0.16771406 0.25580886
0001d0 4c 22 28 bf 80 b4 67 be af 05 48 3e c3 ab 1d 40
       -0.6567733 -0.22627449 0.19533418 2.4636085
0001e0 58 5d 89 3f 49 21 8b 3f 0f 28 89 3e e5 5b b6 3f
       1.0731611 1.0869533 0.26788375 1.4246794
0001f0 26 12 85 3f fb 86 7e 3d 7e b7 03 3f b9 64 36 3f
       1.0396163 0.062140446 0.5145186 0.7124744
000200 20 1b 13 bf 1c 22 21 c0 fe ff a7 3e 91 7d 23 be
       -0.57463264 -2.5177069 0.32812494 -0.15965869
000210 d7 30 1d 40 1a 28 02 bf 0d b6 8d be 1a c0 00 be
       2.456106 -0.5084244 -0.27677956 -0.12573281
000220 19 c0 10 3f 03 8d b8 be 98 b5 87 be e7 36 94 bf
       0.5654312 -0.36045083 -0.26505733 -1.1579255
000230 63 bc 8f be 31 6d 80 3f c6 73 c8 bf 7d 92 9e 3e
       -0.28073415 1.0033323 -1.5660331 0.30971137
000240 8c 12 33 3e 6c 46 a0 3e 42 1f 3a be 95 b3 63 3f
       0.17487544 0.31303728 -0.18175986 0.88945895
000250 da 01 8d 3f c2 53 20 be a8 fe d3 3e 11 db 11 3e
       1.101619 -0.15656951 0.41405225 0.14243723
000260 2a 00 87 3f e7 5c ab be c8 43 96 3f c4 19 9d 3f
       1.0546925 -0.33469316 1.1739435 1.2273488
000270 80 60 29 3e 94 fd 44 be f8 87 2b be 1e cf 9b 3f
       0.16540718 -0.19237357 -0.16751087 1.2172582
000280 e2 ff 0c 40 67 ff f0 3f 33 16 1d be a6 32 07 40
       2.2031178 1.8827943 -0.153405 2.1124663
000290 a6 60 93 3f df d9 38 bd e0 99 f5 bd 3a 18 69 3f
       1.151387 -0.045129653 -0.1199224 0.9105259
0002a0 69 4e e6 3d 4b ae 28 3f 67 1d af 3f b2 b6 53 be
       0.11245424 0.6589095 1.3680848 -0.20675161
0002b0 c0 d7 0e bf 8d 62 c2 3e 58 4c 5d be 60 e0 63 3e
       -0.5579796 0.37965813 -0.21611154 0.22253561
0002c0 40 a6 f3 bf 7e 32 9f 3f ef b1 11 3f 28 66 b8 ba
       -1.903511 1.2437284 0.5691213 -0.0014068531
0002d0 8e c9 25 c0 86 1a 5d 3e 4a 91 1b 3d 53 64 77 bd
       -2.590427 0.21592149 0.037980355 -0.06039841
0002e0 a4 c1 2f 3f ee e6 02 3f b9 a3 33 3f 0d 3b 2a 3f
       0.6865485 0.5113362 0.70171696 0.66496354
0002f0 9c a4 ef bd 0c 2c 99 be c1 bd 0a be 30 66 77 bd
       -0.117013186 -0.29916418 -0.13548948 -0.060400188
000300 2e 6e 3d 40 8c cc b1 3f 51 13 14 40 ca 61 53 40
       2.9598498 1.3890548 2.313679 3.3028436
000310 b7 df 32 40 35 e5 d3 3e 50 1a 0c be 22 8b 1a 3e
       2.7949045 0.4138581 -0.13681912 0.15092137
000320 3a b1 4a 3f 99 8a 1a 40 ef 54 8d 3f 7f d7 91 3f
       0.79176676 2.4147093 1.1041545 1.1393889
000330 60 e3 a0 3f 61 6a a0 3f 1c 5f 10 40 36 ec 20 be
       1.2569389 1.2532464 2.255805 -0.15715107
000340 1d 9a 82 3f 33 eb 5c 3e 31 73 4d 3f a3 72 29 40
       1.0203282 0.21574096 0.80253893 2.6476219
000350 85 e7 1f 3f af 1c 9f 3f 1a e2 7a 3f bd 23 63 3f
       0.62462646 1.2430629 0.98001254 0.8872641
000360 50 17 db 3f f0 74 2d bf ba 05 0a 3f e8 2a e3 3e
       1.711649 -0.6775656 0.5391499 0.44368672
000370 5d 80 80 3f 81 ad 0d bf f0 a4 91 3d 41 68 a9 3d
       1.0039173 -0.5534287 0.071115375 0.08271838
000380 41 f0 1e 40 0c f4 35 40 e4 1d 39 be a5 03 15 3e
       2.483414 2.8430204 -0.18077809 0.14552172
000390 a6 54 3c 3f 90 ae bf bd f6 e6 52 be 2f 9c 8f c0
       0.73566663 -0.09359467 -0.20595917 -4.4878154
0003a0 cc e6 2d 3e c0 29 80 3f 60 52 6e bf 3a ba fe 3c
       0.16982573 1.0012741 -0.93094444 0.03109466
0003b0 1f ab af 3f f3 9b 35 3d 46 33 43 be 8d b8 99 3f
       1.3724097 0.044338178 -0.19062528 1.2009445
0003c0 b8 8b e4 3f 61 76 21 be 3a 4e 30 3f e8 cc ee 3e
       1.7855139 -0.15767814 0.68869364 0.46640706
0003d0 17 61 90 3f d4 f3 48 be eb ec 55 3f 61 8a 2b 3f
       1.127963 -0.19624263 0.83564633 0.67008024
0003e0 b5 d4 05 bf 80 07 30 bf cc 70 69 3f ed 33 3b 40
       -0.5227769 -0.68761444 0.9118774 2.9250443
0003f0 57 f9 7d 3f 8d 02 10 40 d7 05 6e be 3c a1 4c 40
       0.9920859 2.2501557 -0.23244415 3.197341

l1.bias f4 [8]
000000 34 70 74 3f d0 1a 65 3f 79 34 5f 3f 90 07 42 3f
       0.9548371 0.8949404 0.8718944 0.7579279
000010 00 c4 b3 3e cd 99 87 3f 34 f1 15 3f b7 cc 41 3f
       0.35110474 1.0593811 0.5857117 0.75702995

l2.weight f4 [8, 8]
000000 2b 46 83 3f cc ff da bf e9 35 31 3f 72 73 e7 3e
       1.0255789 -1.7109313 0.69222885 0.45205265
000010 96 bf 22 bf 7d 43 24 40 09 f7 60 bf c0 d0 bc 3f
       -0.63573587 2.5666192 -0.87876946 1.4751205
000020 4c 91 0f bf bf 5c c4 3e c1 0a 55 3f e6 3a 90 bf
       -0.5608108 0.3835201 0.83219534 -1.1267974
000030 6e 46 52 3f fb ec 8c 3f d0 ab 64 be e7 c8 da 3f
       0.8213872 1.1009821 -0.22331166 1.709256
000040 50 05 4e 3f 10 5a 5e be d9 88 0c bf 40 f6 95 bf
       0.80476856 -0.21714044 -0.5489631 -1.1715775
000050 09 60 a7 3f 45 e6 25 3f 77 ae 6b 3f e4 bf 66 be
       1.3076183 0.6480449 0.9206309 -0.22534138
000060 14 e9 44 bd 7b 8b 7e 3e 7e c5 1a bd d8 f0 95 be
       -0.048073843 0.24857895 -0.037786 -0.29285312
000070 4a c8 c1 be b9 e2 b0 be 95 88 99 be 90 9e 72 3e
       -0.3784812 -0.34547976 -0.29987016 0.236933
000080 95 90 1e 40 f9 e2 36 bf 7b 42 8a be 8d 0e 28 bd
       2.4775746 -0.7144008 -0.27003846 -0.0410295
000090 53 54 87 3f c4 a3 e3 ba 49 08 f0 3f dc 7e 0a 3f
       1.0572609 -0.0017367532 1.8752528 0.5409982
0000a0 9a 63 44 3f 8e 57 1c 40 a2 95 bf 3f 8d e1 17 bf
       0.7671448 2.442844 1.4967539 -0.5932854
0000b0 c5 6f 78 be 8c 38 bf 3e 07 8d 31 be f5 ba b3 bf
       -0.24261387 0.3734783 -0.17338954 -1.404143
0000c0 4b fc 64 bf 82 10 98 3f f9 41 e4 3f 78 46 12 40
       -0.8944747 1.1880038 1.7832633 2.285551
0000d0 35 22 45 bf 47 62 f1 3e 92 90 13 3f fe bc 8e bf
       -0.7700532 0.47145292 0.5764247 -1.1151426
0000e0 c9 30 9a bf 44 60 82 3f 2c f9 b3 3f ec 32 79 bf
       -1.2046138 1.0185628 1.4060416 -0.97343326
0000f0 0e 74 f4 3e ea ab 56 3e 75 98 1b 3f 62 73 d0 3f
       0.47744793 0.20964018 0.60779506 1.6285212

l2.bias f4 [8]
000000 6a e8 34 3f bb 0b f9 3d b5 0f 14 3d 34 41 b2 be
       0.70667136 0.121604405 0.036147792 -0.3481537
000010 3d 89 32 3e a6 6c 6d 3f 5e b4 07 3f 8a 41 16 be
       0.17435165 0.9274391 0.53009593 -0.14673439

l3.weight f4 [115, 8]
000000 e9 3d c8 3e d1 9d 7e 3f cb 57 5d be 51 29 b0 be
       0.39109734 0.9945956 -0.21615522 -0.34406522
000010 55 a6 14 bf 9f e4 23 3d 9e 4b 6f bf 38 a9 f3 c0
       -0.580663 0.040012952 -0.9347476 -7.6144066
000020 d3 af 5e 3f 62 80 f9 3d 28 22 d1 3d 40 0d 49 be
       0.86987036 0.1218269 0.10211593 -0.1963396
000030 6a a6 80 be bc dd 2f be e9 84 23 c0 e2 1f cc c0
       -0.25126964 -0.17174429 -2.5549872 -6.378892
000040 f9 34 54 3f 25 74 68 3f e7 03 ca be 7d ff 85 3e
       0.8289333 0.9080222 -0.39456102 0.26171485
000050 2d 76 ef bf 58 10 2a 3f d7 c0 d6 bf e3 47 1f c0
       -1.8707939 0.6643119 -1.67776 -2.4887626
000060 1c 43 65 3f 78 92 ff 3e 6e 6f 7a be 43 86 e7 bd
       0.89555526 0.49916434 -0.2445657 -0.11304905
000070 d3 6a fb be 4b e8 4c bf df d2 4a c0 1a 0e 2a bf
       -0.49104938 -0.8004195 -3.1691206 -0.6642777
000080 ae 3f 33 3f 4f 02 bf 3e 9e 47 90 3e b6 23 55 3e
       0.7001904 0.3730645 0.2817964 0.20814404
000090 0f 9f 75 bf 51 53 f4 be 0e 83 a7 bf 74 a9 6e bf
       -0.9594583 -0.47719815 -1.308687 -0.93227315
0000a0 66 2f df 3e 9a 87 39 3f 17 b2 89 be b9 be 08 3e
       0.4359085 0.72472537 -0.26893684 0.13354005
0000b0 14 27 00 c0 0e ab bf 3e 40 67 ad bf bc b7 b2 3d
       -2.0023851 0.37435192 -1.3547134 0.08726451
0000c0 b7 a0 72 3f dd d0 5b 3f d0 15 8c bf c0 e9 8d be
       0.9477648 0.85865575 -1.0944157 -0.277174
0000d0 3f eb 75 bf 3b c6 33 bf ea 87 45 c0 a8 ea 16 3f
       -0.9606208 -0.7022435 -3.0864205 0.5895181
0000e0 27 0f 36 3e 0b 1a ec be 92 92 0c 3f 22 18 07 be
       0.17779218 -0.4611362 0.5491115 -0.131928
0000f0 b3 b3 e0 3e c1 a8 77 bf f6 0f 73 c0 bb 9d f8 bf
       0.438871 -0.96741873 -3.7978492 -1.9423136
000100 28 4b a5 bf c2 59 a0 3f 0e fb 59 3f 97 74 94 3e
       -1.2913561 1.2527392 0.85148704 0.289952
000110 a5 82 94 bf 90 24 87 be 38 fe 00 c0 14 19 69 3f
       -1.160237 -0.26395082 -2.0155163 0.9105389
000120 9a 60 36 be 31 7e 96 be 81 44 9b 3e 5a f7 cb 3d
       -0.17810288 -0.2939315 0.30325702 0.09959288
000130 54 b3 c2 3e 6a 38 f7 3e 23 aa 09 c1 ae 87 f0 bf
       0.38027442 0.48285228 -8.604037 -1.8791406
000140 00 c6 ca be 3a 8b 19 bf ab f4 5e 3f 87 5d 48 3d
       -0.39604187 -0.5997807 0.87092084 0.04891732
000150 0f b9 27 3f 3d 8f 65 be bc 45 d8 c0 bf 86 9f c0
       0.6551675 -0.22417922 -6.7585125 -4.9851985
000160 7e fe 10 bf 28 40 05 be 88 5e 18 3f 0a b3 56 3c
       -0.56638324 -0.13012755 0.59519243 0.01310421
000170 29 25 a9 3e 33 a9 80 be e1 d6 4d c0 0d 20 e6 be
       0.33036163 -0.2512909 -3.2162402 -0.44946328
000180 6f 0f 8b bd a8 4f 2e 3f 4a 4f cc 3e 02 e4 20 3e
       -0.06790053 0.68090296 0.39904243 0.15711978
000190 a8 63 10 bf fb e9 21 bf 73 bf 29 c0 cc 37 df 3e
       -0.56402063 -0.6324765 -2.6523101 0.43597257
0001a0 1a 5e 9e 3d 2e f3 02 3e 2d 30 96 3e 6c 00 b5 be
       0.07732792 0.12788078 0.2933363 -0.35351884
0001b0 4a 29 4f 3e 91 77 dd bf c8 4c f2 bf 1e b5 29 be
       0.20230594 -1.7302114 -1.8929682 -0.16572997
0001c0 39 76 98 3f b2 40 02 3f fd b0 c9 be ca b8 62 3e
       1.1911079 0.5087997 -0.39392844 0.22140804
0001d0 73 d9 cc bd 90 39 f6 bf 8a 6c d3 c0 2d 60 2e c0
       -0.10002413 -1.9236317 -6.6069994 -2.72462
0001e0 50 c0 97 3e b0 0f 4c 3e df 6a 75 3e d5 aa ec bd
       0.2963891 0.1992786 0.2396655 -0.11556021
0001f0 60 ef f0 be 55 3f 66 3f 1d b3 2b c0 08 8e 18 c0
       -0.4705763 0.89940387 -2.6828072 -2.383669
000200 ff 91 9a 3d c9 cc 46 bf 77 fe 58 bf db 05 27 bd
       0.07547378 -0.7765623 -0.8476328 -0.04077707
000210 33 c3 f4 c0 da 1d ae c0 78 d0 eb 3e 2b 40 ec bf
       -7.648828 -5.441144 0.46057487 -1.8457083
000220 8e 57 b4 3e 1c be a8 c0 be d9 23 c0 01 4e b3 be
       0.3522305 -5.2732067 -2.560165 -0.3502045
000230 d0 2f a0 bf c3 dd ac c0 a4 ae 5e 3e 1a df e3 c0
       -1.2514591 -5.4020705 0.21746308 -7.120984
000240 ee 01 01 3f 20 54 49 c0 3c bb f0 be c1 e2 09 3e
       0.5039357 -3.1457596 -0.47017848 0.13465406
000250 70 7a f4 c0 91 f6 be be 61 bb 2d 3e 66 f2 a8 c0
       -7.639946 -0.3729749 0.1696601 -5.2795897
000260 d1 78 81 bd d7 33 41 3e 03 89 27 bf 4b 6b 6a bc
       -0.06321872 0.18867432 -0.6544344 -0.014307807
000270 e2 c8 8c bd 85 e5 26 be 5b 9a a1 bf 83 40 27 be
       -0.06874253 -0.16298492 -1.262523 -0.16333203
000280 09 34 90 3d ba 67 9f c0 22 cb 06 bf 46 51 36 3e
       0.07041175 -4.981412 -0.52653706 0.17804441
000290 75 8e 0c c1 ae 89 03 3f c6 be 2c 3e ef b9 75 3e
       -8.78478 0.5138196 0.1686965 0.2399671
0002a0 b7 9a 66 3f 38 10 66 3f 11 24 cb c0 ff 1a c9 bd
       0.90079826 0.898685 -6.3481526 -0.09819602
0002b0 32 f5 da bf a6 fb 2f 3f 91 72 2e bf 35 90 80 c0
       -1.7106078 0.6874336 -0.68143564 -4.0176034
0002c0 bc 81 f9 3e f9 95 4f 3f 5e 42 2f c0 60 72 8c be
       0.48731792 0.81088215 -2.7384257 -0.2743101
0002d0 66 c8 0a c1 96 81 49 3f 94 a4 39 bf a1 55 12 bf
       -8.673925 0.7871336 -0.7251675 -0.5716191
0002e0 47 de 23 be 4b 23 7e 3f 11 35 12 c1 ef ae 8c be
       -0.16002761 0.992726 -9.137956 -0.27477214
0002f0 d0 10 ef be 87 8f 69 3e 0c c9 81 bf a7 cc b2 3e
       -0.46692514 0.22808658 -1.013948 0.34921762
000300 a2 53 f1 be ac ab fd 3e b6 e1 f5 c0 22 1e 6d 3e
       -0.4713412 0.49545038 -7.6838026 0.23156026
000310 89 2e d5 bf 64 56 41 3e f9 18 ce be dc 71 2f 3f
       -1.6654826 0.18880612 -0.40253428 0.6853311
000320 af 8c 33 bf 2c 09 9d 3f 4f 81 84 c0 f5 98 f7 bd
       -0.7013654 1.2268424 -4.1407847 -0.12089721
000330 6f 12 d4 c0 f6 f0 e4 3d c2 7c 00 bf a5 25 6b 3f
       -6.62725 0.11178772 -0.50190365 0.91854316
000340 93 ee 20 3e bc 92 b6 3f 9a a1 8c c0 5a 8e 48 3e
       0.15716009 1.426353 -4.3947268 0.19585553
000350 8a bc 1c c0 a7 61 06 3f 9a 7e cb bf a1 9f 62 3f
       -2.4490075 0.52492756 -1.5898011 0.88524824
000360 c5 9b a4 be ae 88 17 3c 48 dc 24 c0 85 f8 6c be
       -0.32150093 0.009248896 -2.575945 -0.23141678
000370 f8 35 44 be 43 57 52 bd bb d5 e2 be e5 bf cf be
       -0.19161212 -0.05135275 -0.44303688 -0.4057609
000380 d1 bd 2a c0 ae bc 03 40 61 2c 5e bf 10 ef 16 bd
       -2.6678355 2.058391 -0.86786467 -0.03684908
000390 f9 60 37 c0 8c 64 ba 3e fe 89 b2 bf 32 29 a4 3f
       -2.8652937 0.36404836 -1.3948362 1.2825072
0003a0 a0 0f 26 c0 17 b5 3b 3f 38 42 9f bf e0 6e 63 3e
       -2.5947037 0.73323196 -1.2442083 0.22210264
0003b0 c0 6a 45 be ee 23 5c 3f 28 07 8e bf d0 25 a6 be
       -0.19279003 0.85992324 -1.1095934 -0.32450724
0003c0 a6 75 18 c0 34 4d 1c 3e 53 0b 3a 3e 20 2f 7b 3e
       -2.3821807 0.15263826 0.18168382 0.24529696
0003d0 01 5c 3b be 8b 98 93 3f a4 6e 92 bf eb e8 cc bf
       -0.18296815 1.1530927 -1.1440015 -1.6008581
0003e0 e8 be a5 bf a4 70 84 3f f7 dc 8f bd 42 c8 6c be
       -1.2948885 1.0346875 -0.070245676 -0.23123267
0003f0 1a fe 5d bf 3f ee bd be 41 06 41 bf b1 f6 2b 3f
       -0.86715853 -0.3709583 -0.7540017 0.67173296

l3.bias f4 [115]
000000 f0 ff da bd 78 73 a7 be c4 7c 44 bf e8 2d e7 bd
       -0.106933475 -0.32705283 -0.7675288 -0.11288053
000010 16 e8 f0 bf 3c b1 4a c0 71 64 d2 bf 54 28 9f 3e
       -1.8820827 -3.1670675 -1.6436902 0.31085455
000020 8a 99 1a c0 24 f8 bb 3e de 2b f2 be 21 47 94 bf
       -2.4156213 0.36712754 -0.47299093 -1.1584207
000030 bd ba fa bf db b7 99 bf cf f4 87 be 06 c6 cd bf
       -1.9588238 -1.2009233 -0.26553962 -1.6076057
000040 16 00 5c 3e fd 33 88 3e 2f 4d 08 3f 52 c5 5a 3f
       0.21484408 0.26602164 0.5324277 0.85457337
000050 c8 82 16 c0 17 87 81 bf 46 da da bf 51 37 8f bf
       -2.3517323 -1.0119351 -1.7097862 -1.1188756
000060 0b df b2 bf 25 bd cb bf c5 9e 07 c0 e6 d0 21 be
       -1.3974317 -1.5917097 -2.1190655 -0.15802345
000070 37 91 b7 bf 6f 85 b1 3f 24 02 81 bd 28 75 e2 bf
       -1.4341191 1.3868846 -0.062992364 -1.7692003
000080 69 53 b6 bf 18 11 e4 bf 26 2b 4e bf 8b 9d 3d 3f
       -1.4244205 -1.7817717 -0.8053459 0.74068516
000090 f7 a4 35 bd f3 b1 e5 3e 28 e4 c3 bc 7a 25 e8 bd
       -0.044346776 0.44862327 -0.023912504 -0.11335273
0000a0 ec 29 30 3e 56 90 09 3e c1 83 41 bd 03 fc 03 3e
       0.17203492 0.13433966 -0.04724479 0.12889104
0000b0 c8 d0 07 3f 08 21 8f be b4 bc 6f bc b8 fe b2 bd
       0.5305295 -0.27954888 -0.014632393 -0.0873999
0000c0 25 b9 9e be c4 8c 62 bd b6 6c bd 3e bc 72 7b be
       -0.3100063 -0.055310026 0.36997002 -0.24555486
0000d0 a4 f5 ee be 41 c5 0d c0 e4 83 22 bf b8 6f 78 3f
       -0.46671784 -2.2151644 -0.634825 0.9704547
0000e0 8c 2e 07 bf 04 b2 ae 3f 0b 07 e0 3d 22 3a 02 c0
       -0.528054 1.3648076 0.10938843 -2.0347981
0000f0 7d 34 ce bd a0 10 a6 bf 1d de 06 3f b0 02 0c 40
       -0.10068605 -1.2973824 0.5268267 2.187664
000100 d8 fc 15 bf 19 4d 9a bf 2c ba 06 bf db 8c 1a bf
       -0.58588934 -1.2054778 -0.52627826 -0.6037118
000110 6c 3f 48 bf 9a 75 17 c0 56 a1 77 c0 bb e4 99 bf
       -0.78221774 -2.3665528 -3.8692222 -1.2022928
000120 b3 5e 42 bf 76 36 25 bf 5a 4d 0c bf 63 8a a6 bf
       -0.7592575 -0.64536226 -0.5480553 -1.3010982
000130 77 63 fe bf 69 a3 fa bf 20 92 84 3e 66 15 1e 3e
       -1.9874104 -1.9581119 0.25892735 0.1543785
000140 80 f4 19 c0 4d a7 51 bf 49 30 1f be b6 6f 12 c0
       -2.405548 -0.81895906 -0.15545763 -2.2880683
000150 84 71 fe bf a9 75 45 c0 4e b0 1c c0 5e 12 0c c0
       -1.9878392 -3.0853064 -2.4482608 -2.188621
000160 7e a8 02 c0 b4 5c 0e 3f b8 fe c4 bf 74 a1 8e bf
       -2.041534 0.55610204 -1.5390234 -1.1143022
000170 c0 d8 0c c0 da fd 3c c0 a3 39 92 bf 59 ec 06 c0
       -2.2007294 -2.9529939 -1.1423839 -2.1081755
000180 57 2d 00 40 e4 ca 31 3f 3c 87 e6 3e fe 18 a9 bc
       2.0027673 0.6945021 0.4502505 -0.0206418
000190 20 33 89 be d8 e4 32 3e 99 17 58 bd 5f 08 97 3e
       -0.26796818 0.1747011 -0.05275688 0.29498574
0001a0 7f dc cc be 54 a5 98 be b8 9b 33 bd 1f 39 a5 3d
       -0.40011975 -0.29813635 -0.043849677 0.080675356
0001b0 ef b0 c7 3d 2b 85 a8 be 2e 0f 70 3d 7c 26 cd 3e
       0.09750544 -0.329141 0.058608226 0.40068424
0001c0 be e7 74 3e c9 42 03 3f be ca b6 3e
       0.23916528 0.5127378 0.35701555
