data.pth (torch, 5994 bytes, 6 tensors)

l1.weight f4 [8, 38]
-0.13065162 -0.37678412 0.2541072 0.84796333 -1.2443979 0.72179145 1.3948729 -1.2692392
-0.6948238 1.1718394 -0.8333396 -0.51082414 -0.1544435 0.17356338 -0.2649551 -0.73295605
-0.32450545 0.029367164 -0.14132272 -0.26814315 -0.6149824 -0.8682546 -0.6604772 0.79439276
1.3844731 0.8696641 -0.31402066 0.24389018 -0.68640286 -1.0319922 0.9482371 -0.39608487
0.7932253 0.5961087 -0.7972399 -1.1393282 0.68570507 0.6617029 0.13321915 0.030018855
0.287686 -0.9349496 0.39549574 0.44509992 0.48199543 0.40419507 -0.56212217 0.61060995
-1.4437674 0.14764719 0.19916306 1.1058735 0.4863028 0.095876075 -0.1804158 0.18378414
-0.0007808858 -0.0050806454 0.6193124 0.6506236 -0.64736044 0.5153069 0.9262704 1.0278187
0.60927725 -0.49750337 -0.7744707 1.2602276 0.71591336 -0.61953336 -0.7297893 0.61039525
-1.4059262 1.437127 0.60832477 0.56487364 0.35162517 0.59897214 0.5421586 -0.661028
1.0617568 -0.024850167 -0.7566623 1.2228028 0.48942295 -0.8545129 0.3248209 0.5107243
0.58787066 -0.08876083 0.24364223 0.7043179 1.6382073 0.496047 0.5589227 0.3987129
0.8711318 0.8822757 0.38287398 -0.5872308 -0.40879714 -0.72804874 1.4693326 -0.099567175
0.61753577 0.06624986 -0.49994153 0.38567093 -0.6474099 0.23748691 0.33341447 0.1071327
0.023829617 0.059937518 0.92964834 -0.36309165 0.6041808 0.04797299 0.49050108 0.067774475
0.40672743 0.48952252 -0.14227042 0.3811011 -0.025452267 -0.46039706 0.82902163 0.6188959
-0.38987508 -1.0480888 0.021376789 0.73366314 0.9142791 0.7224592 0.77486795 0.8244474
-0.14786856 -1.2671813 1.1263227 -0.97734445 0.048244473 0.61810666 0.016942598 -0.029330892
-1.048864 0.016230501 -0.24048276 0.1267261 0.1755852 -0.094538696 0.05306697 0.29510832
0.14377062 0.96117437 -0.008151747 0.6344586 0.09808189 0.6060478 -0.52922505 0.19168665
0.36170593 -0.4126165 0.20011319 1.231033 0.1294645 -0.88171786 1.3610564 0.401414
0.9825392 0.32974905 0.23404929 0.27144864 -0.7025813 -0.8442415 0.49991837 0.49756807
-0.35659757 -0.13542171 0.5894344 0.47795615 0.5047252 0.5612597 0.7093828 0.42482442
0.62703055 0.864822 0.40164247 0.47512373 0.825311 0.654332 0.058219552 -0.397538
0.47735214 -0.037377812 -0.9656216 0.38579613 1.2014182 -0.70992166 0.52101254 1.18631
0.028985325 -0.25596893 -0.1125229 0.91923594 -0.8233855 -0.71891254 -0.34861782 -0.12389827
0.0821116 -0.1109597 0.6866506 0.6346955 0.48815498 0.92418253 -1.0872778 -0.3009992
0.12163152 1.3907657 0.66057235 -0.03200004 0.9396038 0.5707459 -0.35031572 0.39429373
-0.050410427 -0.06832696 0.30275905 0.29321554 -0.004091263 0.4130857 -0.036799498 -0.15075767
-0.15928312 -0.043357663 1.2967076 -0.22362459 0.78677577 1.2888924 -0.19037992 0.49482036
-0.06593242 0.51850945 -0.4415358 -0.51233983 0.24172813 0.07886335 -0.017317995 -0.124043226
-0.1487983 -0.040563397 0.6450792 0.082129575 -0.5090456 -0.22039495 0.094173856 -0.005458832
00000000: 8ac9 05be d9e9 c0be 571a 823e 2014 593f
00000010: 6e48 9fbf 53c7 383f 328b b23f 6e76 a2bf
00000020: f9df 31bf d5fe 953f be55 55bf 5fc5 02bf
00000030: 7026 1ebe 99ba 313e 32a8 87be 02a3 3bbf
00000040: 9425 a6be 6893 f03c e7b6 10be 0f4a 89be
00000050: 7d6f 1dbf ef45 5ebf 0915 29bf 535d 4b3f
00000060: 6a36 b13f 4ea2 5e3f 51c7 a0be 59be 793e
00000070: 19b8 2fbf 5218 84bf abbf 723f a3cb cabe
00000080: d010 4b3f 949a 183f ea17 4cbf 82d5 91bf
00000090: 5e8a 2f3f 5c65 293f 9a6a 083e 1aea f53c
000000a0: 944b 933e db58 6fbf 6b7e ca3e 23e4 e33e
000000b0: 1bc8 f63e a8f2 ce3e 3de7 0fbf ef50 1c3f
000000c0: 5fcd b8bf d330 173e 67f1 4b3e 438d 8d3f
000000d0: aefc f83e ad5a c43d ebbe 38be e931 3c3e
000000e0: 5cb4 4cba 8b7b a6bb 428b 1e3f 458f 263f
000000f0: 6ab9 25bf 27eb 033f 0f20 6d3f 908f 833f
00000100: 98f9 1b3f c3b8 febe b643 46bf 234f a13f
00000110: 1946 373f bd99 1ebf 79d3 3abf dd42 1c3f
00000120: 64f5 b3bf c7f3 b73f 2cbb 1b3f 8f9b 103f
00000130: 3708 b43e 3d56 193f e8ca 0a3f 2239 29bf
00000140: a6e7 873f 9492 cbbc 9fb4 41bf cd84 9c3f
00000150: a595 fa3e 5bc1 5abf ed4e a63e d4be 023f
00000160: b17e 163f 3dc8 b5bd 597d 793e 2e4e 343f
00000170: c7b0 d13f dff9 fd3e 8f15 0f3f 1924 cc3e
00000180: 7e02 5f3f d2dc 613f 0f08 c43e c254 16bf
00000190: dc4d d1be 6761 3abf 1713 bc3f e0e9 cbbd
000001a0: d316 1e3f 02ae 873d 56f8 ffbe a976 c53e
000001b0: a8bc 25bf c52f 733e 4db5 aa3e 6468 db3d
000001c0: 5436 c33c 0b81 753d 6ffd 6d3f 26e7 b9be
000001d0: 98ab 1a3f 537f 443d f522 fb3e 58cd 8a3d
000001e0: 943e d03e b2a2 fa3e 56af 11be af1f c33e
000001f0: 4681 d0bc 2ab9 ebbe c33a 543f f66f 1e3f
00000200: b59d c7be c627 86bf 601e af3c 59d1 3b3f
00000210: 320e 6a3f 16f3 383f bf5d 463f fc0e 533f
00000220: db6a 17be ff32 a2bf 582b 903f 3f33 7abf
00000230: ff9b 453d 3d3c 1e3f 34cb 8a3c 5747 f0bc
00000240: 2d41 86bf d4f5 843c 1d41 76be 7dc4 013e
00000250: 9bcc 333e 819d c1bd c05c 593d 7018 973e
00000260: 9b38 133e 860f 763f e88e 05bc e16b 223f
00000270: 28df c83d f325 1b3f 4b7b 07bf 8149 443e
00000280: 8531 b93e 7842 d3be 79ea 4c3e 7d92 9d3f
00000290: 5892 043e 43b8 61bf 1937 ae3f 2386 cd3e
000002a0: b087 7b3f ded4 a83e 9eaa 6f3e 51fb 8a3e
000002b0: 5edc 33bf 3620 58bf 4df5 ff3e 3ec1 fe3e
000002c0: f593 b6be fdab 0abe 2ce5 163f abb6 f43e
000002d0: ac35 013f b7ae 0f3f 1c9a 353f 9682 d93e
000002e0: 1385 203f f964 5d3f 15a4 cd3e 6b43 f33e
000002f0: 9547 533f 4d82 273f a077 6e3d 1a8a cbbe
00000300: 8067 f43e 7a19 19bd fa32 77bf 1287 c53e
00000310: 12c8 993f 6dbd 35bf 1461 053f 02d9 973f
00000320: a272 ed3c 5c0e 83be 6872 e6bd 0c53 6b3f
00000330: 64c9 52bf a70a 38bf 097e b2be 60be fdbd
00000340: 202a a83d d73e e3bd 55c8 2f3f 677b 223f
00000350: 73ef f93e 3a97 6c3f eb2b 8bbf 911c 9abe
00000360: f219 f93d 9c04 b23f 451b 293f 7912 03bd
00000370: e089 703f 671c 123f 955c b3be dee0 c93e
00000380: 2a7b 4ebd 01ef 8bbd 3c03 9b3e 5920 963e
00000390: 0010 86bb f87f d33e 12bb 16bd 3860 1abe
000003a0: 1d1b 23be ce97 31bd 84fa a53f d8fd 64be
000003b0: 236a 493f 6dfa a43f f4f2 42be 1859 fd3e
000003c0: 9407 87bd 09bd 043f fb10 e2be b428 03bf
000003d0: 9487 773e 1c83 a13d 78de 8dbc 600a febd
000003e0: 955e 18be ce25 26bd e923 253f 8d33 a83d
000003f0: d050 02bf 37af 61be 39de c03d 00e0 b2bb

l1.bias f4 [8]
0.65608937 0.40395683 0.55743206 0.51562154 0.6226461 0.122008525 0.05169535 0.2006074
00000000: 79f5 273f 6ed3 ce3e deb3 0e3f c6ff 033f
00000010: bc65 1f3f 9bdf f93d 81be 533d 076c 4d3e

l2.weight f4 [8, 8]
-0.5521958 1.2315072 0.57898927 -1.5393401 0.84453595 -1.1396712 -0.72048515 -0.6065848
-0.27454832 -0.13096328 -0.094150156 0.03486079 -0.29045644 0.1725361 0.11367273 0.22659394
-0.43074536 -0.73457754 0.61178935 -0.27468383 0.5815905 1.5223742 1.0985903 2.2994351
1.1660475 0.9801375 -0.8414667 -1.8618302 1.1778471 1.2692198 0.52858996 -1.2700803
-0.29050446 0.0985156 -0.081521034 -0.024986804 -0.1578327 0.14595082 -0.34500182 -0.14765276
0.4278449 -0.7943099 -0.13920438 -0.9859026 1.0583689 -0.3934898 -1.2639375 1.0544887
1.5451787 1.656484 -0.46857968 -0.17753598 0.0806512 0.67230576 -0.42267248 0.9491849
-0.28236097 0.07492916 1.9325846 0.523339 1.0705973 -0.6581019 -0.6375436 -0.98711264
00000000: b45c 0dbf 07a2 9d3f a438 143f 1909 c5bf
00000010: 8233 583f bfe0 91bf b771 38bf 2449 1bbf
00000020: 9991 8cbe 3d1b 06be ccd1 c0bd 30ca 0e3d
00000030: b5b6 94be 4ead 303e 40cd e83d 3e08 683e
00000040: a88a dcbe 460d 3cbf 3a9e 1c3f 5ca3 8cbe
00000050: 1de3 143f 28dd c23f 9b9e 8c3f f229 1340
00000060: 0b41 953f 4bea 7a3f 5d6a 57bf 7450 eebf
00000070: b2c3 963f cb75 a23f ac51 073f fe91 a2bf
00000080: 00bd 94be 8cc2 c93d 80f4 a6bd 20b1 ccbc
00000090: e59e 21be 2274 153e 14a4 b0be 4932 17be
000000a0: 7d0e db3e e557 4bbf 988b 0ebe 1d64 7cbf
000000b0: a278 873f 7f77 c9be b4c8 a1bf 7cf9 863f
000000c0: 6ac8 c53f ab07 d43f ade9 efbe fecb 35be
000000d0: 752c a53d 3b1c 2c3f 8768 d8be c8fd 723f
000000e0: 9e91 90be 7674 993d ef5e f73f 8bf9 053f
000000f0: 5509 893f 5e79 28bf 0f36 23bf 6ab3 7cbf

l2.bias f4 [8]
0.3870423 -0.2962024 -0.17607589 0.31868204 -0.2074454 0.6174732 0.5562986 0.56027967
00000000: 692a c63e d7a7 97be 3d4d 34be 4b2a a33e
00000010: 916c 54be b912 1e3f 9669 0e3f 7d6e 0f3f

l3.weight f4 [17, 8]
-0.40003935 0.19232008 0.36017203 0.13052699 -0.13516228 -0.52210623 -1.5911105 -0.028172577
0.14080022 0.015461117 -0.52283937 -0.0747546 0.06507343 0.50396645 -1.2865133 0.19215573
0.793774 0.21536532 -1.227712 -0.004862082 0.032915056 -0.41110766 -0.5547077 -0.09864757
0.21461263 -0.19098984 0.22345963 -1.0236592 -0.11930032 0.03668335 -0.34744152 -0.2270863
-0.3834515 -0.00595966 -1.3045413 -0.24074325 -0.16451913 -0.29278624 0.23399541 0.1821765
0.6461769 0.05894503 -0.42887294 -0.8851266 0.11746955 -0.89319336 -0.7620274 0.29609838
-0.87372667 -0.338946 0.32696393 -0.32588455 0.3359892 -1.2774528 0.39285615 -1.8029308
-0.8813099 0.20020649 0.79344755 -2.101991 -0.31370062 0.5982135 -0.13987702 -1.5824356
-0.8113002 -0.073984414 0.80997926 -2.1691425 0.1046789 -1.7010292 0.41772926 -1.3077552
-1.4000174 -0.0012470484 -0.68302983 0.52099913 -0.15969887 -2.1653502 0.2774811 -1.1447129
-0.8821899 -0.19444595 -0.23004687 0.3531109 -0.3011414 -0.30410853 -0.2892028 -0.36111036
-1.7533588 -0.21770525 -0.35574716 0.2853026 -0.33996063 0.20144066 0.1954922 -2.479473
-1.5153648 0.117387414 0.64675313 -1.8470261 -0.13805124 0.4674765 -1.0001677 0.14751855
-2.2875571 -0.12430787 0.19339964 -0.55753624 -0.10873532 -0.053102452 -0.047833376 0.0229047
-1.1716896 0.004869938 0.060522556 -0.46137223 -0.036465317 1.051485 0.06744682 -1.9759029
-1.3118992 0.099205375 -0.91649026 -0.722441 -0.24365944 -0.36979577 -1.2747014 0.78889006
-0.038573958 0.036622584 -2.1658597 0.58610386 0.30769387 0.005045695 0.20831446 -1.0629116
00000000: f5d1 ccbe 8eef 443e 7868 b83e dea8 053e
00000010: fb67 0abe c1a8 05bf 82a9 cbbf 2dca e6bc
00000020: ef2d 103e a050 7d3c cdd8 05bf f118 99bd
00000030: 3845 853d f203 013f 78ac a4bf 79c4 443e
00000040: c634 4b3f ba88 5c3e ab25 9dbf 1a52 9fbb
00000050: f0d1 063d b47c d2be 5301 0ebf bd07 cabd
00000060: 6ac3 5b3e d792 43be 9ad2 643e 4407 83bf
00000070: ba53 f4bd 4841 163d dbe3 b1be 5089 68be
00000080: c153 c4be 4049 c3bb 36fb a6bf 6685 76be
00000090: b477 28be 14e8 95be 7e9c 6f3e 7a8c 3a3e
000000a0: d96b 253f 5870 713d 3c95 dbbe a897 62bf
000000b0: e093 f03d 52a8 64bf 3a14 43bf 359a 973e
000000c0: 8dac 5fbf 558a adbe d167 a73e 57da a6be
000000d0: c706 ac3e 9383 a3bf 7124 c93e 70c6 e6bf
000000e0: 879d 61bf ee02 4d3e 611f 4b3f 0587 06c0
000000f0: 5e9d a0be 8524 193f ec3b 0fbe 408d cabf
00000100: 5fb1 4fbf 2485 97bd cd5a 4f3f 3bd3 0ac0
00000110: e461 d63d 53bb d9bf 9ce0 d53e 8664 a7bf
00000120: c533 b3bf 0074 a3ba 0bdb 2ebf 3360 053f
00000130: 1a88 23be 1995 0ac0 0112 8e3e f485 92bf
00000140: 33d7 61bf d71c 47be 6891 6bbe f4ca b43e
00000150: 352f 9abe 1db4 9bbe 6412 94be 75e3 b8be
00000160: 106e e0bf 20ee 5ebe 7e24 b6be 2f13 923e
00000170: 520f aebe 7646 4e3e 1b2f 483e b0af 1ec0
00000180: 79f7 c1bf d068 f03d 9d91 253f 5a6b ecbf
00000190: 4e5d 0dbe 1459 ef3e 7f05 80bf 1a0f 173e
000001a0: 5667 12c0 2095 febd 8e0a 463e b2ba 0ebf
000001b0: a0b0 debd f581 59bd eeec 43bd a3a2 bb3c
000001c0: edf9 95bf 0094 9f3b 80e6 773d fb38 ecbe
000001d0: a85c 15bd 0f97 863f 8f21 8a3d 63ea fcbf
000001e0: 50ec a7bf 302c cb3d 1b9f 6abf e5f1 38bf
000001f0: dc81 79be df55 bdbe 6a29 a3bf b3f4 493f
00000200: baff 1dbd 9001 163d 729d 0ac0 e70a 163f
00000210: 0d8a 9d3e 5c56 a53b 6350 553e 7d0d 88bf

l3.bias f4 [17]
-0.97215253 -0.8642992 -0.9503573 -0.5639759 -0.68624234 -0.71647316 -0.33383027 -0.26604384
-0.4326381 -0.56303495 -0.4496738 -0.4810318 -0.7798969 -0.7409208 -0.5373165 1.8315678
-0.5222263
00000000: fdde 78bf b642 5dbf 9e4a 73bf b960 10bf
00000010: 94ad 2fbf c96a 37bf cdeb aabe e636 88be
00000020: be82 ddbe 0f23 10bf a53b e6be cd49 f6be
00000030: 53a7 47bf fcac 3dbf 938d 09bf d070 ea3f
00000040: 9fb0 05bf
