data.pth (torch, 17898 bytes, 6 tensors)

l1.weight f4 [8, 96]
2.24495 2.2176418 0.5642925 0.62349206 1.3066866 1.2576923 0.7594107 0.4607567
0.6996598 -0.4270859 0.9858794 2.9908438 -0.8945308 4.322566 -1.307007 3.8189895
0.25920466 1.4598252 0.8189542 0.7946447 2.9829452 1.9843737 1.1619688 -0.59935045
1.4136467 -1.8240019 4.3374825 -1.0039188 -2.5794945 0.65382504 0.7263185 2.4915757
2.949578 -1.6665415 0.8480896 1.1767637 0.02455771 0.19495703 0.5417386 1.6669009
-2.4522378 1.2564657 1.1714802 0.91280794 2.4753203 3.8777835 0.4140086 -0.19050018
0.28252286 0.7373411 0.566767 1.8806666 1.0419517 1.1360344 0.5116479 1.0164198
-0.42450744 1.172534 0.6422927 -0.66918707 -0.02686279 -0.43265077 -0.6016748 -0.67597085
1.1956705 0.7357196 -1.9321374 -2.0818994 0.26746714 -2.7840629 2.1618142 3.015921
1.2342714 1.9819971 0.4084802 -1.2878894 -0.08727899 0.77957565 0.7544415 -0.71155334
0.17389445 -0.7961583 -0.69182754 0.7661422 3.774625 0.5954736 -2.7699215 0.15576272
1.3480271 4.3779097 -0.07736353 -0.8439058 1.2478207 0.5065493 -0.6773639 -0.7520498
-0.8118151 -0.8105486 -0.24902226 -0.16315307 -0.3321812 -0.47608608 0.38282576 0.18983066
2.1259837 0.2333222 0.84568876 -0.04647252 0.34497914 -0.25849384 1.5801828 0.47124252
0.8901212 0.020414433 2.2562006 0.1936429 -0.147426 1.7475747 1.8126318 0.32029906
1.7284427 -1.3618454 -0.34560397 0.43462908 -2.0114813 2.0000021 -0.47346738 2.1240966
0.74862796 -1.5306598 0.21085602 1.0245074 1.0384907 1.1324972 -0.032693937 1.6297944
-2.0775418 0.78228766 -0.7480536 0.7888792 2.2720704 0.46412727 0.28767946 -0.049771912
1.470458 0.2774836 0.2967023 -0.47392833 -0.25127795 1.7562222 0.42148244 -0.7125333
-1.4275386 -0.74360937 0.44709274 0.25848636 0.98869437 0.24448381 0.43929452 -0.27952355
0.98280966 0.4323195 1.3500941 1.2514853 1.0892142 -0.62000704 -5.9893403 -0.033900112
-0.02421613 1.7803563 0.12690277 1.6638951 0.8973374 0.30623385 -1.2959148 1.388693
1.0403374 0.49055502 0.96705055 0.05940519 0.6335975 -0.49777135 -0.6701219 1.0639721
0.041812114 -0.8877189 1.5179436 0.0141110625 0.8371032 -0.59977686 0.33377218 0.13817823
-0.53197074 -0.5302904 -0.055331424 -0.02491699 -0.27416366 -0.2587548 -0.63583714 0.0062604924
2.0352519 -0.5814761 1.0849507 2.189735 0.0074321954 1.2427515 0.60446024 1.1130952
0.117723525 -0.12851784 1.9952229 1.4008641 1.0347033 -1.632117 1.3623236 0.046551093
1.2908278 -2.5197487 1.2324649 0.28308535 -3.1204224 -3.1461365 1.7732188 -1.0147086
1.2342564 -2.511466 1.710299 1.1953517 0.52511525 0.23842622 1.8761698 1.4364866
-3.2790687 -1.2238449 -0.55111456 1.1372044 -0.9892383 1.1796687 -0.51712036 0.6503623
0.7960409 -0.701526 -0.4219667 -6.3852506 0.81787235 1.5275074 -0.04491934 -0.44321796
0.4258288 -0.5632545 -0.6373959 0.13365331 0.53476024 -0.73763764 -0.09574552 1.3541045
00000000: 43ad 0f40 d8ed 0d40 7975 103f 2d9d 1f3f
00000010: 8241 a73f 10fc a03f bd68 423f 4de8 eb3e
00000020: e81c 333f 01ab dabe 9862 7c3f fc69 3f40
00000030: f8ff 64bf 7652 8a40 014c a7bf 536a 7440
00000040: 79b6 843e 8ddb ba3f fca6 513f d66d 4b3f
00000050: 93e8 3e40 f5ff fd3f 65bb 943f 086f 19bf
00000060: 60f2 b43f e578 e9bf a8cc 8a40 6980 80bf
00000070: 7016 25c0 1461 273f 02f0 393f fa75 1f40
00000080: e3c5 3c40 3b51 d5bf 661c 593f 31a0 963f
00000090: 402d c93c d1a2 473e 62af 0a3f 025d d53f
000000a0: 77f1 1cc0 ded3 a03f 10f3 953f c8ad 693f
000000b0: a66b 1e40 9b2d 7840 eff8 d33e 7b12 43be
000000c0: d6a6 903e 63c2 3c3f a417 113f afb9 f03f
000000d0: ac5e 853f 9369 913f 5bfb 023f 0b1a 823f
000000e0: 0a59 d9be 9815 963f 4b6d 243f d84f 2bbf
000000f0: 5b0f dcbc 6784 ddbe 5c07 1abf 6d0c 2dbf
00000100: bb0b 993f 1f58 3c3f 4750 f7bf d73d 05c0
00000110: 74f1 883e 162e 32c0 2a5b 0a40 da04 4140
00000120: 9bfc 9d3f 15b2 fd3f 5124 d13e 8fd9 a4bf
00000130: 54bf b2bd 4592 473f 1423 413f 5c28 36bf
00000140: 6311 323e 08d1 4bbf 9c1b 31bf e521 443f
00000150: 7593 7140 f570 183f 6546 31c0 4380 1f3e
00000160: 278c ac3f d617 8c40 c570 9ebd 360a 58bf
00000170: 97b8 9f3f 37ad 013f b867 2dbf 5686 40bf
00000180: 1dd3 4fbf 1d80 4fbf b1ff 7ebe 9911 27be
00000190: a713 aabe 8ec1 f3be bd01 c43e f862 423e
000001a0: 1e10 0840 04ec 6e3e 0f7f 583f f859 3ebd
000001b0: 1ba1 b03e 4e59 84be 6e43 ca3f b346 f13e
000001c0: fcde 633f 2b3c a73c 9765 1040 534a 463e
000001d0: d7f6 16be 87b0 df3f 5204 e83f 3dfe a33e
000001e0: 9c3d dd3f f350 aebf 01f3 b0be b487 de3e
000001f0: 1cbc 00c0 0900 0040 516a f2be 33f1 0740
00000200: 15a6 3f3f a9ec c3bf a4ea 573e 0f23 833f
00000210: 43ed 843f abf5 903f 14ea 05bd 1a9d d03f
00000220: 72f6 04c0 0144 483f 7180 3fbf fdf3 493f
00000230: 9a69 1140 17a2 ed3e b94a 933e a2dd 4bbd
00000240: f837 bc3f 5512 8e3e 5de9 973e bca6 f2be
00000250: 81a7 80be e4cb e03f 8ccc d73e 9568 36bf
00000260: 96b9 b6bf 2f5d 3ebf 57e9 e43e 5358 843e
00000270: 131b 7d3f f759 7a3e 36eb e03e b61d 8fbe
00000280: 6a99 7b3f fb58 dd3e e2cf ac3f ac30 a03f
00000290: 5f6b 8b3f c8b8 1ebf ada8 bfc0 d8da 0abd
000002a0: e860 c6bc b7e2 e33f cdf2 013e 84fa d43f
000002b0: e7b7 653f afca 9c3e 89e0 a5bf b1c0 b13f
000002c0: c729 853f 072a fb3e a090 773f db52 733d
000002d0: 7233 223f e3db febe 1c8d 2bbf 3d30 883f
000002e0: 2e43 2b3d 8c41 63bf fa4b c23f 1632 673c
000002f0: 654c 563f fa8a 19bf 30e4 aa3e 987e 0d3e
00000300: 3c2f 08bf 1dc1 07bf 34a3 62bd b71e ccbc
00000310: 2e5f 8cbe 827b 84be 39c6 22bf d124 cd3b
00000320: 9141 0240 9edb 14bf aadf 8a3f 9e24 0c40
00000330: c689 f33b 7b12 9f3f e8bd 1a3f e779 8e3f
00000340: 0819 f13d 2e9a 03be 7763 ff3f 844f b33f
00000350: 2871 843f 36e9 d0bf 9f60 ae3f 5cac 3e3d
00000360: d839 a53f 9043 21c0 69c1 9d3f 90f0 903e
00000370: 00b5 47c0 4d5a 49c0 d5f8 e23f f9e1 81bf
00000380: 1dfc 9d3f dcbb 20c0 14eb da3f 4901 993f
00000390: f46d 063f 0126 743e 5526 f03f cbde b73f
000003a0: 43dc 51c0 f3a6 9cbf d815 0dbf ea8f 913f
000003b0: b93e 7dbf 62ff 963f 0062 04bf 257e 263f
000003c0: 56c9 4b3f 3597 33bf 050c d8be f953 ccc0
000003d0: 1560 513f 5d85 c33f 58fd 37bd 77ed e2be
000003e0: 3c06 da3e 7231 10bf 612c 23bf 6adc 083e
000003f0: 0ce6 083f d2d5 3cbf 3a16 c4bd 4c53 ad3f

l1.bias f4 [8]
1.1987063 0.7438925 0.4732234 1.0773532 1.0703743 0.56432295 1.0019509 0.4128148
00000000: 356f 993f bd6f 3e3f 564a f23e b6e6 893f
00000010: 0602 893f 7877 103f ed3f 803f 765c d33e

l2.weight f4 [8, 8]
0.38693386 2.1231568 -0.7387009 -0.9004127 0.5611728 -1.1011021 0.9650855 1.4149675
-1.2719944 -0.043290474 1.4156744 0.067679495 1.8042928 -1.0608234 1.7112126 -0.9212196
-1.1950393 -0.5238508 0.30194226 -1.1986575 1.2025449 0.47533265 0.5389328 1.2157108
0.70860463 -1.1134555 -1.9937972 3.1966047 1.1396062 0.2350064 1.528182 1.1377364
0.074765645 0.013004713 -0.3420258 0.030198218 -0.23808394 -0.35278335 -0.19351359 0.2285168
3.1900663 -0.43102488 1.9990952 0.2301992 -0.64909273 0.11744462 0.9142436 0.867095
-0.30521727 1.0438352 -2.043144 -0.5122101 1.0946465 2.128357 -0.51817656 -0.9572827
0.33421692 1.9671689 1.333647 -0.5989049 0.36756998 1.2620975 -1.7301294 1.6970661
00000000: 321c c63e cde1 0740 811b 3dbf 7281 66bf
00000010: 05a9 0f3f eaf0 8cbf d80f 773f a81d b53f
00000020: b6d0 a2bf 5a51 31bd d234 b53f 8c9b 8a3d
00000030: 11f3 e63f 10c9 87bf 0409 db3f 0cd5 6bbf
00000040: 0cf7 98bf 161b 06bf 2d98 9a3e 9c6d 99bf
00000050: feec 993f cd5e f33e 80f7 093f 699c 9b3f
00000060: 1d67 353f b685 8ebf bf34 ffbf 2c95 4c40
00000070: 9ede 913f 85a5 703e 789b c33f 59a1 913f
00000080: bb1e 993d b811 553c 011e afbe 4162 f73c
00000090: 47cc 73be 05a0 b4be 6d28 46be 4f00 6a3e
000000a0: 0c2a 4c40 4baf dcbe 5ae2 ff3f 57b9 6b3e
000000b0: f12a 26bf ce86 f03d de0b 6a3f f0f9 5d3f
000000c0: 7045 9cbe 649c 853f dfc2 02c0 3320 03bf
000000d0: 601d 8c3f 0037 0840 38a7 04bf 7b10 75bf
000000e0: 7b1e ab3e 31cc fb3f f2b4 aa3f d551 19bf
000000f0: 2232 bc3e 698c a13f e174 ddbf 7639 d93f

l2.bias f4 [8]
-0.40494502 0.54860187 -0.16540053 1.1707252 -0.17169148 -0.53278625 0.66929144 0.043107487
00000000: f454 cfbe 2c71 0c3f c25e 29be 53da 953f
00000010: e4cf 2fbe ae64 08bf af56 2b3f 7a91 303d

l3.weight f4 [121, 8]
0.15359816 0.66448414 -1.0640396 -1.4386109 -0.26704487 0.24754828 -6.818222 -0.700216
0.34654608 0.0029343504 -0.6512618 -3.4147005 -0.35650343 1.0561855 -4.626841 -0.7419199
-0.16302374 -1.9043152 -1.376762 -0.01863659 0.12942237 0.66967714 -3.855901 -0.3604205
-0.5128354 0.49401996 0.84025484 -1.2069322 -0.09983776 0.5392054 -5.6596017 -1.868018
-8.876606 0.7895925 -0.8714887 0.353077 0.09227739 0.15999745 -6.246604 -3.1519322
-3.5500972 0.43082535 -0.18957007 -0.42645335 -0.09189647 0.9041703 -7.359344 -1.5735906
-2.8194728 0.685647 -1.1685083 0.4525885 0.19130407 0.027764762 -4.0417743 -6.4123073
-7.8313503 1.1102536 0.88490474 -0.27568525 -0.12482374 0.17581066 -0.80089825 -4.8519473
-0.053212967 -0.87476045 -1.2830629 -0.3603854 0.24601857 0.2262001 -0.11686629 -0.1625655
0.40458906 1.317363 0.24239993 -2.4506903 0.2931238 -0.6859437 -2.4810307 -1.1875633
-0.57240266 1.1706332 0.65459085 -0.7654829 -0.35275578 -0.43525445 -3.922619 -1.9813513
-0.6958171 0.9392609 -0.47904804 -0.1635955 -0.2198228 -0.3392802 -2.2391262 -7.703904
-2.2962074 0.85370183 0.8659108 -0.15477699 -0.39838263 0.021614576 -5.389458 -3.8439674
-2.438525 0.54911274 -0.30951926 0.2180826 -0.050339386 -0.046687853 -2.9115007 -0.8869349
-1.2216082 -1.0586025 -1.9459823 0.32829505 -0.055530913 0.3369557 -1.2648028 -0.2869047
-0.4411457 0.41034433 -6.0964417 -0.69958395 -0.18892412 1.0784584 -4.3370705 -1.6128618
-0.41927677 0.5938596 -0.997756 -0.12947994 0.22915836 0.17872588 -8.874655 -1.5212224
0.18904242 -1.355321 -0.13876876 -7.9634404 0.102034435 -0.04602324 0.16060406 0.049481
-0.101398334 -8.478703 -0.16338228 -1.2255638 -0.20374332 0.026704142 -0.15688403 0.3108834
-0.3046361 -0.579442 0.37762314 -0.5563658 -0.09928129 -0.037432853 -0.10945497 -0.35768837
-1.9334363 -0.32600412 -5.9815226 0.057548635 0.2524422 0.14725426 0.5686094 -0.42948988
0.016806891 0.672253 -4.3681197 -0.2746356 0.062253322 -0.5869173 -4.5146384 0.38286316
0.5937998 0.9532952 -2.3004963 -4.247971 -0.07520596 0.28191283 -0.90055704 -0.5617249
0.20655107 -4.110473 -3.820953 0.1023264 0.0029086766 -0.0254344 -1.725079 0.24069099
-0.4371573 0.66538507 -1.0932835 -0.16364512 0.20707375 -0.46251276 -1.586167 -0.36412987
-7.4721704 -0.17096722 -7.073883 0.86767375 -0.035208452 -0.87627614 -2.2839203 -1.0006266
-4.231361 -0.12393504 -6.403575 0.7635352 -0.15677993 -0.19281743 -7.8906264 -0.35943094
-6.2278433 0.34582648 -5.272501 1.0380805 -0.2333589 -1.8335413 -3.4996235 -6.922645
-3.4970841 0.7002852 -2.8729415 0.43840542 0.18113019 -5.0515304 -0.60916954 -4.2164617
1.5255574 -5.4729366 -3.585807 0.013459185 0.0036180858 -1.6411977 0.10364499 -0.093028486
0.30198523 2.1115837 -0.7751815 -2.6271408 -0.11433533 -3.4394484 -0.8053109 -1.1572052
-0.13667281 1.4125724 -1.8075298 -0.2527107 -0.07254774 -2.1518137 -2.110888 -0.348749
00000000: d648 1d3e a21b 2a3f 7332 88bf 6724 b8bf
00000010: 1bba 88be 4c7d 7d3e e02e dac0 5b41 33bf
00000020: 7d6e b13e 3b4e 403b 18b9 26bf 748a 5ac0
00000030: 9e87 b6be 1631 873f 150f 94c0 76ee 3dbf
00000040: b2ef 26be 9ac0 f3bf bd39 b0bf c3ab 98bc
00000050: 4c87 043e f66f 2b3f 15c7 76c0 0989 b8be
00000060: 2e49 03bf 2ff0 fc3e f11a 573f c17c 9abf
00000070: bd77 ccbd 5d09 0a3f 751b b5c0 371b efbf
00000080: 9406 0ec1 bc22 4a3f e219 5fbf 82c6 b43e
00000090: eefb bc3d 5fd6 233e 2ee4 c7c0 42b9 49c0
000000a0: cb34 63c0 2495 dc3e a81e 42be 1858 dabe
000000b0: 3734 bcbd b477 673f bf7f ebc0 6b6b c9bf
000000c0: 3e72 34c0 9086 2f3f ae91 95bf aeb9 e73e
000000d0: 37e5 433e ed72 e33c 3756 81c0 9f31 cdc0
000000e0: 6c9a fac0 ca1c 8e3f 1e89 623f 9e26 8dbe
000000f0: 97a3 ffbd b607 343e ab07 4dbf 2743 9bc0
00000100: d7f5 59bd 4df0 5fbf 683b a4bf 6f84 b8be
00000110: 4bec 7b3e 00a1 673e 9857 efbd 9277 26be
00000120: 4c26 cf3e 5a9f a83f b037 783e 1cd8 1cc0
00000130: 5314 963e 029a 2fbf 35c9 1ec0 1302 98bf
00000140: fb88 12bf 4fd7 953f 4493 273f b0f6 43bf
00000150: 689c b4be acd9 debe 310c 7bc0 eb9c fdbf
00000160: 1221 32bf 6773 703f c945 f5be 9485 27be
00000170: 3a19 61be 22b6 adbe d84d 0fc0 6286 f6c0
00000180: 10f5 12c0 348c 5a3f 55ac 5d3f dc7d 1ebe
00000190: cff8 cbbe 0d11 b13c 7176 acc0 9003 76c0
000001a0: cb10 1cc0 a792 0c3f 4f79 9ebe 0c51 5f3e
000001b0: ac30 4ebd c33b 3fbd 0756 3ac0 2a0e 63bf
000001c0: a85d 9cbf 4980 87bf f315 f9bf 4a16 a83e
000001d0: 6274 63bd 7585 ac3e 0fe5 a1bf 2ce5 92be
000001e0: d9dd e1be a718 d23e 0d16 c3c0 ef17 33bf
000001f0: 5375 41be ed0a 8a3f 48c9 8ac0 4172 cebf
00000200: 72ab d6be 2f07 183f f06c 7fbf 6496 04be
00000210: 7da8 6a3e eb03 373e 96fe 0dc1 6ab7 c2bf
00000220: 5694 413e 297b adbf 6619 0ebe 81d4 fec0
00000230: 6ef7 d03d dd82 3cbd 6475 243e 97ac 4a3d
00000240: eea9 cfbd c4a8 07c1 af4d 27be 46df 9cbf
00000250: 17a2 50be a5c2 da3c 35a6 20be 1c2c 9f3e
00000260: 43f9 9bbe 5056 14bf d257 c13e fd6d 0ebf
00000270: fd53 cbbd 3153 19bd ed29 e0bd ee22 b7be
00000280: d77a f7bf 03ea a6be a268 bfc0 1eb8 6b3d
00000290: 1b40 813e d2c9 163e 6390 113f 19e6 dbbe
000002a0: 9bae 893c c618 2c3f a3c7 8bc0 0a9d 8cbe
000002b0: 57fd 7e3d 3640 16bf eb77 90c0 a406 c43e
000002c0: 4403 183f 270b 743f 553b 13c0 61ef 87c0
000002d0: 9505 9abd e156 903e e88a 66bf 34cd 0fbf
000002e0: 2082 533e ff88 83c0 7e8a 74c0 8190 d13d
000002f0: 7f9f 3e3b ce5b d0bc 64cf dcbf b377 763e
00000300: 15d3 dfbe ad56 2a3f b7f0 8bbf 9692 27be
00000310: 240b 543e 79ce ecbe 8507 cbbf 3b6f babe
00000320: 051c efc0 0812 2fbe 405d e2c0 de1f 5e3f
00000330: bd36 10bd a253 60bf c02b 12c0 8814 80bf
00000340: 4f67 87c0 a7d1 fdbd 16ea ccc0 0b77 433f
00000350: eb8a 20be ef71 45be 0380 fcc0 5507 b8be
00000360: 7e4a c7c0 2b10 b13e 54b8 a8c0 d2df 843f
00000370: a3f5 6ebe 7bb1 eabf d5f9 5fc0 4f86 ddc0
00000380: 3ad0 5fc0 e445 333f 46de 37c0 ad76 e03e
00000390: 317a 393e 23a6 a1c0 89f2 1bbf 41ed 86c0
000003a0: 7745 c33f 4c22 afc0 dd7d 65c0 ea83 5c3c
000003b0: 681d 6d3b c412 d2bf d343 d43d b885 bebd
000003c0: cf9d 9a3e 3024 0740 4b72 46bf 1323 28c0
000003d0: a428 eabd ec1f 5cc0 db28 4ebf 4d1f 94bf
000003e0: f5f3 0bbe 2ccf b43f 235d e7bf 4c63 81be
000003f0: e993 94bd 51b7 09c0 ca18 07c0 3b8f b2be

l3.bias f4 [121]
-0.53500164 -0.82804376 -1.3654925 -2.1612203 0.011501235 -0.674219 0.27705795 -1.569763
-1.4045359 -0.74900573 -0.051931016 -0.12097433 0.07263092 -0.62709254 -2.2360156 1.0853534
1.4626086 -0.12602831 -0.17827101 -0.25509068 0.26498932 0.5703679 -0.78236806 -0.3287172
-0.4906022 0.04728089 0.8581051 0.26356924 -2.0948055 -1.4099795 -1.189595 -0.5074318
-0.85392606 -0.7649525 -1.9200583 -2.4593525 1.4272813 1.2986361 0.014707596 0.2811217
0.5632726 -0.10215857 0.17052507 -0.109421164 -0.25812864 0.12991619 0.21445274 -0.16054304
-0.116070785 0.7426923 -0.7302652 -1.5557388 -1.0551448 -2.512029 -0.24208184 -0.7979495
-0.19831464 -1.7818217 -2.1972983 -2.0077202 -1.6968342 -0.8219859 -1.4677123 -1.8041441
-2.2161074 -0.01343893 0.9904673 -1.144672 -1.1730416 -1.0791557 -2.4855409 -0.9333612
-0.79904586 -0.73647904 -2.9423077 -1.4896857 -1.532444 -1.4224911 -1.3045996 -1.0910717
-2.8526628 -2.303895 -0.10012078 0.824488 -0.74501735 -1.1525224 -1.137403 -1.5083579
-0.25234205 -0.1246921 -0.23329537 -2.0076578 -2.0524602 -0.5337736 -1.2038641 -0.590745
-1.5901737 -1.9694611 -1.4461396 0.1084518 0.57385474 2.1109068 0.24463764 0.5203831
-1.0950595 -0.50561553 -0.07276845 -0.6882327 0.18942796 0.26777074 -0.014652042 -0.2623762
-0.4845686 -0.48113027 -0.1340797 -0.60761595 -0.1789053 -0.5060939 -0.26314932 0.50541306
0.34803253
00000000: def5 08bf adfa 53bf 75c8 aebf 6f51 0ac0
00000010: ad6f 3c3c 9e99 2cbf 8ada 8d3e feed c8bf
00000020: d5c7 b3bf d7be 3fbf 9eb5 54bd 64c1 f7bd
00000030: 85bf 943d 2389 20bf e11a 0fc0 dcec 8a3f
00000040: c236 bb3f 910d 01be ad8c 36be 3f9b 82be
00000050: aeac 873e a103 123f 4649 48bf 9f4d a8be
00000060: 3630 fbbe 9ba9 413d c7ac 5b3f 8cf2 863e
00000070: 4b11 06c0 357a b4bf a644 98bf 0de7 01bf
00000080: e69a 5abf edd3 43bf 78c4 f5bf 0866 1dc0
00000090: 27b1 b63f b539 a63f 21f8 703c 2fef 8f3e
000000a0: a232 103f 8338 d1bd 209e 2e3e 3418 e0bd
000000b0: 7029 84be c008 053e 8099 5b3e 6565 24be
000000c0: 85b6 edbd 1521 3e3f a9f2 3abf 7322 c7bf
000000d0: fc0e 87bf 15c5 20c0 4de4 77be 6b46 4cbf
000000e0: fe12 4bbe bc12 e4bf 89a0 0cc0 7d7e 00c0
000000f0: dd31 d9bf ab6d 52bf ffdd bbbf 32ee e6bf
00000100: b4d4 0dc0 f52e 5cbc 448f 7d3f 9d84 92bf
00000110: 3a26 96bf c621 8abf 1a13 1fc0 c2f0 6ebf
00000120: 458e 4cbf e489 3cbf c54e 3cc0 05ae bebf
00000130: 2027 c4bf 3014 b6bf 1ffd a6bf 3da8 8bbf
00000140: 0792 36c0 0473 13c0 200c cdbd a511 533f
00000150: 75b9 3ebf db85 93bf 6c96 91bf df11 c1bf
00000160: fa32 81be 925e ffbd fbe4 6ebe 777d 00c0
00000170: 825b 03c0 63a5 08bf 3818 9abf 103b 17bf
00000180: d08a cbbf 4d17 fcbf 1a1b b9bf fa1b de3d
00000190: 25e8 123f 1919 0740 4a82 7a3e d437 053f
000001a0: e92a 8cbf 0570 01bf a007 95bd 0530 30bf
000001b0: 67f9 413e 3f19 893e 1e0f 70bc 2c56 86be
000001c0: 6019 f8be b556 f6be 304c 09be b88c 1bbf
000001d0: f332 37be 5f8f 01bf 82bb 86be c062 013f
000001e0: 5231 b23e
