data.pth (torch, 17194 bytes, 6 tensors)

l1.weight f4 [8, 92]
000000 4e f8 88 be 43 dc aa bd 1c 53 ca bd 9c 88 2d be
       -0.2675194 -0.08342793 -0.09879133 -0.16946644
000010 e4 cd 8a be 8f a3 99 3d 50 be 00 3f 9c 2b 8b be
       -0.27110207 0.075018995 0.50290394 -0.2718171
000020 e6 b0 83 3f c7 4b e3 3e 8b 2c 0f 3f dd f9 60 3f
       1.028836 0.4439375 0.5592734 0.8788126
000030 f3 74 9f 3e b8 12 cc 3e 3c ac a7 be 56 e4 e7 3e
       0.31143913 0.3985803 -0.32748592 0.45291394
000040 58 89 cc 3f c9 48 cc 3e a6 0b 6a 3e 81 27 df 3e
       1.5979414 0.3989928 0.22856006 0.43584827
000050 d0 00 12 3e 39 c9 12 3f a1 e7 14 3f 60 44 ec be
       0.14258122 0.5733829 0.5816594 -0.46145916
000060 05 3e e1 bf fc f8 1b c0 1f 6b 08 3f dc 8e 23 3f
       -1.7597052 -2.4370718 0.53288454 0.6388986
000070 bf bd 91 3f 4f 51 06 3f df 4f 23 3f e6 4e 07 3f
       1.1386031 0.5246782 0.6379375 0.52854764
000080 fe 37 be 3e a1 21 7e 3e 80 d0 14 3f 4f 55 26 3d
       0.37152094 0.24817516 0.58130646 0.0406087
000090 b5 02 e8 bf e4 b1 c2 bd 53 f0 dc be dc 0a 27 be
       -1.8125826 -0.09506586 -0.43152103 -0.16312736
0000a0 c3 9a 21 3f 6c 05 91 3e 15 4e 91 39 1a 35 0a 3d
       0.6312677 0.2832445 0.0002771473 0.033742048
0000b0 e5 b3 1a be 2d fb e1 be e3 d9 17 be e7 52 bd 3f
       -0.15107687 -0.44136944 -0.14829211 1.4790925
0000c0 c3 fb ce 3e d6 74 06 3e bb 97 14 3e 6e 39 90 be
       0.40426454 0.13130507 0.14511006 -0.28168815
0000d0 3c 1a 9b 3f 34 e8 8e be 11 e3 9f be bf 00 ae 3e
       1.2117381 -0.27911532 -0.31227925 0.33984944
0000e0 92 cf 80 3e 06 04 bd 3e 50 d7 03 3f c0 7a 1e 3f
       0.25158364 0.36917132 0.51500416 0.6190605
0000f0 88 93 c3 3e 21 b2 d3 be dd 12 83 3f 07 5e 7e 3f
       0.38198495 -0.4134684 1.0240132 0.99362224
000100 87 48 3d 3e c1 48 8a 3f d0 c5 62 bf cd cd 74 3f
       0.18484698 1.0803453 -0.8858309 0.9562653
000110 32 ce 21 c0 3a d9 04 3f 03 24 3c 3e 0f dc 62 3f
       -2.5282102 0.5189396 0.18373112 0.8861703
000120 e4 71 a5 3e aa 40 f1 3e 59 77 94 3f 76 ea 52 3f
       0.32313454 0.47119647 1.1598922 0.8238901
000130 c9 d0 8c 3e e1 4c 54 3e f7 60 04 3f ca b3 e1 3d
       0.2750304 0.20732452 0.51710457 0.1102062
000140 ce 38 bb 3e dd c3 08 bf 8f f9 8c 3f 9c 72 f5 3d
       0.36566776 -0.53423864 1.1013659 0.11984751
000150 3e 32 b8 be b1 58 17 40 8b 3a cb be c4 f9 b6 be
       -0.35975832 2.3647883 -0.39693102 -0.3573743
000160 a7 c1 68 be 60 8e bd be 0f 9d a5 be 9d 00 70 be
       -0.22730123 -0.37022686 -0.3234639 -0.23437734
000170 ce 29 21 40 66 c8 59 3f b5 36 be 3f a4 e0 c5 3f
       2.5181766 0.8507141 1.4860445 1.545918
000180 25 1c b5 3f d0 90 e5 3e ee 51 e7 3e b9 e1 91 3f
       1.4149214 0.44837046 0.45179695 1.139701
000190 22 38 e2 3f 83 33 9c 3e c0 c5 8e 3f 51 37 d2 3f
       1.767338 0.3050805 1.1154099 1.6423131
0001a0 a6 95 f4 3f 1f 07 1d 3d 14 ee 5e 3e 62 d2 75 3f
       1.9108169 0.03833687 0.21770507 0.96024144
0001b0 74 f1 9f 3f de 49 17 bf 58 33 8b 3f 49 1c c9 3e
       1.2495561 -0.5909709 1.0875044 0.39279392
0001c0 92 7d a2 3f 3b 78 77 3e 5f af 9c 3f 79 6c 96 3e
       1.2694571 0.24166958 1.2241019 0.29379633
0001d0 6e a7 57 3f f3 af 84 40 70 b6 55 3f a3 ed 12 bf
       0.8423985 4.146478 0.834815 -0.57393855
0001e0 ba 87 b2 3f 8f d2 12 3e 96 20 4c 3f 74 10 26 3e
       1.394767 0.14338134 0.7973722 0.16217214
0001f0 20 7b 7a 3f bb 40 79 3f 78 01 e6 3e 35 68 77 3f
       0.97844124 0.97364396 0.44922996 0.9664338
000200 18 b5 52 3f 26 23 9e 3e f4 88 13 3f 67 72 70 3f
       0.8230758 0.3088619 0.5763085 0.93924564
000210 cc 3b f5 be 92 d5 f5 3f bf 7a 7a 3f 88 00 26 bd
       -0.47897184 1.9205801 0.97843546 -0.04052785
000220 67 6a 9a 3f 6d 8f c0 3f 1a 74 8c 3f 52 4b 84 3f
       1.2063721 1.504377 1.0972931 1.0335486
000230 08 fa 1c 3f fb 6d 94 3f e3 69 19 c0 3a 31 15 3f
       0.6131902 1.1596063 -2.3970878 0.5827824
000240 3b c0 39 bf 31 9e 12 3f 8f 2d c7 3f e3 55 d1 3e
       -0.72558945 0.5727263 1.5560778 0.4088584
000250 ac 6f 73 3f fa d0 be 3e ea 74 bf 3e ae 39 08 3e
       0.9509227 0.3726881 0.37393886 0.13303253
000260 e0 8e 40 3f 81 f9 bd 3f ec 0f 8f 3f 7e 3e 9e 3f
       0.7521801 1.4841768 1.1176734 1.2362821
000270 95 c6 64 3f b9 da ff be c5 8b 93 bf ee 58 e6 3f
       0.8936551 -0.4997156 -1.1527029 1.7995889
000280 54 20 8c bf 8b 54 fe be 47 b6 0c 3f 67 f6 da 3f
       -1.0947366 -0.49673876 0.54965633 1.7106446
000290 0a 51 4a 3f e3 42 21 3f d2 c8 89 bd a3 9c 0c bd
       0.79029906 0.62992686 -0.067277566 -0.034329068
0002a0 8b 87 6b 3f 1d 8a cc 3e 02 78 62 3f ed 7d 0e 3f
       0.920037 0.39949122 0.8846437 0.556609
0002b0 85 86 fa 3f ab f8 e7 3d 18 f3 be be bb 9c 48 3f
       1.9572302 0.113267265 -0.3729484 0.7836415
0002c0 e8 ad 5e 3e 34 13 27 be e3 fb 9c 3f 2e 00 2e bd
       0.21746027 -0.16315919 1.226437 -0.04248064
0002d0 19 64 39 3e 31 fa 82 3e 37 b6 27 3c f6 1a 3a be
       0.1810459 0.25581506 0.0102363145 -0.18174347
0002e0 df bf 90 40 be c8 0d 40 d9 9a 43 40 4f d3 41 40
       4.523422 2.2153773 3.0563262 3.0285223
0002f0 03 14 37 bf b4 f6 5a be 05 a6 de 3e 28 4e 01 3b
       -0.7151491 -0.21383172 0.43486038 0.0019730423
000300 05 32 0a 40 f9 70 3b 3d f9 90 e6 3f 61 de 0d 3f
       2.159303 0.045762036 1.8012992 0.5541745
000310 8c 73 0c 40 84 39 8d 3e 9a 12 bb 3e 96 96 e1 3f
       2.1945524 0.27582943 0.3653763 1.762408
000320 f6 9b 04 3f f3 37 c2 3e 23 a9 af 3f fa 5c 92 3e
       0.5180048 0.3793331 1.3723491 0.2858656
000330 b8 12 cd 3f a4 61 1e 3f 73 18 f4 3f d6 b6 f8 3e
       1.6021338 0.6186774 1.9069961 0.48576993
000340 9f 3f 75 be b3 b9 2f c0 9a 67 32 40 11 f9 9a 3f
       -0.23950051 -2.7457092 2.7875733 1.2107259
000350 75 c7 85 3f a2 3f ef 3e d6 44 31 40 30 39 e3 3f
       1.0451494 0.46728235 2.7698264 1.7751827
000360 ae da 1b 3f 3a e4 47 be dd 77 1f 40 03 da 79 3f
       0.60880554 -0.19520655 2.4916909 0.97598284
000370 03 b0 57 be 82 c1 ac bf 79 6f eb 3f 1e da 17 3e
       -0.21063237 -1.3496554 1.8393394 0.14829299
000380 5d d7 8b 3f c6 d6 16 40 4b 56 88 bf 15 a0 9c 3f
       1.0925099 2.3568587 -1.0651335 1.2236353
000390 3a a1 3c 3f e3 5f 3b bf 54 59 74 bf e3 5e 0f 3f
       0.7368351 -0.73193187 -0.95448804 0.5600416
0003a0 27 96 88 be 69 50 b7 3f 86 a2 ca 3f ab aa e5 3f
       -0.26677057 1.4321414 1.5830848 1.7942709
0003b0 71 d8 34 be f9 1b e7 3f a7 e8 5d bf 73 39 67 3e
       -0.17660691 1.8055412 -0.86683124 0.22580509
0003c0 1c 3f 1a 3f 15 d9 a8 3e a4 82 d3 3d ca ea 10 40
       0.6025255 0.3297812 0.10327652 2.2643304
0003d0 43 ba 2f 3f 39 a9 5a bf 20 3b 1f 3f 2e 53 2b 3f
       0.6864359 -0.85414463 0.6219959 0.669238
0003e0 b0 d4 1b be 87 10 17 3f bc d9 a2 bf 9e 22 10 40
       -0.15217853 0.59009594 -1.2722697 2.2521129
0003f0 cf af ff 3c ea 7c aa 3e 34 01 13 be 17 b0 12 3f
       0.031211762 0.33298427 -0.14355928 0.5729994

l1.bias f4 [8]
000000 10 86 67 3e 7f a3 eb 3e 1b c4 1e 3f f6 98 07 3f
       0.22609735 0.46023175 0.62017983 0.52967775
000010 46 f4 44 3f b1 4c 27 3f ac 84 a8 3f 36 d4 28 3f
       0.7693523 0.65351397 1.3165488 0.6594881

l2.weight f4 [8, 8]
000000 50 24 bb 3f bb cc bd bf 23 5c f1 bc 23 3b fd 3f
       1.4620457 -1.4828104 -0.02946288 1.9783672
000010 9a 2f d4 3f f2 f0 fe be e8 0f 71 3f a6 9b 84 3f
       1.6577027 -0.49793202 0.94164896 1.036
000020 d1 6c f0 3f e9 65 b0 3e 2d f8 c0 3f a2 25 24 bf
       1.8783208 0.3445275 1.5075737 -0.64119923
000030 6f d2 15 40 2e cf 89 3e 09 c0 89 3e 26 5b b2 bf
       2.3409688 0.26915878 0.26904324 -1.3934066
000040 42 ff 18 bf 73 f4 39 3f 40 00 89 be 3d a7 bb be
       -0.5976449 0.72638625 -0.26758003 -0.3665103
000050 39 1b 15 40 24 96 69 3f a5 fc 88 3b 70 6e bf 3f
       2.3297865 0.9124472 0.004180508 1.4955578
000060 52 d3 d8 bf 11 7d 2f bf 20 93 99 be a0 0f 07 bf
       -1.693949 -0.6855021 -0.2999506 -0.52758217
000070 5b ec 93 3f 37 63 20 3e b0 64 aa 3f 95 0e 68 3f
       1.1556505 0.15662847 1.3311977 0.9064725
000080 f3 a1 70 bf df 78 d0 3f 45 76 a1 bf f3 e0 ae 3f
       -0.93997115 1.6286887 -1.2614218 1.3662399
000090 5d 2d 49 be 7a 36 99 3f b2 41 85 3f 28 6e 63 bf
       -0.19646211 1.196975 1.0410674 -0.8883996
0000a0 54 da a6 3f aa 2b 9e 3f 57 e5 3d bf c1 08 04 3f
       1.3035378 1.2357075 -0.7417807 0.5157586
0000b0 10 90 b2 bf 21 a0 06 40 63 8a 4b be 72 cb a2 3f
       -1.3950214 2.1035235 -0.19877009 1.2718337
0000c0 78 bc 52 bf 78 36 a7 bd 6d 0f a4 3f 45 87 b7 3e
       -0.8231883 -0.08164686 1.2817208 0.3584539
0000d0 21 c3 02 bf 4f 05 66 bf 28 b7 fd 3f 15 d4 0d bf
       -0.51078993 -0.8985185 1.982152 -0.55401736
0000e0 67 86 05 bf 12 4c 8b 3f 39 8f b6 3f d6 c9 97 bf
       -0.52158207 1.088259 1.4262458 -1.185847
0000f0 bd b2 a0 be 44 75 47 bf 38 2e 46 3f bd ac 31 3f
       -0.31386366 -0.7791331 0.77414274 0.694042

l2.bias f4 [8]
000000 57 ca 1c 3f 08 ca 35 3f c2 33 79 bf 65 cd ff 3e
       0.61246246 0.710114 -0.973446 0.4996139
000010 74 0d 50 3f c7 ae 8a be 7f 4d 50 3f dc 10 3b 3e
       0.8127053 -0.2708647 0.8136825 0.1826815

l3.weight f4 [115, 8]
000000 93 07 05 c0 d2 23 81 3f 52 d0 5f 3f 73 57 5c bf
       -2.0785873 1.0089056 0.87427247 -0.86070937
000010 78 c8 bd bf c4 19 4d c0 78 22 f7 be 38 90 ad 3d
       -1.4826803 -3.2046976 -0.48268485 0.08474773
000020 0d e6 18 bf 0d 3a 6c 3e 2d bc 58 3e fd 4d a2 be
       -0.5972603 0.2306902 0.21165533 -0.31700125
000030 e8 94 04 be 63 ac 56 bf 5b 1e 98 bf 44 10 32 bf
       -0.12947428 -0.8385679 -1.1884264 -0.6955607
000040 38 4d 42 bf f1 4b 78 3f ed 7e b1 bd 41 b1 fd be
       -0.75899076 0.9699088 -0.08666787 -0.49549296
000050 16 b5 12 bf ab e3 25 c0 b3 2e d3 be 46 35 5f bf
       -0.57307565 -2.5920208 -0.41246566 -0.87190664
000060 20 0a a3 3e 59 df 54 3f 74 70 f9 bf 2d ac 59 bf
       0.31843662 0.831533 -1.9487443 -0.85028344
000070 f2 7f 44 c0 f9 fd f8 c0 62 d7 fe 3d e6 51 c8 be
       -3.0703092 -7.7810025 0.12443425 -0.39124984
000080 46 06 13 3e 0c fa 62 3f 26 bd 28 c0 61 dd 11 bf
       0.14357862 0.8866279 -2.6365447 -0.5697842
000090 6f 0e e2 3d 8d 0b 7f c0 a7 76 b4 be ff cd 9c bf
       0.11037909 -3.98508 -0.35246775 -1.2250365
0000a0 d6 3f d0 3d 25 31 96 3f 86 d7 f2 bf 98 86 bd c0
       0.10168426 1.1733748 -1.8972023 -5.92268
0000b0 a0 1b 08 c0 44 58 9c c0 ba e8 e0 3d 82 51 17 be
       -2.126686 -4.8857746 0.10981889 -0.14777187
0000c0 34 a8 fc be 3e 15 46 3f f8 84 9c bf d7 71 4f bf
       -0.4934708 0.77376163 -1.2228079 -0.8103308
0000d0 37 7a e6 be ac 48 df c0 16 ec 1c 3e d5 4d 07 3d
       -0.45015118 -6.977621 0.15324435 0.03303321
0000e0 41 2b 42 be 6b 27 32 bf 30 05 1c 3f 6d b9 2d 3e
       -0.18961813 -0.695914 0.60945415 0.16965266
0000f0 d1 bc 9e bf c5 69 ec bf ee 4f 0a be b8 74 00 bf
       -1.2401372 -1.8469778 -0.13507053 -0.501781
000100 e8 a5 f8 be 6e 4d a0 3e 01 db e3 3d 73 42 f6 bf
       -0.48564076 0.31309074 0.11125756 -1.9239029
000110 67 62 ef be 91 8b 0f bf 36 06 5f be 35 ab c4 be
       -0.46754763 -0.56072336 -0.21779713 -0.3841187
000120 e1 3b 69 3e 90 28 0f 3f f4 7c ed be a2 89 ce bf
       0.22776748 0.5592127 -0.46384394 -1.6135752
000130 ad 39 f5 c0 ee 21 67 c0 9b 49 27 be 78 17 90 3e
       -7.6632905 -3.611446 -0.16336672 0.28142905
000140 11 26 29 be 43 0d 62 3f 60 a4 10 3f 2b 01 8f c0
       -0.16518427 0.88301486 0.56500816 -4.4688926
000150 96 d2 8a c0 d4 5f 00 c0 f1 65 1d bf 31 fb 18 bf
       -4.3382063 -2.005849 -0.61483675 -0.5975829
000160 31 41 f7 3e 74 bd 52 3f 19 9e bc bf f6 6e 9c c0
       0.48291925 0.8232033 -1.4735748 -4.888545
000170 98 e7 af c0 4e 39 24 c0 a1 9f d8 3e fa 87 89 bf
       -5.4970207 -2.5659976 0.42309287 -1.0744622
000180 a4 21 99 3e 8f 41 e1 3e 95 db 61 bf 4c 52 01 c0
       0.29908478 0.4399533 -0.8822568 -2.020648
000190 ec 1a f1 bf 20 6a 24 c0 16 37 08 be bb 7b ea bd
       -1.8836341 -2.5689774 -0.13302264 -0.11449381
0001a0 81 b5 46 3e 27 b9 be be 0f 5d 1a be e1 b4 94 bf
       0.19405176 -0.37250635 -0.15074562 -1.16177
0001b0 26 2a 0c bf fd 81 9e bf ee 92 b9 bd 6e 10 aa bf
       -0.54751813 -1.2383419 -0.09061228 -1.3286264
0001c0 e4 0d 84 bf aa 96 7d 3f e5 28 de 3d 97 0c 96 bc
       -1.0316739 0.9905802 0.10847644 -0.01831655
0001d0 72 1f aa c0 0c 5a c0 c0 04 3d 02 be 5a ba 87 3e
       -5.3163385 -6.010992 -0.12718588 0.26509362
0001e0 d9 7d 0e 3f 63 dc 39 bf af f8 d0 be ed 95 b9 bd
       0.5566078 -0.7260191 -0.4081473 -0.09061799
0001f0 db 41 d8 be 52 20 cc c0 21 57 0e be 5f b3 dd be
       -0.42237744 -6.3789454 -0.13900425 -0.43300912
000200 88 f8 d5 c0 85 c8 0e 3e 0d a7 d4 be 8e 24 3e c0
       -6.6865883 0.1394368 -0.415337 -2.9709811
000210 47 a5 96 3e 5f 39 80 bc a4 f1 67 3e fe a9 01 be
       0.29422972 -0.015652357 0.22650772 -0.12662503
000220 78 d1 0e bf 1a ed 30 bf 20 85 d0 bd 43 99 78 3e
       -0.55788374 -0.6911179 -0.101816416 0.24277215
000230 f4 ee a2 bc e9 0f 96 bd 1b 42 9e bf ee 9b 1a be
       -0.019889332 -0.07327253 -1.2363924 -0.15098545
000240 00 ba 8a bf c7 a3 80 3d 5e 76 c5 be 69 de 01 be
       -1.0838013 0.06281238 -0.3856687 -0.12682499
000250 97 54 20 3c 42 2a b2 be c1 e0 79 be 95 4a 08 bd
       0.009785793 -0.34797865 -0.24402143 -0.033274252
000260 c8 47 2b bf 2b 6d 0b 3f ad 75 5b bf 61 08 47 c0
       -0.66906404 0.5446345 -0.85726434 -3.1098864
000270 ee f1 fb be a6 3e 2b bf ec 35 9e 3d 68 06 c8 3e
       -0.49208015 -0.6689247 0.077251285 0.39067388
000280 a5 36 4f c0 06 75 a1 3e 9c 09 81 3e d4 4a 2d c0
       -3.2377102 0.31534594 0.25202644 -2.7076921
000290 a1 52 c0 3c a9 8e 9d 3f a3 de 89 c0 2f 51 22 bf
       0.0234769 1.2309161 -4.3084273 -0.63405126
0002a0 cd 4a 8c bf 0d 47 b7 bf 9c 3b b5 3e a3 ac 6b bf
       -1.0960327 -1.4318558 0.3539704 -0.920603
0002b0 af ee cb 3e 72 50 66 3f d6 65 c0 c0 c1 dc 40 c0
       0.3983054 0.899665 -6.012431 -3.0134737
0002c0 91 de dc bf 7b af 23 3f c8 72 89 be a3 81 c2 bf
       -1.7255422 0.63939637 -0.26845384 -1.5195812
0002d0 0d 15 4c 3f 81 6d 1e 3f 54 8f 4a c0 65 7e f9 bf
       0.7971962 0.6188584 -3.164998 -1.9491698
0002e0 a0 ce 9d be 32 5a 31 bd dd 27 2a bf ec a9 dd c0
       -0.30821705 -0.043298908 -0.66467077 -6.9269924
0002f0 6b 7a ae 3e 42 98 9b 3e 89 0a 73 be f0 34 f6 bf
       0.34077772 0.303896 -0.23734488 -1.9234905
000300 73 d8 87 bd 73 d3 9c bf 95 be 87 c0 bf b5 95 c0
       -0.06633081 -1.2252029 -4.2420144 -4.678436
000310 15 34 f8 3f 37 a3 11 3f 21 f5 21 c0 70 9a 74 c0
       1.9390894 0.5688967 -2.5305865 -3.821926
000320 8e 5a eb be 94 82 61 3f e3 53 e0 c0 d2 1a 81 c0
       -0.45967525 0.8808987 -7.01024 -4.034524
000330 55 c2 96 3f 87 5e 9c 3d bd d9 41 bf 5a c5 e2 c0
       1.1778055 0.07635217 -0.7572287 -7.086591
000340 1f 72 9a bf e7 2d 4c 3c 7d 45 30 c0 80 bc 1a c0
       -1.2066077 0.012462116 -2.7542412 -2.4177551
000350 49 57 85 3f 42 e1 39 3f 38 ea 86 3d e2 2d 05 c0
       1.0417262 0.7260934 0.065876424 -2.0809255
000360 5c 32 a4 3d c2 77 a8 c0 8f dd a1 3e fc 72 01 3d
       0.08017418 -5.264619 0.31614348 0.0316038
000370 de ad e1 3e 2f 71 fd 3e 34 1b cf c0 0e f5 49 c0
       0.44077963 0.49500415 -6.4720707 -3.155582
000380 75 f6 6c bf 4e 81 b7 bf d0 f0 4f be 3f 17 b5 c0
       -0.92563564 -1.4336336 -0.20306706 -5.6590877
000390 0e f3 90 3f c8 4c 8c 3f a6 57 92 c0 ec ec 79 bf
       1.1324174 1.0960932 -4.5731993 -0.9762714
0003a0 3b 4f d4 3e 66 82 94 bf 9b 11 db 3d ff 91 94 c0
       0.41466698 -1.1602294 0.10696717 -4.642822
0003b0 f6 6d ee 3e 84 5f 28 bd 0c 66 db c0 7b 17 18 c0
       0.4656827 -0.041106716 -6.856207 -2.3764331
0003c0 b9 6a 58 bf 01 d2 82 3f 48 07 24 bf 67 fc 52 c0
       -0.84537846 1.0220338 -0.6407361 -3.2966554
0003d0 d7 63 e3 bf a7 9f 75 3f 19 73 5b c0 8c da 97 c0
       -1.7764844 0.95946735 -3.4289 -4.745428
0003e0 66 66 af 3e 81 7a 77 3e 89 57 12 c0 1c 5e b9 bf
       0.3425781 0.24167825 -2.2865927 -1.4481845
0003f0 f1 5f 91 3f 5a 85 72 3e 04 72 b8 c0 1a 5b bf c0
       1.1357404 0.23683682 -5.763918 -5.979871

l3.bias f4 [115]
000000 65 e7 eb bf 93 43 0c c0 7c 33 0e c0 61 63 b6 bf
       -1.8429991 -2.1916244 -2.2218924 -1.4249078
000010 93 88 0b c0 95 d2 aa bf 00 c0 c3 bf 3e 53 e9 bf
       -2.1802108 -1.3345515 -1.5292969 -1.8228528
000020 e0 aa 4c c0 74 ee 14 bf 32 2f a1 bf bc 15 62 bf
       -3.1979294 -0.5817635 -1.2592528 -0.88314414
000030 f4 d6 e1 bf 9d ca ea bf ef 3d 16 c0 6d 13 c8 bf
       -1.7643723 -1.8343083 -2.3475301 -1.5630928
000040 dd 0c 3c be 2d c9 3e 3e 08 d8 fc 3d b1 00 14 3e
       -0.18364282 0.1863143 0.12345892 0.14453389
000050 98 66 ac be be aa 72 bf dd 4f 92 3e c9 2c 94 bf
       -0.33672023 -0.9479178 0.28576556 -1.1576167
000060 6b c1 d0 3e f8 4b 43 bf b2 a8 2d bf 8f 2d 85 bf
       0.40772566 -0.76287794 -0.67835534 -1.0404528
000070 fc b4 f6 be fa 85 08 bd 45 5c 00 bf ec c0 72 bf
       -0.48184955 -0.033330895 -0.5014079 -0.94825625
000080 80 6a 88 3d 8d 38 9b be d2 ec d5 bf ff 08 2d 3e
       0.06660938 -0.30316582 -1.6712897 0.16897963
000090 de 34 84 3e 2f ec b8 3e 5f 76 02 3f ea 03 2f bd
       0.25821584 0.36117694 0.5096187 -0.042728342
0000a0 c0 66 c9 bd 31 cc d3 3e 6d a1 07 3e 8c 73 e5 3e
       -0.09834051 0.41366723 0.13245173 0.44814718
0000b0 4a 71 b6 3d 4e 71 82 be b0 7b aa 3e 86 3d f5 3d
       0.08908327 -0.2547707 0.3329749 0.11974625
0000c0 3e 4d ea bf a6 1e 9f bf c2 72 f1 be 75 68 e5 bf
       -1.8304822 -1.2431228 -0.47157866 -1.7922503
0000d0 c4 ad d8 bf 34 05 c1 bf cd b3 0f c0 84 73 fb bf
       -1.6928029 -1.5079713 -2.2453492 -1.9644628
0000e0 fb 7e 45 be a3 cd 31 3f cb 55 17 bf d9 b9 7c bf
       -0.1928672 0.694544 -0.59115285 -0.9872108
0000f0 c9 5e 67 bf a7 b8 ad bf f4 7e 0a c0 1d 4c cc bf
       -0.90379006 -1.3571976 -2.1639986 -1.5960728
000100 0a 62 e3 bf 65 8e ac bf 89 57 09 bf fa a6 d1 be
       -1.7764294 -1.3480955 -0.53649193 -0.40947706
000110 35 ed 14 bf b3 e6 bc bf 5a 4c bc bf bf 77 15 bf
       -0.5817445 -1.4757904 -1.4710801 -0.58385843
000120 24 8c f3 bf 9a 09 06 bf 4e cd 04 c0 00 0b a2 bf
       -1.9027143 -0.523584 -2.0750308 -1.2659607
000130 b6 6f 80 bf 8f 61 62 bf 99 d9 ab bf 05 48 ff be
       -1.0034091 -0.8843011 -1.342578 -0.49859634
000140 cb 3d 61 bf 75 40 99 bf 17 e8 c2 be f2 14 8d be
       -0.87984914 -1.1972796 -0.38067695 -0.27555043
000150 e5 64 86 3e be 74 bf 3c 42 96 3c be 30 e9 52 bf
       0.2624885 0.023371097 -0.18416694 -0.82387066
000160 df 56 e0 bf a4 ef f3 3d 65 41 6c bf 81 74 76 3e
       -1.7526511 0.11910942 -0.92287284 0.2406788
000170 47 23 5f 3e 3a e9 1e bf 10 8e 86 bf cc 78 78 be
       0.21790801 -0.62074625 -1.0512104 -0.2426483
000180 25 a1 ce 3e b0 22 ee bd 0b 9e 38 3c a5 11 c7 be
       0.4035732 -0.1162771 0.011268149 -0.3888065
000190 a5 93 01 bf 05 87 3a bf ef 4f bc bd 00 17 5e 3a
       -0.5061591 -0.72862273 -0.091949336 0.0008472055
0001a0 fa c5 32 be 23 f1 b8 bd 41 4e 6d be 9e f5 0f bf
       -0.17458335 -0.09030368 -0.23174383 -0.5623416
0001b0 1e 42 8f 3d 64 03 c0 3e d9 45 04 be b8 59 94 be
       0.06995033 0.37502587 -0.1291727 -0.289747
0001c0 9b 66 93 be 3b e7 83 be ef cd 2e be
       -0.2878922 -0.25762352 -0.17070745
