data.pth (torch, 19818 bytes, 6 tensors)

l1.weight f4 [8, 111]
0	0x3fe6cf79	1.8032066
1	0x3fe97707	1.8239449
2	0xbf63a10f	-0.8891763
3	0xbf536e48	-0.8259015
4	0x3fbfbb7f	1.4979094
5	0x3fbc7448	1.4722986
6	0xc064d00b	-3.575198
7	0x3faa9615	1.3327051
8	0x3f2bfc38	0.6718173
9	0x406d765b	3.7103488
10	0xc0117317	-2.2726495
11	0xbe59e2ee	-0.21277973
12	0x3f26603f	0.6499061
13	0xbfa1aa19	-1.2630035
14	0x3f0e402a	0.55566657
15	0xbf8c15f2	-1.0944197
16	0x3fc7bd03	1.5604557
17	0xbfb2c2a4	-1.396565
18	0x3e9ad2d3	0.3023897
19	0xc01d1a55	-2.4547322
20	0xc04ed7a1	-3.231911
21	0x4078d245	3.8878338
22	0x3f9f8c38	1.2464666
23	0x40377e14	2.8670702
24	0x3f368207	0.71292156
25	0x3ecf5d44	0.40500844
26	0x3f4cbd58	0.79976416
27	0x3d8748ed	0.06605706
28	0x3e48ca5d	0.19608445
29	0x3f86ede3	1.0541347
30	0xbf8219c1	-1.016411
31	0x3f9ef14c	1.2417388
32	0xbec24308	-0.37941766
33	0x3f11e2b9	0.56986576
34	0x401868fc	2.3814077
35	0xbe04bf76	-0.12963662
36	0x3f25754b	0.646321
37	0x3f968d70	1.1761913
38	0x3f84174d	1.0319611
39	0xbd212752	-0.03934414
40	0xbb99c3db	-0.0046925372
41	0x3ffcae07	1.9740609
42	0x3f060bff	0.52362055
43	0x3d57ba14	0.052667692
44	0x3f2d2cc7	0.6764645
45	0x3f2383ab	0.63872784
46	0x3f0b9e4b	0.5453841
47	0x3ee1ec11	0.44125417
48	0x3ebe5084	0.37170804
49	0x3f4dcbaf	0.8038892
50	0x3f1e7509	0.6189733
51	0x3f03db1d	0.51506215
52	0xbe88d27b	-0.26723084
53	0x3f1f4ad4	0.62223554
54	0x3ff3a61f	1.9035071
55	0xbe8103a3	-0.25198087
56	0x3e226767	0.15859757
57	0x3f9c4ee5	1.2211577
58	0x3f224456	0.6338552
59	0xc046e9e1	-3.1080248
60	0xbbaa6f82	-0.005201281
61	0x3ec89db3	0.39182815
62	0xc021cada	-2.528006
63	0x3f019263	0.50613993
64	0x3f1f1808	0.62146044
65	0xbd911612	-0.07084288
66	0x3fa801d3	1.3125557
67	0x3f2564de	0.64607036
68	0x3f532222	0.8247396
69	0xbe6d768c	-0.23189753
70	0xbe23a8a1	-0.15982296
71	0x3f5e63cd	0.86871034
72	0xbea81296	-0.3282668
73	0x3f99bc23	1.201054
74	0x3eaddd18	0.33957744
75	0x3ed41e62	0.4142943
76	0x3e512d9c	0.20427555
77	0x3f0766de	0.5289134
78	0xbebb0a58	-0.3653133
79	0xbf091575	-0.53548366
80	0xc09a2eb9	-4.8182034
81	0xc0aecab4	-5.462244
82	0x3ee3dd18	0.4450462
83	0x3f2f29b9	0.6842304
84	0x3f14f72e	0.58189666
85	0x3fbd93cf	1.4810733
86	0x3f4eaf24	0.80735993
87	0x3f757b27	0.9589104
88	0x3e39cd24	0.18144661
89	0x3ef287f4	0.4736935
90	0x3f01c780	0.5069504
91	0x3db1f9a5	0.08690194
92	0xbf665be8	-0.8998399
93	0x3f36b1ea	0.71365225
94	0x3f02a5d4	0.51034284
95	0xbfbdf096	-1.4839046
96	0xbfaa1aa5	-1.3289381
97	0x3f060c48	0.5236249
98	0x3f007ea7	0.50193256
99	0x3f1fc0c5	0.6240352
100	0x3e23e7d4	0.16006404
101	0x3fab1760	1.3366508
102	0xc046235d	-3.0959084
103	0x402d987f	2.7124326
104	0xbe4961be	-0.19666192
105	0xbeb6663d	-0.35624877
106	0x3f45a562	0.7720548
107	0xbf9dadb3	-1.2318634
108	0xbecbf997	-0.3983886
109	0x3f188ab5	0.5958665
110	0xbed4c185	-0.41553894
111	0xbef1233e	-0.470972
112	0xbef35769	-0.47527626
113	0xbd4bee54	-0.049787834
114	0xbbb7e26f	-0.00561171
115	0xbe745d62	-0.23863748
116	0xbe693e6c	-0.22777718
117	0x40a07e44	5.0154133
118	0x3f48a59b	0.78377694
119	0x3eeafbc8	0.4589522
120	0x4051cab3	3.2779968
121	0x402efb7c	2.7340994
122	0xbea2f8eb	-0.31830534
123	0x3f9ba662	1.2160151
124	0xbf47ecc0	-0.78095627
125	0x3f2b47e7	0.6690659
126	0x3f0cc000	0.5498047
127	0x4014ab9a	2.3229737
128	0x3ed3b214	0.413468
129	0x3ea4e2cb	0.3220428
130	0x402464e2	2.5686574
131	0xbe3670e2	-0.17816499
132	0x40576143	3.3653114
133	0x3ed1d6fa	0.40984327
134	0x4009cd67	2.1531618
135	0x3fe102b5	1.7578951
136	0x4005d910	2.0913734
137	0x3f21615f	0.630392
138	0x400d645d	2.2092507
139	0xbf31a946	-0.69398916
140	0xbf6448f6	-0.8917383
141	0x3ea7986b	0.32733473
142	0xbe7aa264	-0.2447601
143	0xbf97917c	-1.1841273
144	0x3f38c985	0.72182494
145	0x404b14b2	3.1731381
146	0xbe2bf8a9	-0.16794075
147	0x3ffd1bf1	1.9774152
148	0x3fc720ff	1.5556945
149	0xbf805710	-1.0026569
150	0x3e2a29dd	0.16617532
151	0x3f335d68	0.700644
152	0x3e749b57	0.23887382
153	0x3f9b354c	1.212564
154	0x3f134125	0.5752128
155	0x3ea61e4f	0.32445
156	0x3feecf1d	1.8656956
157	0x3f2220b1	0.63331133
158	0xbb1f53a2	-0.0024311324
159	0xbfcfce6c	-1.623487
160	0x3f912d6c	1.1341987
161	0xbdf5a887	-0.11995035
162	0x3feebee8	1.865201
163	0x3ee3cdfc	0.4449309
164	0x3f26e5ce	0.65194404
165	0x3e8d0506	0.27542895
166	0xbf0aacba	-0.5416981
167	0x3feec940	1.8655167
168	0x3f4cd53f	0.8001289
169	0x3f01d359	0.50713116
170	0x40522e76	3.2840858
171	0x3f25850d	0.64656144
172	0x4005d3f3	2.0910614
173	0x3fafb553	1.3727211
174	0xbfbabe06	-1.458924
175	0x3f659a2c	0.8968837
176	0xbf85d2ac	-1.0454917
177	0x3f4679cb	0.7752959
178	0x3f0e3403	0.55548114
179	0x3f930666	1.1486328
180	0xbe8f8b3f	-0.28035924
181	0x3ea3e393	0.32009563
182	0xbf0f8328	-0.56059504
183	0x3f124601	0.5713807
184	0x3f498cf7	0.7873072
185	0x3dc834b7	0.097756796
186	0x3bc3344d	0.0059571625
187	0x3f357183	0.7087633
188	0xbf9f4785	-1.2443701
189	0xbfadb742	-1.3571551
190	0xbf2e4ec0	-0.6808891
191	0xc0370fc1	-2.8603365
192	0xbef1f1e5	-0.47254863
193	0xbdbea61c	-0.093090266
194	0x3fe13e4f	1.759714
195	0x3ee5ceba	0.44884282
196	0x401ac56e	2.4183002
197	0x3f96e434	1.1788392
198	0x3eaa0aad	0.3321127
199	0x3f4c7e86	0.7988056
200	0xbe071bf9	-0.13194264
201	0xbfaca86e	-1.3488901
202	0x3f182af9	0.5944057
203	0x3abd6b84	0.0014451598
204	0x3fb49356	1.4107463
205	0x3f10f317	0.56620926
206	0x3ec4fa8a	0.38472396
207	0x3f684409	0.90728813
208	0xbfa8e8c9	-1.319604
209	0xbdf20884	-0.118180305
210	0xbe22078c	-0.15823191
211	0x3f1d4559	0.6143394
212	0xbe4c77fe	-0.19967648
213	0xbe3ffc02	-0.18748477
214	0x400593a8	2.0871372
215	0x3f7f9e2c	0.99850726
216	0xbf557307	-0.8337864
217	0xbe5420fc	-0.20715708
218	0x3f6f8d9d	0.9357546
219	0xbf75abf2	-0.9596549
220	0xbe657073	-0.22406177
221	0xbf5d14db	-0.8635995
222	0x40d60e3e	6.6892385
223	0x40d75b4d	6.729895
224	0x4013281b	2.2993228
225	0x400d84fa	2.2112412
226	0x4056835b	3.3517673
227	0x40577fc1	3.3671725
228	0x40b119d9	5.534405
229	0x3f82939d	1.0201298
230	0x3f002dfe	0.5007018
231	0x3f8f50b2	1.1196501
232	0x4103c9a0	8.236725
233	0xbf0d57ee	-0.55212295
234	0x3e1bfbbb	0.15232746
235	0x3fe7c3ce	1.810663
236	0x3fb2cd26	1.3968856
237	0x3fdb7c2e	1.7147272
238	0x4049ee39	3.155165
239	0x400a81cc	2.1641722
240	0xbe8b30ab	-0.27185568
241	0x41032732	8.197069
242	0x3eb847fa	0.35992414
243	0x3f9a6474	1.2061906
244	0x4035f562	2.843102
245	0x4016a02a	2.3535256
246	0x4020d375	2.5129063
247	0x3ec00f34	0.375116
248	0x3fc033b6	1.5015781
249	0x3ee146c3	0.439993
250	0x401ddd52	2.4666333
251	0x3dc3407f	0.09533786
252	0x400cd8f8	2.2007427
253	0x405cc741	3.4496615
254	0xbd10d59e	-0.03535997
255	0xbfe04d7c	-1.7523646

l1.bias f4 [8]
0	0x3e4ff1b5	0.20307048
1	0x3eb39a4b	0.35078654
2	0x3f2e2084	0.68018365
3	0x3eaedc91	0.34152654
4	0x3e50aef1	0.20379235
5	0xbd8c79f8	-0.06859201
6	0x3f8cebce	1.1009462
7	0x3e71eeda	0.23626271

l2.weight f4 [8, 8]
0	0x3f72a344	0.94780374
1	0xbf099be3	-0.5375349
2	0xbeb355d6	-0.35026425
3	0x3f90c012	1.1308615
4	0x3e2361de	0.15955302
5	0x3fd281b1	1.6445829
6	0xbf910700	-1.1330261
7	0x3f308429	0.6895166
8	0x3eed30db	0.46326336
9	0x400c676a	2.193812
10	0x40049618	2.071661
11	0xbfa47be5	-1.285031
12	0x3f269791	0.6507502
13	0x3e461bfb	0.19346611
14	0xbf62ef58	-0.8864646
15	0xbf4c9c0f	-0.79925627
16	0xbf7fe5b8	-0.999599
17	0x3fb410e2	1.4067652
18	0x3f5d9af9	0.86564595
19	0x3f21f85a	0.6326958
20	0xbe9900bc	-0.29883373
21	0xbf7fb585	-0.9988635
22	0x4037da6b	2.8727062
23	0xbed2f5e3	-0.41203222
24	0xc0032ab7	-2.049482
25	0xbfd42803	-1.6574711
26	0x3e876d5b	0.2645062
27	0xbf6b732d	-0.9197262
28	0x3f4943ef	0.78619283
29	0x3f8739f7	1.0564564
30	0xbe74093b	-0.23831646
31	0x3fda5874	1.7058244
32	0xbec50733	-0.38482055
33	0x3f57564b	0.8411605
34	0x3e3813aa	0.17976251
35	0x3fa1dd8e	1.2645738
36	0x3fa29827	1.2702683
37	0xbd81d253	-0.06338944
38	0xbf1bf4f1	-0.60920626
39	0xbf801575	-1.0006548
40	0x3f14e5bc	0.58163047
41	0x3f88303d	1.0639721
42	0xbf9d4542	-1.2286761
43	0x3f20f614	0.62875485
44	0x3fb08b84	1.3792577
45	0xbf7583dd	-0.9590433
46	0xbe9edab5	-0.31026235
47	0x3f52252b	0.82087964
48	0x3ffa23e5	1.9542204
49	0xbf9ac9d6	-1.2092845
50	0x3f877f71	1.0585767
51	0x3fbb8e7c	1.4652858
52	0xbfc779ed	-1.5584084
53	0x3f2f37c1	0.6844445
54	0x3ee074d1	0.43839124
55	0xbf1882be	-0.59574497
56	0xbeca79fa	-0.39546186
57	0xbe119fe6	-0.14221153
58	0x3ece5b6b	0.4030412
59	0x3ec96ad2	0.3933931
60	0xbf638fd3	-0.88891333
61	0x3eef4add	0.46736804
62	0x3e911f68	0.28344274
63	0xbd0cd9e0	-0.03438747

l2.bias f4 [8]
0	0xbf3c837a	-0.7363812
1	0x3f82c959	1.0217696
2	0x3f218a11	0.631013
3	0x3f097e92	0.53708756
4	0xbf664c71	-0.8996039
5	0xbeb17f91	-0.34667638
6	0x3eb43905	0.35199752
7	0xbf17105d	-0.59009343

l3.weight f4 [137, 8]
0	0xc01877bc	-2.382308
1	0xbf4f21e3	-0.8091108
2	0xbeb8c1f8	-0.36085486
3	0xc047de41	-3.1229403
4	0x3ce33154	0.027733482
5	0xc1830030	-16.375092
6	0xbe250a78	-0.16117275
7	0x401fcdb6	2.4969306
8	0xbf49b236	-0.78787553
9	0xbec50a05	-0.38484207
10	0x3f4e49f5	0.805816
11	0xc12aa2c4	-10.664738
12	0xc0db9caf	-6.8628764
13	0xbfdbc9b3	-1.7170929
14	0xbe88b84e	-0.26703113
15	0xc0b09748	-5.518467
16	0xc0151624	-2.3294764
17	0xbf10c4ec	-0.5655048
18	0xbedfd0e5	-0.4371406
19	0xc138ed62	-11.557955
20	0x3fcd3109	1.6030589
21	0xc0424171	-3.0352442
22	0xbf0cdc2b	-0.5502345
23	0x3e97cf36	0.29650277
24	0xbf913259	-1.134349
25	0x3bd4a0b3	0.0064888834
26	0x3d5d6d58	0.054059356
27	0xc142e75e	-12.181486
28	0xc002c018	-2.0429745
29	0xc10ca95a	-8.791346
30	0xbe8552dd	-0.26039782
31	0x3ff9cd5f	1.9515799
32	0xc01e3794	-2.4721422
33	0xbe3a9138	-0.18219459
34	0xbe7a685b	-0.24453871
35	0xc03a767b	-2.9134815
36	0xbf7c9ae6	-0.98673856
37	0xc05799d8	-3.3687649
38	0xbead91f3	-0.33900413
39	0xbeba5835	-0.36395422
40	0xbff7b198	-1.9351072
41	0xbf88ce5f	-1.068798
42	0x3e1834a7	0.14863835
43	0xc082cf73	-4.0878234
44	0x3ea5d0f3	0.32385978
45	0xbf9fb6f4	-1.2477708
46	0xbf5e49b3	-0.86831206
47	0xc0a887b5	-5.266566
48	0xc0631eba	-3.5487504
49	0xc0104cc9	-2.2546866
50	0x3e0a7fec	0.13525361
51	0xc0e294b0	-7.0806503
52	0x4000ba92	2.0113873
53	0xc0a5f748	-5.1864357
54	0xbea4ce56	-0.32188672
55	0x3ef44dc7	0.4771559
56	0xc06feec2	-3.7489476
57	0xc12160dd	-10.086148
58	0x3f6aef34	0.91771245
59	0xc130862f	-11.03276
60	0x3e857e13	0.2607275
61	0xc0a551df	-5.166244
62	0xbea254c7	-0.31705305
63	0x40269614	2.60291
64	0xbf80797a	-1.0037072
65	0xc05dfbb6	-3.4684882
66	0x3ec5d5ac	0.3863958
67	0xc119e98c	-9.619518
68	0x3fea8651	1.832224
69	0xbf926dfd	-1.1439816
70	0xbf7832c0	-0.9695244
71	0xc0d2e7bb	-6.5907874
72	0xbf8b506b	-1.0883917
73	0xc048ae5c	-3.135642
74	0xbf20aa23	-0.6275961
75	0xc08d172d	-4.409079
76	0xc0a0715a	-5.013837
77	0xc143ddb5	-12.241628
78	0x3f95f65e	1.171581
79	0x4093f40a	4.62354
80	0xbfe88420	-1.8165321
81	0xc14ed16b	-12.926127
82	0x3edf8ebc	0.43663585
83	0xc00eb865	-2.2300045
84	0xc044367f	-3.0658262
85	0xc122946f	-10.161239
86	0x3f366b49	0.71257454
87	0x40219aa5	2.5250638
88	0x3da954e7	0.08268147
89	0xc1131a36	-9.193899
90	0x3dbeabcb	0.09310111
91	0xbfc5b068	-1.544446
92	0xc13a9b9d	-11.662992
93	0xc1342919	-11.260034
94	0x3f8d9598	1.1061277
95	0x403a0848	2.9067554
96	0x3f0857fa	0.5325924
97	0xc0ecb182	-7.3966684
98	0x3e93d0fa	0.28870374
99	0xbf778820	-0.96692085
100	0xc075a905	-3.8384411
101	0xbfe345a5	-1.7755629
102	0xbfb0ba0c	-1.3806777
103	0xc0a28aa8	-5.079426
104	0xbe548d8c	-0.20757121
105	0xc14d7610	-12.841324
106	0xbdc13ef7	-0.09435838
107	0xbfd207d7	-1.6408643
108	0x3f22eef4	0.63645864
109	0xc08b648e	-4.3560247
110	0x3c079ae0	0.008276671
111	0xc0331600	-2.7982178
112	0xbfce3e8a	-1.6112835
113	0xc0b1bfb6	-5.554652
114	0x3e28cb15	0.1648372
115	0xc08480f2	-4.1407404
116	0x3f595f12	0.8491069
117	0xc07dea27	-3.9674165
118	0xbe9f612a	-0.31128818
119	0x3d0eec00	0.034893036
120	0xbe8d8d88	-0.27647042
121	0xc00f7073	-2.2412384
122	0xbe0ae7ef	-0.13565038
123	0xc140cbc9	-12.049752
124	0xbf150ccb	-0.58222646
125	0xc0a90ad5	-5.2825723
126	0x3ed03bf1	0.40670732
127	0xbf6299a8	-0.8851571
128	0xc01c5a7d	-2.443023
129	0xbe7990a9	-0.2437159
130	0xbf4b03e1	-0.79302794
131	0xc0a37e06	-5.1091337
132	0x3ff71926	1.930455
133	0xc145d618	-12.364769
134	0xbf496a19	-0.7867752
135	0x3f4de707	0.80430645
136	0xbfcd21b2	-1.6025908
137	0xbf38c7fd	-0.7218016
138	0xbdaac81a	-0.083389476
139	0xbe8f1f29	-0.2795346
140	0xbf44a7e2	-0.7681867
141	0xc117ee40	-9.4956665
142	0xc008d116	-2.1377616
143	0x3d89a853	0.067215584
144	0xc00c5c14	-2.19312
145	0xc16a5e17	-14.647971
146	0x3e99670a	0.29961425
147	0xbfdf0df6	-1.7426136
148	0x400be806	2.1860366
149	0xbf94242c	-1.1573539
150	0xbfd6bdfd	-1.677673
151	0xc1000266	-8.000586
152	0xc023c62b	-2.5589702
153	0xc066f980	-3.6089783
154	0xbe912c78	-0.2835424
155	0xbfc14a5a	-1.5100815
156	0x3fd7f288	1.687089
157	0xc182ac69	-16.334185
158	0x3e090431	0.13380505
159	0x3fa637c6	1.2985771
160	0xbe777bae	-0.24168274
161	0x3e5f7a17	0.21823917
162	0xbf018854	-0.50598645
163	0xc19b80c6	-19.437878
164	0xbf35de5c	-0.7104242
165	0xbf68d0e1	-0.90943724
166	0xbf74aacf	-0.95573133
167	0xc1293b0f	-10.576919
168	0xbe1d71a7	-0.15375386
169	0x3ee1a1c4	0.4406873
170	0xbf76bcd2	-0.96381867
171	0xc18f4acd	-17.911524
172	0xc16ed2dc	-14.926479
173	0xc193f0c6	-18.492565
174	0x3e33d258	0.17560709
175	0xc104bc8e	-8.296034
176	0xbf3785ed	-0.7168873
177	0x3eb8f26b	0.3612245
178	0xbf2046fb	-0.6260831
179	0xbd47c131	-0.048768226
180	0xc103b205	-8.230962
181	0xbf2ab6f2	-0.666854
182	0xc1b6c40f	-22.845732
183	0xc040c26b	-3.0118663
184	0xc1a3903d	-20.445429
185	0xbea9a9f1	-0.33137468
186	0x3ee63251	0.44960263
187	0xbed263ce	-0.4109177
188	0xc00af58d	-2.1712372
189	0xc00d3e37	-2.2069223
190	0x3e01f082	0.12689403
191	0xbfbebba1	-1.490101
192	0xc10b043e	-8.688536
193	0x3f246fec	0.6423328
194	0x3c8174ae	0.015802708
195	0xc0e6e045	-7.2148767
196	0x3ff970a7	1.9487504
197	0xc1185fb4	-9.523365
198	0xc06d83d5	-3.7111714
199	0x40a6f55e	5.217452
200	0xc112ba16	-9.170431
201	0xbf4a616e	-0.79054916
202	0xbea0cec3	-0.31407747
203	0xc1216fe9	-10.089822
204	0xc0b972b4	-5.795252
205	0x403ead59	2.9793303
206	0xc0f2a3f3	-7.5825133
207	0xbd30b492	-0.043140955
208	0xc15966b0	-13.58757
209	0xbe94499d	-0.28962412
210	0xbf544041	-0.82910544
211	0xc146bc4a	-12.420969
212	0x40434336	3.0509772
213	0x3f11d86d	0.56970865
214	0xc05a2456	-3.4084678
215	0xbf1537b0	-0.582881
216	0xc15d00dd	-13.812711
217	0x3e26ca5b	0.1628813
218	0xbe96398e	-0.29340786
219	0xc142f774	-12.185413
220	0xbfeca969	-1.84892
221	0x3f985a1b	1.1902498
222	0xbfc2453e	-1.5177381
223	0xbf4f4052	-0.8095752
224	0xc172455d	-15.141934
225	0xbba37371	-0.004988127
226	0xbdb2ef02	-0.08736993
227	0xc1187940	-9.529602
228	0xbf629af0	-0.88517666
229	0x3fa9a6bb	1.3254007
230	0xc144563a	-12.271051
231	0xbf209765	-0.6273101
232	0xc14b2697	-12.696921
233	0xbfd3fd9a	-1.6561768
234	0xbef59a76	-0.47969407
235	0xc0884501	-4.2584233
236	0x400fb712	2.2455487
237	0x3ff5ab8c	1.9192977
238	0xc11c57c5	-9.771428
239	0xbf4acec9	-0.7922178
240	0xc18a247f	-17.26782
241	0xbfdf09f6	-1.7424915
242	0x3f3ea9bc	0.74477744
243	0xc152f14a	-13.183908
244	0x4031cb25	2.778024
245	0xbf12ba1a	-0.5731522
246	0xc08ad62e	-4.338645
247	0xc00deb41	-2.2174838
248	0xc16f40dd	-14.953336
249	0xc05c2531	-3.43977
250	0x3e884f3c	0.2662295
251	0xc1914612	-18.159214
252	0xbed43c28	-0.41452146
253	0x3f8f0a8e	1.1175096
254	0x3d36ebad	0.04465835
255	0xbf147b47	-0.58000606

l3.bias f4 [137]
0	0xc112c152	-9.172197
1	0xc17d9a46	-15.850164
2	0xc127b4a5	-10.481603
3	0xc137c511	-11.485612
4	0xc14d8dc1	-12.847108
5	0xc15c4a63	-13.768161
6	0xc1199f1a	-9.601343
7	0xc127b0db	-10.480678
8	0xc132aa66	-11.166601
9	0xc11c53c8	-9.770454
10	0xc12a3e4b	-10.640208
11	0xc13ec3dd	-11.922818
12	0xc148748a	-12.528452
13	0xc14eb32d	-12.918744
14	0xc12efa5a	-10.936121
15	0xc141c2c2	-12.110048
16	0xc123342e	-10.200239
17	0xc13eb73f	-11.919738
18	0xc11a8b4d	-9.659009
19	0xc12286a1	-10.157868
20	0xbe9f6494	-0.31131423
21	0xbd4944f5	-0.04913803
22	0xbab3e0ba	-0.001372359
23	0x3d8e7c1f	0.06957268
24	0xc11f7db6	-9.968191
25	0xc0ee035f	-7.4379115
26	0xc0fb90aa	-7.861409
27	0xc126330e	-10.387465
28	0xc0d93dc9	-6.788792
29	0xc0dd11df	-6.9084315
30	0xc1211133	-10.066699
31	0xc0e5daad	-7.182944
32	0xc088128b	-4.2522635
33	0xc1315c4f	-11.085036
34	0xc12a34f9	-10.637933
35	0xc10b978b	-8.724498
36	0xc0961264	-4.689745
37	0xc12b37c2	-10.701113
38	0xc1143cd3	-9.26485
39	0xc13d2163	-11.820651
40	0xc106341f	-8.387725
41	0xc0f8011c	-7.7501354
42	0xc0cf7f24	-6.48427
43	0xc126d3d1	-10.426713
44	0xbe2f6c6b	-0.17131202
45	0xbed159ae	-0.40888733
46	0x3cacde4e	0.021102097
47	0xbd291405	-0.041278858
48	0xbafcd52f	-0.0019289608
49	0x3eb0580e	0.3444218
50	0x3e9fb32a	0.3119138
51	0xbec8a2de	-0.39186758
52	0x3e847e0d	0.2587742
53	0x3e1ee67d	0.15517612
54	0x3e7823ea	0.2423245
55	0xbd83e639	-0.06440396
56	0xc0d8263e	-6.754668
57	0xc0e30205	-7.0939965
58	0xc13caed7	-11.7926855
59	0xc0eeeab3	-7.46615
60	0xc0744ab2	-3.817059
61	0xc0addf31	-5.433495
62	0xc0a0ede5	-5.02904
63	0xc040dd5e	-3.0135112
64	0xc1073988	-8.451546
65	0xc059419e	-3.39463
66	0xc06870ef	-3.631893
67	0xc0aaad0f	-5.3336253
68	0xc0c914c5	-6.2837853
69	0xc08ae07c	-4.339903
70	0xc0f1aca9	-7.5523267
71	0xc1146752	-9.275225
72	0xc0c090fd	-6.017699
73	0xc0c09f33	-6.0194335
74	0xc168f9ab	-14.560954
75	0xc12a8059	-10.656335
76	0xc116af76	-9.417837
77	0xc147d886	-12.490362
78	0xc14f6f81	-12.964723
79	0xc1221d65	-10.132176
80	0xc13307ce	-11.189405
81	0xc101428f	-8.07875
82	0xc1010f01	-8.066163
83	0xc14704c7	-12.438666
84	0xc0be1494	-5.940012
85	0xc10e6c4e	-8.901442
86	0xc0c72834	-6.2236576
87	0xc12abea1	-10.67154
88	0xc128199f	-10.506255
89	0xc14e0589	-12.876351
90	0xc121ec6d	-10.120221
91	0xc15af775	-13.685414
92	0xc0ecd327	-7.4007754
93	0xc1041205	-8.254399
94	0xc14477a5	-12.27921
95	0xc1227a50	-10.154861
96	0xc1255863	-10.334079
97	0xc13e4a9e	-11.893217
98	0xc1195ef9	-9.585687
99	0xc0ce9d9e	-6.4567404
100	0xc118103d	-9.503964
101	0xc11072e9	-9.028054
102	0xc0ec5acd	-7.386084
103	0xc17620b7	-15.382987
104	0xc1174cd6	-9.456259
105	0xc13d94a7	-11.848792
106	0xc0839b9a	-4.1127443
107	0xc0d22a82	-6.567689
108	0xc1127612	-9.153826
109	0xc12e5517	-10.895774
110	0xc1358def	-11.347152
111	0xc10b6e99	-8.714501
112	0xc0d020f8	-6.5040245
113	0xc1095229	-8.582559
114	0xc10946f3	-8.579822
115	0x3e55fa0c	0.20896167
116	0x3d1d9c80	0.03847933
117	0xc1151871	-9.318467
118	0xc11427b7	-9.259696
119	0xbecd6c6c	-0.40121782
120	0xbe68f4e1	-0.22749664
121	0xbcea3f9c	-0.028594784
122	0xbe92932d	-0.2862791
123	0xbf0a451b	-0.54011697
124	0xbe44dd85	-0.19225128
125	0xbed9867b	-0.42485413
126	0xbd0fe360	-0.03512895
127	0xbdb17f86	-0.08666901
128	0x3ec1b202	0.37831122
129	0x3e7b70ab	0.24554698
130	0x3c205bfe	0.009787558
131	0x3de53d26	0.11193304
132	0xbebd7eef	-0.37010905
133	0xc1180599	-9.501367
134	0x3deb7063	0.114960454
135	0xc03f841e	-2.9924388
136	0x3eaf48a1	0.342351
