data.pth (torch, 17130 bytes, 6 tensors)

l1.weight f4 [8, 90]
000000 37 64 0b bf 74 1d 2f bd f2 f9 c9 3d 56 ec 27 be
       -0.5444979 -0.042752698 0.098621264 -0.16398749
000010 87 59 b7 be 73 06 03 bf cf 28 f5 bf 0d 9a 75 bd
       -0.3581049 -0.51181716 -1.9153079 -0.059961367
000020 a3 41 e3 bf 75 1c 10 3f fc e0 ce bf 71 90 2a 3f
       -1.7754406 0.5629342 -1.616241 0.6662665
000030 1d 06 c0 bf ea c1 a8 3f a5 3a 46 3f 29 4d 81 3f
       -1.5001866 1.3184178 0.77433234 1.0101672
000040 52 e3 bb 3f 24 9c b1 bd 0a 5b 9a 3f 4f dd fe be
       1.4678748 -0.086723596 1.2059033 -0.4977822
000050 65 37 d6 bf cb 15 83 be e3 09 9c be 29 83 76 3f
       -1.6735655 -0.25602564 -0.30476293 0.96293885
000060 4f e9 21 40 eb a6 97 3f ca 77 c2 3e a9 f9 fa be
       2.529865 1.1847814 0.37982017 -0.490186
000070 a4 ef 15 40 03 f3 11 3f cd f0 f7 3e 54 7e f3 bf
       2.3427515 0.5701143 0.48425904 -1.9022927
000080 f4 0a 1a 40 a1 2d 5b 3f d4 cd 56 be 18 84 d5 be
       2.4069185 0.856165 -0.20976955 -0.41702342
000090 32 f8 f4 be a6 37 02 bf ff d9 8b 3f 9a a3 de bf
       -0.47845608 -0.5086616 1.0925902 -1.7393677
0000a0 5c 6c 09 bf c5 fb 3e 3f 6e 8f 87 3f 9e 14 b0 3c
       -0.5368097 0.7460292 1.0590646 0.021494206
0000b0 36 3c 12 bf 93 0a f4 3e c3 3a fc bd f8 c6 b4 3f
       -0.57123125 0.47664317 -0.123158954 1.412322
0000c0 0e d4 8b bf 72 db d4 be db be 2d 3f 22 95 cd be
       -1.0924089 -0.41573673 0.6786935 -0.40152842
0000d0 4c 0b e3 3b 8f d4 10 be 2a bb 12 3f d1 dc b1 be
       0.006928837 -0.14143585 0.5731684 -0.34738782
0000e0 b7 ea d1 3d 09 35 32 40 5c cb 65 3f 44 a9 d6 3d
       0.102498464 2.784487 0.89763427 0.104815036
0000f0 c5 b4 9a 3f 83 04 a4 3f 21 39 f5 bf ea ea db 3f
       1.2086416 1.2813877 -1.9158059 1.7181065
000100 7f 6c 77 3f ca 89 df bf 22 a3 8e c0 84 5e 55 3f
       0.96649927 -1.7463925 -4.4574137 0.83347344
000110 c7 28 2e bd 32 59 e1 3e aa 32 f9 3e 86 1b 00 3f
       -0.042519357 0.44013363 0.48671466 0.50042
000120 35 bf 3f 3f 5a 25 97 3f 7d 86 e9 bf b7 ec 52 3f
       0.74901134 1.1808274 -1.8244168 0.8239245
000130 76 92 8d 3e 47 ce 43 be 90 8d db bf 3a b1 e6 3e
       0.27650803 -0.19121657 -1.7152576 0.45057088
000140 32 42 e2 3f 7e b1 dd bf 4c d9 c3 bf e0 08 bb bf
       1.7676451 -1.7319791 -1.5300689 -1.4612083
000150 1d 42 9b 3f f2 e6 04 bf 16 4b d7 be ec 14 cd 3e
       1.2129551 -0.51914895 -0.42049474 0.40055025
000160 1c 04 ca be fc f0 1a bf 62 3d 1f 3f 4d ef 9d bd
       -0.3945626 -0.6052396 0.6220304 -0.077116586
000170 fc 2e 62 3f 6c 77 db 3e 50 49 07 bf 03 50 de 3e
       0.8835294 0.4286455 -0.5284624 0.4342042
000180 10 e3 55 bf ba 28 77 be 65 49 a6 bf 0a a8 72 be
       -0.83549595 -0.2413663 -1.2991148 -0.23696914
000190 9e 5b 56 bf 84 5e 06 3f 0c c6 2b 3d 09 ed 6d 3f
       -0.83733547 0.5248797 0.04193692 0.9293981
0001a0 2e 54 97 3f f7 69 18 bf f8 2c eb 3e f6 bc 71 be
       1.1822565 -0.5953669 0.45932746 -0.23607239
0001b0 e2 0b ae 3e 5b 6c be 3e 39 6f 9d bf 0b 74 ed 3e
       0.3399344 0.37192044 -1.2299567 0.46377596
0001c0 a9 20 05 bf a7 a4 00 40 91 39 31 3f ce ca 5f bf
       -0.5200296 2.0100496 0.69228464 -0.8741883
0001d0 52 6b 31 3f df 65 a7 3e 92 4b 30 3f 4e fa c3 be
       0.6930438 0.3269491 0.6886531 -0.38276905
0001e0 21 35 2e 3e bc fb cd bf 9e 7b 6f 3f 1f 2e 5c 3f
       0.17012455 -1.6092448 0.93548 0.86007875
0001f0 fe 3a d1 be 29 38 27 bf a0 69 b9 bd 21 2a e9 3e
       -0.4086532 -0.6532007 -0.090533495 0.45539954
000200 4e 3c 59 bf f2 37 53 bf fe 73 f2 3e 5a 1e af 3e
       -0.8485764 -0.8250724 0.4735412 0.34202844
000210 61 00 10 3f 22 d0 6a 3f 20 a3 e9 3e b0 fa 96 3f
       0.5625058 0.91723835 0.45632267 1.1795254
000220 51 50 76 3f 7e a7 be 3e c6 f4 50 3f e6 5f 83 bd
       0.96216303 0.3723716 0.81623495 -0.064147756
000230 4f 45 b1 3f f3 98 be bd f4 65 71 3f 5e ec b5 be
       1.3849276 -0.093065165 0.94296193 -0.35531896
000240 d7 c1 70 3e d0 12 09 bf 91 0f a5 be 24 c2 94 3f
       0.23511444 -0.5354433 -0.3223844 1.1621747
000250 7c b6 26 3f 70 ba 64 3f 27 62 0b bf 4b a6 1c bf
       0.651222 0.8934698 -0.54446644 -0.6119124
000260 82 88 c7 bf 2d 0d ff 3e 96 9e 31 40 74 71 55 bf
       -1.5588534 0.4981474 2.7753043 -0.8337624
000270 fc f5 72 bf bf ec 35 bf ec 7e a8 3e 66 c7 4e be
       -0.9490659 -0.7106437 0.32909334 -0.20193252
000280 57 8b 83 3e 9d 35 39 3f f0 12 85 3f 03 33 45 bf
       0.25692245 0.7234743 1.0396404 -0.7703096
000290 16 38 be bf d8 82 c9 bd 73 1d 45 bd c6 64 76 3e
       -1.4860866 -0.098394096 -0.048123788 0.2406188
0002a0 44 20 79 bf fb ec 50 3f af 74 d6 3e 9e db d1 bf
       -0.9731486 0.81611603 0.41885898 -1.6395147
0002b0 3a 56 4f 3c cf 6c 17 bf 2b 17 fc 3e 16 8c 9d 3e
       0.012654835 -0.59150404 0.49236426 0.3077094
0002c0 c2 83 34 bf 35 31 47 3f cc ec a0 3e c2 ff 85 3e
       -0.70513546 0.7780946 0.31430662 0.2617169
0002d0 fb ea 38 bf ab d2 ae bd f5 9e 7c bd 26 4a 0c 3e
       -0.7223355 -0.085362755 -0.06167503 0.1370016
0002e0 f8 95 bc be be 5f a9 be 94 32 ea 3f 6a 23 33 3f
       -0.36833167 -0.33080858 1.8296685 0.6997591
0002f0 b9 66 0e 40 d6 c5 f7 3f 87 86 cd 3f 8f 76 06 3f
       2.2250197 1.935725 1.605668 0.52524656
000300 d6 1c b6 be 0e 0d ca 3d ae de 00 3f 74 35 39 3f
       -0.35568875 0.09865771 0.5033978 0.7234719
000310 16 56 4b 3f ba c7 29 3f bc da 44 3f 53 61 45 3f
       0.7942823 0.66320384 0.7689626 0.7710163
000320 3b 20 0b 40 4c 38 3e 3f b7 56 25 3f 72 34 e9 be
       2.1738422 0.7430465 0.6458544 -0.45547825
000330 74 37 bc 3c ba de 80 3f f3 2f 53 3f 8d cc 6e 3f
       0.02297566 1.0067971 0.8249504 0.9328087
000340 10 55 ee 3e ad 70 46 3f 54 4b 86 3f d8 95 93 be
       0.46549273 0.7751568 1.0491738 -0.2882526
000350 56 d9 03 3e 69 00 5a 3f 83 6f 21 3f bc a4 dd 3e
       0.12875876 0.85156876 0.6306078 0.43289745
000360 87 f2 3c bf df 89 16 be 00 c8 80 3f 23 e3 d4 3f
       -0.7380757 -0.14701031 1.0061035 1.6631817
000370 20 52 9c 3e e6 08 94 be c8 c0 1c 3f 20 72 dc bd
       0.30531406 -0.2891304 0.6123166 -0.10763955
000380 94 c1 c8 3e bb d9 b4 3f c6 fa 9e be 4a e6 36 3f
       0.39210188 1.4128946 -0.310507 0.71445143
000390 6d 20 66 bf 71 55 3f bf 08 9b 10 c0 01 5b 2d bf
       -0.8989323 -0.7473975 -2.2594624 -0.67716986
0003a0 df 0c c3 bd 1a 12 2a 3f d2 85 7d 3f f4 c4 d6 be
       -0.09523939 0.6643387 0.9903232 -0.41947138
0003b0 99 22 8b 3e 21 1c 99 be 5f e7 20 3f b3 dc d7 bc
       0.27174833 -0.29904273 0.62853044 -0.026350355
0003c0 b5 37 fa 3d 9e 93 c1 3d d6 ea 9e be 51 35 0f 3f
       0.122176565 0.09451984 -0.3103854 0.5594073
0003d0 35 91 94 be 14 c4 ee 3f 00 2e b8 be ca 6d 24 3f
       -0.29017034 1.8653588 -0.35972595 0.64230025
0003e0 05 8f 42 3d 33 73 e6 3f ea 2e 70 3f c7 7b 86 3b
       0.047499675 1.8003906 0.93821585 0.004104111
0003f0 c4 9d 60 bf d4 78 27 3f 65 57 5a be d9 9a ba 3d
       -0.8774073 0.65418744 -0.21322401 0.09111566

l1.bias f4 [8]
000000 f6 dd c3 3e 3a 7f 85 3e 86 1b 1d 3f 48 34 72 3f
       0.3825528 0.2607363 0.6137012 0.94611025
000010 79 ef 3f 3f 84 7f 03 3f b4 8f 57 3f c3 a2 4b 3f
       0.7497478 0.5136645 0.8420365 0.7954523

l2.weight f4 [8, 8]
000000 ea a0 c9 3f 00 dd 98 3e 5f 26 86 3f 03 11 9f 3e
       1.5752232 0.2985611 1.048046 0.31067666
000010 5a c6 fa be af 76 c4 be f9 c1 c8 3e 5b f2 a5 bc
       -0.48979455 -0.38371798 0.3921049 -0.020257166
000020 d8 25 fc be 49 89 9b bf 65 98 1e 3f b8 43 d1 3e
       -0.49247622 -1.2151271 0.61951286 0.40871978
000030 f4 db 89 3f 5a 29 38 3f 59 e9 53 bf f3 5f 91 3f
       1.0770249 0.719381 -0.82777935 1.1357406
000040 00 fe 38 be 70 53 0c bf de 9e d0 bf 74 2c 07 40
       -0.18065643 -0.54814816 -1.6298482 2.1120882
000050 82 de 6a bf 54 40 62 be 46 68 ea 3f f2 68 2d 3f
       -0.9174577 -0.22094852 1.8313072 0.6773826
000060 eb 32 66 bf dc d0 10 be 1c 9c 15 3e 32 a7 d9 3f
       -0.89921445 -0.14142174 0.14610332 1.7004149
000070 ad dc 10 40 bd ae 83 3f b4 b1 a7 3f b3 94 ab bf
       2.263469 1.0287701 1.3101106 -1.3404754
000080 03 2f 86 3f cf 06 c8 bf af 90 0e bf 81 71 21 3f
       1.0483097 -1.5627078 -0.5568952 0.6306382
000090 18 e9 42 3f fa 74 f1 3e 12 5e e8 be 8b 5c 46 3f
       0.7613692 0.4715956 -0.4538427 0.7748496
0000a0 5c 7f a9 3f b3 41 06 40 50 dc 96 bf ac 89 7f 3f
       1.3241992 2.09776 -1.1785984 0.99819446
0000b0 f0 3a 6a 3f bf 76 d2 bf e2 6f 43 bf 6d a8 db 3f
       0.9149618 -1.6442488 -0.76342595 1.7160774
0000c0 8d 0e 03 be 66 7f b7 bf 8a 26 1d 40 6c 66 9b be
       -0.1279852 -1.4335754 2.4554772 -0.3035158
0000d0 5d 5e b8 bd 02 02 0a bf d7 4f cd 3f 7d 3c 9a 3f
       -0.09002373 -0.53909314 1.603999 1.204971
0000e0 8c e0 9a 3f 91 7f af be 04 44 c8 be 34 42 7d bf
       1.2099776 -0.34277013 -0.39114392 -0.9892914
0000f0 65 82 31 bd 80 b1 e6 3f 93 d6 bc 3f b8 02 b7 3f
       -0.043337245 1.8022919 1.4752983 1.4297705

l2.bias f4 [8]
000000 9b be d0 be 6e b4 c9 ba c0 00 0a 3f c6 fb 56 3f
       -0.4077042 -0.0015388855 0.53907394 0.83977926
000010 c7 53 94 be 81 97 0f 3f 10 54 57 3f 96 d8 5d 3e
       -0.28970167 0.5609055 0.84112644 0.21664652

l3.weight f4 [115, 8]
000000 b8 e4 cc bf 55 b1 0c be e1 0b 5b 3f 33 8c 74 3d
       -1.60073 -0.13739522 0.85565 0.059704017
000010 6d 56 90 3f b1 73 10 bf 26 24 33 c0 bb 85 b7 c0
       1.1276375 -0.5642653 -2.7990813 -5.7350745
000020 2b 2c 22 3f d6 f8 2e bf 75 4a e4 be 4a eb 01 3f
       0.63348645 -0.68348444 -0.44588056 0.5074965
000030 20 99 94 3f 80 38 52 bf 72 8a c4 c0 9c 94 4c c0
       1.160923 -0.8211746 -6.1419 -3.1965704
000040 2b c9 b8 3f 0f 44 d0 bf 73 4c 10 c0 1b 53 dd 3c
       1.4436392 -1.627077 -2.254666 0.027017167
000050 c2 53 8a 3f c8 92 c0 3d 64 1c b1 c0 23 78 50 c0
       1.0806811 0.09402996 -5.5347157 -3.2573326
000060 06 90 92 bd aa 96 15 c0 44 99 8a 3d 29 e5 66 3e
       -0.071563765 -2.3373208 0.06767514 0.22548355
000070 d1 65 1f 3f 01 9a 7a bd 00 f4 d2 c0 f0 47 32 c0
       0.62264735 -0.061182026 -6.592285 -2.7856407
000080 28 a9 2b 3e 0f 31 01 c0 0a f7 09 bf 93 ad 3f bf
       0.16763747 -2.0186193 -0.53892577 -0.7487423
000090 75 c6 1f 3f a6 eb d9 3e 24 5e 8d c0 8d 2b f5 bf
       0.62412196 0.42562598 -4.417742 -1.9153916
0000a0 59 35 50 3f 0a 3e 7b c0 5d 33 a9 3f 5b f2 b0 be
       0.813314 -3.9256616 1.32188 -0.34559903
0000b0 8d b8 e2 bf 20 85 61 bd 1a 90 db c0 fb 5f e9 bf
       -1.771257 -0.0550586 -6.8613405 -1.8232416
0000c0 ee a2 6f 3c ae d6 20 c0 64 c2 2e 3f 68 da 4b be
       0.014626248 -2.513103 0.68265367 -0.19907534
0000d0 02 45 36 3f 4f 75 17 bf 67 51 69 c0 c3 28 13 bf
       0.7119905 -0.59163374 -3.6455934 -0.5748407
0000e0 20 af 70 be da 37 a7 3d 20 24 26 c0 ad e5 d2 be
       -0.23504305 0.0816495 -2.595955 -0.41190854
0000f0 1d 6f 57 3f dd 87 19 3d e8 60 a7 be 39 bb 48 bf
       0.8415392 0.037483085 -0.3269112 -0.7841068
000100 00 c8 ab 3b 81 fd a9 3e 55 df 5d c0 20 07 f1 bf
       0.0052423477 0.3320122 -3.466756 -1.8830299
000110 04 3a de 3f 4f 6a 6c 3d 16 fc fb bf 23 a3 4e be
       1.7361455 0.05771857 -1.9686306 -0.20179419
000120 95 14 08 3f ee a7 09 3e 4b ef 2f bf 12 ca 5f bf
       0.53156406 0.13442966 -0.6872451 -0.8741771
000130 a9 7c 55 3f 11 c8 e8 bd cb cb 29 bf 84 36 da bf
       0.8339334 -0.11366285 -0.6632659 -1.7047887
000140 c2 8c 18 3f 33 76 13 c0 aa 17 30 bf 98 c9 cc bf
       0.5958978 -2.3040893 -0.6878611 -1.5999022
000150 cc 11 11 3f 02 da 32 3e 54 7f 19 bf 5c ea 58 bf
       0.5666778 0.17465976 -0.5995991 -0.84732604
000160 df 4f 79 3f ed a1 05 c0 5e 04 90 bb d1 0c f9 bf
       0.973875 -2.0880082 -0.004395052 -1.9457036
000170 a1 32 a3 3e 08 1e 76 bd 4b c1 e6 c0 e1 74 c4 3d
       0.31874564 -0.060087234 -7.2110953 0.095926054
000180 d3 d5 04 be a2 77 37 be 62 f5 c1 be 17 92 1a bf
       -0.12972192 -0.1791673 -0.37882525 -0.60379165
000190 7c d3 c3 bc 6b 0c ba 3d 8c 91 ef c0 40 20 e7 be
       -0.023904555 0.090844 -7.486517 -0.45141792
0001a0 b4 da 58 be 64 23 ed 3d f1 7a b5 bf e3 f5 50 bf
       -0.21177179 0.11579016 -1.4178144 -0.81625193
0001b0 29 20 00 3f 63 81 ce bd 4a 0b fc bf 47 28 8c 3e
       0.5004907 -0.10083272 -1.9690945 0.2737448
0001c0 5c 8f 19 bf 98 b4 9b bf 0f d2 a4 3f 15 57 6d 3e
       -0.59984374 -1.2164488 1.2876605 0.2317775
0001d0 91 d1 6e 3e 2b 27 ae be 18 0e d9 c0 52 23 d7 c0
       0.2332213 -0.34014258 -6.7829704 -6.7230616
0001e0 4c 45 fd be 12 27 fc 3c 63 c5 50 3d 0a c7 05 bf
       -0.49466932 0.030780349 0.050969493 -0.52256835
0001f0 42 e9 65 3f b2 90 2c 3e 24 c5 8f bf cc d5 2b c0
       0.8980905 0.16852072 -1.1232038 -2.6849241
000200 0c c4 c0 3c 9b 95 c6 be ac 9f 7a 3d f2 b6 ec 3d
       0.023530982 -0.38786015 0.06118743 0.115583315
000210 1e aa fe be 8f 07 a0 be b5 6f d0 3e 10 eb 16 c1
       -0.49739164 -0.31255767 0.40710226 -9.432388
000220 97 eb b4 bf ed 27 23 3e ef 35 a6 c0 e3 39 d6 3e
       -1.4134396 0.15933199 -5.1940837 0.4184104
000230 df ad 20 bf 7c 03 f8 bf 1e 3a a4 be 49 09 b7 be
       -0.62765306 -1.9376063 -0.3207559 -0.35749272
000240 16 95 07 be 20 0d 9b bd 35 59 fe c0 ec ff 0a 3e
       -0.13240466 -0.07570863 -7.9483895 0.13574189
000250 6e 63 0f c1 88 75 21 3e 3b 81 11 bf 1d 4b 07 bf
       -8.961775 0.15767491 -0.56837815 -0.5284899
000260 45 9f 5b be c0 57 00 3e 17 69 95 be e3 84 fe 3d
       -0.21447475 0.12533474 -0.2918174 0.1242769
000270 b9 7a 2f 3e 82 71 27 bf 99 03 96 bf dc de 64 bf
       0.17136659 -0.65407574 -1.1719848 -0.89402556
000280 07 23 f0 be 87 bb 2b c0 07 13 95 3f 4e 86 e7 be
       -0.46901724 -2.6833208 1.1646432 -0.45219654
000290 54 33 fc bf bf 71 8d c0 bc a1 3f bd 9f d6 c5 be
       -1.9703164 -4.420135 -0.0467851 -0.38640305
0002a0 24 94 ac bf 2e 10 43 bf f5 9f b8 3d 5b 12 ea 3e
       -1.3482709 -0.76196563 0.090148844 0.4571713
0002b0 10 d4 27 be 68 b8 0a c1 df 30 0e be 0a 40 2c bf
       -0.16389489 -8.670021 -0.1388583 -0.67285216
0002c0 f0 d4 ca bd f7 87 a8 bf e4 7f de 3e 22 4c 84 3e
       -0.09903896 -1.3166493 0.43456948 0.25839335
0002d0 17 1a f8 c0 46 db ae c0 2f 55 62 3e c7 ed 44 bf
       -7.753185 -5.464267 0.22102807 -0.7692532
0002e0 05 f5 f1 3d 2d 52 e1 c0 78 48 ed 3f 75 54 68 be
       0.11814312 -7.041281 1.8537741 -0.22688468
0002f0 fa ce 12 c0 72 9e d4 bf 02 25 dd bf 19 ed c3 be
       -2.2938828 -1.6610854 -1.7276919 -0.3826683
000300 ac 44 12 3f 5e a4 11 c1 3b da 55 3f ae 65 cf bf
       0.57136035 -9.102629 0.8353612 -1.6202905
000310 2f fc 82 c0 38 76 41 bf 53 bc 50 bf ea b1 56 3f
       -4.093284 -0.7557101 -0.8153736 0.83865225
000320 54 48 e2 3e f1 cb c1 c0 c1 21 15 3f 52 05 97 bf
       0.44195807 -6.056145 0.5825463 -1.1798499
000330 ac b0 07 c1 be 23 a6 bf 4e 8f 50 3f b8 c9 24 bd
       -8.480633 -1.2979658 0.81468666 -0.040231436
000340 37 31 d6 3e 31 b8 c7 c0 f2 e4 32 3f 3c 4d a5 bf
       0.41834423 -6.2412343 0.6988059 -1.2914195
000350 83 08 2e 3e d5 7a ab c0 7f c5 bf 3e a4 00 a5 3e
       0.16995434 -5.358744 0.37455365 0.3222705
000360 2f 5c af 3e 6f a5 16 bf 55 cc 8c bf 7d d7 8b bf
       0.34250018 -0.5884618 -1.0999857 -1.0925137
000370 86 d0 4b bf ad d5 e7 c0 ff ec 75 3f 07 e7 eb 3d
       -0.79615057 -7.2448335 0.9606475 0.11518674
000380 77 89 93 3e e8 e4 bf bf 7c f8 6c bf e3 2c 73 c0
       0.28815815 -1.4991732 -0.9256666 -3.7996147
000390 6e c0 8a bd ce d3 23 c0 43 28 02 3c 75 64 85 3f
       -0.06774984 -2.5598025 0.007944169 1.0421282
0003a0 70 aa 0b 3f 66 96 0a c0 1a a9 9e be 4a 48 ab bf
       0.5455694 -2.1654296 -0.3098839 -1.3381436
0003b0 c0 7b 87 be 7b e1 0f c0 86 81 50 3f d9 3f 9b be
       -0.264616 -2.2481372 0.8144764 -0.3032215
0003c0 ce ac 0c 3f 5a 1c f3 c0 4a c8 33 be e0 23 e7 bf
       0.5495118 -7.597211 -0.17556873 -1.8057823
0003d0 56 70 96 bf 12 95 cf bf 76 a1 77 3f 72 9f 1b bd
       -1.1753032 -1.6217368 0.96730745 -0.037993856
0003e0 f4 98 b5 3e 73 83 96 c0 0c 30 6a 3e 16 f7 b7 bf
       0.35468256 -4.703546 0.22869891 -1.437228
0003f0 df fb 5d be 30 6c 7e bf aa 5d d5 bd ce 8f c6 3d
       -0.21678112 -0.9938383 -0.104182556 0.09695397

l3.bias f4 [115]
000000 16 88 2d c0 34 e3 5f c0 02 42 3a c0 20 0c ff bf
       -2.711431 -3.4982424 -2.9102788 -1.9925575
000010 66 9a 11 c0 e9 31 96 bf 11 4f 9e bf 2a 6a 5b c0
       -2.2750487 -1.1733981 -1.2367879 -3.4283547
000020 3b a4 ad bf 56 4d db bf af b3 30 c0 7b 6e cc bf
       -1.3565744 -1.7132976 -2.760967 -1.5971216
000030 e4 d9 87 bf 39 ca 67 c0 1d 28 cd bf ed 5b 32 c0
       -1.061337 -3.6217177 -1.6027867 -2.7868607
000040 7c 61 2b 3e 24 0b c0 3c 71 c3 89 3d 7e 6a 71 3e
       0.16736406 0.023442812 0.067267306 0.2357578
000050 fc 08 e2 bf 75 d2 32 c0 4c 2a 51 c0 87 6f 31 c0
       -1.7658992 -2.7940953 -3.2682066 -2.772432
000060 a0 b5 3d bf 56 7b 92 bf 2b 0e 22 c0 e8 b0 ce bf
       -0.7410526 -1.1443889 -2.5321147 -1.6147738
000070 a2 5a 6a bf fd b8 aa bf b3 04 72 bf f1 e8 72 bf
       -0.91544545 -1.3337704 -0.9453842 -0.9488669
000080 cc 7b 9b bf 53 5a af bf f8 96 6f bf 54 6c 9e bf
       -1.2147155 -1.369944 -0.93589735 -1.2376809
000090 25 51 97 3d 2d c8 b2 3e e5 c9 f1 3e 97 e2 17 3f
       0.07388524 0.34918347 0.47224346 0.59330124
0000a0 cf 9f f7 bc b3 01 e5 bc 37 a9 8d bc fb 92 cb bd
       -0.03022757 -0.027954912 -0.017292602 -0.09940144
0000b0 0e 1f 25 3f 4d 80 8b 3e 0e ea ea 3e 36 8f 30 3d
       0.6450051 0.27246323 0.45881695 0.043105327
0000c0 4e 75 ab bf ae 8f ee bf 5f 6e f3 bf 57 cd c5 bf
       -1.3395174 -1.8637598 -1.9018058 -1.545329
0000d0 88 f1 ef bf 06 74 ff bf e1 25 62 bf a0 30 af bf
       -1.8745584 -1.9957283 -0.8833905 -1.3686714
0000e0 a2 f1 00 be 93 c9 7e bf d0 9e 17 c0 1a 1a 71 bf
       -0.12592176 -0.9952633 -2.3690681 -0.9418045
0000f0 93 27 0d bf 18 76 b3 bf 32 6d ea bf 6e f4 9d bf
       -0.5513851 -1.4020414 -1.8314574 -1.2340219
000100 cf d4 51 c0 68 91 4d c0 0e 4a 5b c0 9f 7d d4 bf
       -3.2786138 -3.212 -3.426395 -1.6600837
000110 40 28 a1 bf b0 0c c4 bf f0 c3 f8 bf 93 c1 ee bf
       -1.2590408 -1.5316372 -1.9434795 -1.8652824
000120 c5 de f6 bf 7e d2 dc bf 78 2e 15 c0 3b 6a a4 bf
       -1.9286734 -1.7251737 -2.3309612 -1.2844919
000130 c7 b8 dd be 81 a0 8f bf 88 bf d9 bf 64 27 ff bf
       -0.43305036 -1.1220857 -1.7011576 -1.9933896
000140 af ec d4 bf e6 32 d2 bf 8e ab 00 c0 9f 19 93 bf
       -1.663473 -1.6421783 -2.0104709 -1.1492194
000150 f2 c3 17 bf 6e cc d2 be c0 3e 97 be 48 14 cf bf
       -0.59283364 -0.41171592 -0.29540062 -1.6178064
000160 e9 fa 96 bf 6a 2a cc bf 32 86 e7 bf 4f 9a 84 bf
       -1.1795322 -1.5950444 -1.8087828 -1.0359591
000170 82 78 dc bd af 9f 55 bf 23 79 92 be bf 2f 9a 3e
       -0.107651725 -0.8344678 -0.28608045 0.30114552
000180 8d 8c 03 3f 11 b4 45 bb 87 da bd 3e c6 3b b4 3d
       0.5138634 -0.0030167142 0.37080786 0.088004634
000190 ec 58 d6 bd 12 ec 01 be 11 78 c2 3e a0 2a d0 3e
       -0.10466179 -0.1268771 0.37982228 0.4065752
0001a0 41 8f 25 3e 8f c8 6d 3e e7 26 0f 3e 11 f1 e9 bc
       0.16167928 0.23221038 0.13979684 -0.028557332
0001b0 c3 30 24 bd 29 fe c6 3d ac e8 3e bc 98 67 65 3e
       -0.040085565 0.09716446 -0.011652153 0.22402799
0001c0 4a 71 09 be b3 7d 8a 3e c4 e7 4e 3f
       -0.13422123 0.27049026 0.80822396
