data.pth (torch, 19818 bytes, 6 tensors)

l1.weight f4 [8, 111]
0	0x3ffd9a07	1.981263
1	0x40009746	2.009233
2	0x3f46b09e	0.77613246
3	0x3f662d63	0.89913005
4	0x3f83e16a	1.0303166
5	0x3f7c21cb	0.98489064
6	0x3d51cbbb	0.051219683
7	0xbcd0b47a	-0.025476683
8	0x3eb56596	0.35429066
9	0xbf56a7db	-0.8384988
10	0x403b3c13	2.9255416
11	0xbf84ec20	-1.038456
12	0x3eed6990	0.463696
13	0x3fd186e8	1.6369295
14	0x402d8a10	2.7115517
15	0x3fa6f44b	1.3043302
16	0x40a92dab	5.2868247
17	0x3fa3e5bb	1.2804483
18	0x3f185135	0.5949891
19	0x403e8d60	2.9773788
20	0xbf9796a8	-1.1842852
21	0xbf55ba53	-0.83487433
22	0x3f991a5f	1.1961173
23	0x40262a35	2.596326
24	0x3e493bc1	0.196517
25	0x3f4027fe	0.75061023
26	0x402e0b3f	2.7194364
27	0x3f902263	1.1260494
28	0x3eef0860	0.46686077
29	0xbf98c3d3	-1.1934761
30	0x3fa0e8f4	1.2571092
31	0x3f67c67b	0.9053723
32	0xbfa2b006	-1.2709968
33	0xbed44cea	-0.4146493
34	0xbfc99fd9	-1.5751907
35	0x3ff26887	1.8938149
36	0x3f15c305	0.585007
37	0x40202777	2.5024087
38	0xbf9296f3	-1.1452316
39	0x4006df5b	2.1073825
40	0x3f70b88b	0.9403159
41	0xbf8cf183	-1.1011204
42	0x404f8c52	3.2429395
43	0x3f0bb130	0.5456724
44	0x3ff3d93d	1.9050671
45	0x3f9bdc47	1.2176598
46	0xbf024882	-0.5089189
47	0xbfc0ae9f	-1.505329
48	0xbf66f6ce	-0.90220344
49	0x3ef35927	0.47528955
50	0xbda7533b	-0.08170172
51	0x3f0a0119	0.53907925
52	0xbf130482	-0.57428753
53	0xbbdf46b3	-0.006813848
54	0xbf8e567d	-1.1120144
55	0x3c29ddd8	0.010367833
56	0x3ec2f4ed	0.3807749
57	0x3d51b950	0.05120212
58	0xbd290bbb	-0.041270953
59	0x402586a8	2.5863438
60	0x3f10a3c1	0.5649987
61	0x3f39cc3c	0.7257726
62	0xbe9adf3a	-0.30248433
63	0xbf891775	-1.0710284
64	0xbfa75adf	-1.3074607
65	0x3e7578b2	0.23971823
66	0x3e0d0b17	0.13773762
67	0x40313c99	2.7693236
68	0x40428231	3.0391963
69	0xbf875c42	-1.057503
70	0x3ee0abfe	0.4388122
71	0x3fc5abc1	1.544304
72	0x3fa39505	1.2779852
73	0x3d808b96	0.06276624
74	0x3f902947	1.1262597
75	0x3f7c85c0	0.98641586
76	0x3f02b969	0.51064163
77	0x3f5b8f13	0.8576519
78	0xbf9bc535	-1.2169558
79	0xbe13868b	-0.14406793
80	0xbfc141a8	-1.5098162
81	0xc020e1ce	-2.513782
82	0xbc9b79f1	-0.018979045
83	0x3e7c09ec	0.2461316
84	0x3ecc6598	0.3992126
85	0x40a482b2	5.140954
86	0x40429e97	3.0409296
87	0x3f847dc7	1.0350884
88	0x3ed91818	0.42401195
89	0x3b311b09	0.002702417
90	0x3f6612b5	0.89872295
91	0x3ef734a8	0.4828236
92	0xbf33ef07	-0.702866
93	0x4083f67a	4.1238375
94	0x3ec34df3	0.38145408
95	0x3f9b5703	1.2135929
96	0x3f4cf31b	0.8005845
97	0x3f40e2c5	0.7534602
98	0xbd32323b	-0.043504935
99	0xbd9b9005	-0.07595829
100	0x3f073ab6	0.5282396
101	0x3f689aba	0.90861094
102	0xbf96b218	-1.17731
103	0x40898039	4.296902
104	0xbf2c3aed	-0.67277414
105	0xbf5fd0f2	-0.874282
106	0xbfd78a58	-1.6839094
107	0x3f42e8d7	0.76136535
108	0xbf39ee40	-0.72629166
109	0xbd5042c5	-0.050844926
110	0xbf35731e	-0.7087878
111	0xbf06a370	-0.52593136
112	0xbf03c243	-0.51468295
113	0xbcef0bb7	-0.02918039
114	0xbd58603a	-0.052826144
115	0xbe5a0db8	-0.21294296
116	0xbe9a6100	-0.3015213
117	0xbfcb06b3	-1.586142
118	0x3fdee845	1.7414633
119	0x3f683e1b	0.90719765
120	0x3f2bd08b	0.67115086
121	0xc0008441	-2.0080721
122	0xbdcfff45	-0.10156111
123	0x3f96b352	1.1773474
124	0x3e486c9b	0.1957268
125	0x3eed1af6	0.46309632
126	0xbec27f4e	-0.3798775
127	0x3fb1b6de	1.3883932
128	0x3e6fd5f8	0.23421466
129	0x3ed0751f	0.40714356
130	0xc00670bc	-2.1006308
131	0x3fa87b50	1.3162632
132	0x3f19102b	0.59790295
133	0x3f97bf78	1.1855307
134	0x404ccdec	3.2000685
135	0xbf8cf2a8	-1.1011553
136	0x3eb74ecb	0.35802302
137	0x3ee0d8f5	0.43915525
138	0x3e45fd30	0.19334865
139	0xbf0db9d0	-0.5536165
140	0x3dcfe2b6	0.101506636
141	0xbeb8fc80	-0.36130142
142	0xbeb04670	-0.3442874
143	0xbe30d77e	-0.17269704
144	0x3f87fa06	1.0623176
145	0x403667d2	2.8500867
146	0x3f025be7	0.5092148
147	0xbfb210d8	-1.391139
148	0x3fdfcc90	1.7484303
149	0x3e05e18e	0.13074324
150	0x3f6e5c8d	0.9310997
151	0xbf097f7d	-0.53710157
152	0xbea789e6	-0.32722396
153	0x3f492ee4	0.78587174
154	0x3eff1569	0.49821022
155	0x3f69b226	0.9128746
156	0x3f990c4e	1.195688
157	0x3f855eca	1.0419552
158	0xbf286a22	-0.65786946
159	0xbf160b29	-0.5861078
160	0x3f955fb6	1.1669834
161	0xbe517318	-0.20454061
162	0xbfa4a1b6	-1.286185
163	0x3ea7b2ac	0.32753503
164	0x3f87b002	1.0600588
165	0xbed8c028	-0.42334104
166	0x3e35258d	0.17690106
167	0x3ed04927	0.4068081
168	0x3fd5b9c9	1.6697322
169	0x3f61a94e	0.88148963
170	0x3ff8cea5	1.9438063
171	0x3f6f0c58	0.9337821
172	0x3ec3e66d	0.38261738
173	0x3fbc6812	1.471926
174	0xbf1b452f	-0.6065244
175	0x3f9f4b59	1.2444869
176	0xbe76c8a7	-0.2409998
177	0x3fd04c47	1.6273278
178	0x3f0c1e88	0.54734087
179	0x3f4ba2d8	0.79545355
180	0xbe210908	-0.15726101
181	0x3d88a102	0.06671335
182	0x3f50fd16	0.8163618
183	0x3f0523d0	0.5200777
184	0x3fe435b3	1.7828888
185	0xc06dbf53	-3.7148025
186	0xc0704a34	-3.754529
187	0x3ed89ffa	0.42309552
188	0xbfd1056d	-1.6329781
189	0x3f0932d4	0.5359318
190	0x3e8dda9f	0.27705857
191	0xbf693d0f	-0.91108793
192	0xc0a11d5b	-5.0348334
193	0xbe044d15	-0.1292003
194	0xbf7000e2	-0.9375135
195	0x3f777a55	0.9667104
196	0x3fa6b1c8	1.3023005
197	0x3f316364	0.69292283
198	0x3fb5add4	1.4193673
199	0x3f4da91a	0.80336154
200	0xbdd73ff0	-0.10510242
201	0xbf47ac1a	-0.7799698
202	0x3ee20286	0.4414255
203	0xbf8d656a	-1.1046574
204	0x3f73fab9	0.9530445
205	0x3f723b58	0.946218
206	0x3e4c1926	0.19931468
207	0x3e8aca95	0.27107683
208	0xbfd1bec1	-1.6386338
209	0xbe022599	-0.12709655
210	0xbe15d8aa	-0.14633432
211	0x3ed34292	0.41261727
212	0xbe35dea5	-0.17760713
213	0x3fa77eae	1.3085535
214	0x4007f2dc	2.124198
215	0xbe493c67	-0.19651948
216	0xbe0861da	-0.13318577
217	0xbf1e5cce	-0.6186036
218	0x3e850dd5	0.25987116
219	0xbda1847f	-0.078866
220	0xbdf8094c	-0.12111148
221	0xbe8d8ff7	-0.276489
222	0x405246ed	3.285579
223	0x404c2092	3.189488
224	0x3fec70fc	1.847198
225	0x3fcf0536	1.6173465
226	0x4012dce9	2.2947333
227	0x40143248	2.315569
228	0x3fdc3581	1.7203828
229	0x3f855ef5	1.0419604
230	0x3f0bd6ea	0.5462481
231	0x3fd37760	1.6520805
232	0x4000db0b	2.0133693
233	0xbdcb641e	-0.09931205
234	0x3f1ded82	0.61690533
235	0xbfa49f57	-1.2861127
236	0x3f1448fa	0.57923853
237	0xbf38cb2f	-0.72185034
238	0x3fbc126f	1.4693125
239	0x3d9777ad	0.07395873
240	0x3f6504ba	0.8946034
241	0x3ff02c27	1.8763474
242	0xc037ecc7	-2.8738267
243	0x3fc74a18	1.5569487
244	0xbbc3a40b	-0.005970483
245	0x4007a4ed	2.1194413
246	0x3faf709b	1.370624
247	0x3eeb0f2a	0.45910007
248	0x3f076874	0.5289376
249	0x3ebbbf17	0.36669227
250	0x3fe456f6	1.7839038
251	0x3ecc3f76	0.39892167
252	0xbf1e15be	-0.61751926
253	0x4025efb8	2.5927563
254	0x3e4bc786	0.19900331
255	0x3cd404ed	0.025881255

l1.bias f4 [8]
0	0x3f3c103c	0.7346227
1	0x3ebb0a03	0.36531076
2	0x3f92e363	1.1475643
3	0x3f68a21c	0.9087236
4	0x3f54fcce	0.8319825
5	0x3f003fd9	0.50097424
6	0x3f580286	0.8437885
7	0x3ef2ad7d	0.47397986

l2.weight f4 [8, 8]
0	0xc004450a	-2.0667138
1	0x3f0b896e	0.54506576
2	0x3e116ef0	0.14202476
3	0xbeae1c6e	-0.34006065
4	0x3f4a1afc	0.78947425
5	0x3db9b930	0.09068525
6	0x4040e491	3.0139506
7	0x3fd8ab8b	1.6927351
8	0x40483a20	3.1285477
9	0xbf51cfaa	-0.81957495
10	0x3f861581	1.0475312
11	0xbf831937	-1.024207
12	0x3fa2a52f	1.270666
13	0xbf26d7d8	-0.651731
14	0x3f406ed7	0.7516913
15	0xbe574a35	-0.21024401
16	0x3fc3b730	1.5290279
17	0x40064a27	2.098276
18	0xbf9f5b61	-1.2449762
19	0x3fe6529a	1.7993958
20	0x3fc1de19	1.5145904
21	0x404425ba	3.0648026
22	0xbebe32f8	-0.3714826
23	0xbd9832a3	-0.07431533
24	0x3f7f1e74	0.9965584
25	0xbc14a925	-0.00907353
26	0x3f3608f2	0.711074
27	0xbe7b4b30	-0.245404
28	0xbe7198e5	-0.23593481
29	0xbfdc41c8	-1.7207575
30	0x3e7155f1	0.2356794
31	0x3fef0858	1.8674421
32	0xbd5a0e14	-0.053236082
33	0xc0114d76	-2.2703528
34	0x3f3654a6	0.71222913
35	0x4048011e	3.1250682
36	0x3f24c981	0.6436997
37	0x3ebe08ce	0.37116092
38	0xbd6608ab	-0.05616061
39	0x3e722e6c	0.23650521
40	0x3fafdd2c	1.3739371
41	0x3f9f338e	1.2437608
42	0x3fd856e5	1.6901518
43	0xbf1ed0f5	-0.62037593
44	0xbfe6cc99	-1.8031188
45	0x3f3662e7	0.71244663
46	0xbfda156e	-1.703779
47	0x3f913c6f	1.1346568
48	0xbe666423	-0.22499137
49	0xbe2d003e	-0.16894624
50	0xbe6d2cff	-0.23161696
51	0xbe768ecc	-0.2407791
52	0x3e57f13c	0.21088117
53	0xbe9705f4	-0.2949673
54	0xbdf3a462	-0.11896588
55	0x3bc696e4	0.006060468
56	0x3f47fdac	0.7812145
57	0xbdde80ea	-0.10864432
58	0xbe015c02	-0.12632754
59	0xbea3ca38	-0.31990218
60	0x3fefd731	1.8737546
61	0x3f43692f	0.7633237
62	0x3fb56693	1.4171928
63	0xbf2375a3	-0.63851374

l2.bias f4 [8]
0	0x3e1961b3	0.14978676
1	0xbe1e0a8e	-0.15433714
2	0xbf73318b	-0.9499747
3	0x3e79ee9c	0.24407429
4	0x3fa3a5c8	1.2784967
5	0x3ee3d762	0.44500262
6	0xbe996f8b	-0.29967913
7	0x3f488031	0.78320605

l3.weight f4 [137, 8]
0	0xbfc44515	-1.5333582
1	0xbededf78	-0.43529868
2	0x3e59c72f	0.21267389
3	0x3ed72904	0.4202348
4	0x3d4fdb3e	0.050746195
5	0xc0803919	-4.00697
6	0x3eaf5072	0.34241062
7	0xbf49ad42	-0.78779995
8	0x3e6a450f	0.22877906
9	0xbffd54dc	-1.9791522
10	0xbf09a93f	-0.53773874
11	0x3f112968	0.56703806
12	0xbf237f52	-0.6386615
13	0xbf213680	-0.62973785
14	0xbe5efc70	-0.21775985
15	0xbfac9617	-1.3483304
16	0xc009fb69	-2.1559699
17	0xbee02cb1	-0.43784097
18	0xbe38d90f	-0.18051551
19	0x3f12026a	0.57034934
20	0xc007ebbc	-2.123763
21	0xbf001c01	-0.5004273
22	0xbd2cb259	-0.042162273
23	0xbead7734	-0.33880007
24	0xc00ec085	-2.2305005
25	0xc056a84e	-3.3540225
26	0x3ed98685	0.42485443
27	0x3f5131d2	0.81716645
28	0xbe744c7f	-0.23857306
29	0xbfaaa558	-1.3331709
30	0x3e79a691	0.24379946
31	0xbf5a06a3	-0.85166377
32	0xc0938f8b	-4.6112723
33	0xbed95b3c	-0.4245242
34	0x3ef92154	0.4865824
35	0xbf10cbc2	-0.5656091
36	0xbf8d1cf2	-1.1024458
37	0xbfab8315	-1.3399378
38	0x3e49309a	0.19647446
39	0x3e3af6bb	0.18258183
40	0xbf269804	-0.6507571
41	0xbeff8e88	-0.4991343
42	0x3ee531e4	0.44764626
43	0xbf5760f3	-0.8413231
44	0xbf4d29fd	-0.80142194
45	0xc0260504	-2.5940561
46	0x3e31ff96	0.17382655
47	0x3d0a19d8	0.033716053
48	0xbf43c2c1	-0.76469046
49	0xc02e9de3	-2.7283866
50	0x3ef3ab6d	0.47591725
51	0xbf327e0b	-0.69723576
52	0xbe5b159b	-0.2139496
53	0xbfc54123	-1.5410503
54	0xbe683929	-0.22678055
55	0xbf0a1f3b	-0.53953904
56	0xbe1864fb	-0.14882271
57	0xbea1d70c	-0.3160938
58	0xbe1ff2a4	-0.15619904
59	0x3ec51446	0.3849203
60	0xbefc2fcf	-0.49255225
61	0xc076daf0	-3.857113
62	0xbd925634	-0.07145348
63	0x3d6a17af	0.057151493
64	0xbe3ab090	-0.18231416
65	0xc0128262	-2.289208
66	0x3ec2092d	0.37897626
67	0x3f05e7e1	0.52306944
68	0xbfa9df27	-1.3271226
69	0xbfc8a86a	-1.5676396
70	0x3e8d23cf	0.27566382
71	0xbee69bc8	-0.45040727
72	0xbf95d4f8	-1.1705618
73	0xbf895edd	-1.0732075
74	0xbf463ffb	-0.77441376
75	0x3f8cb56d	1.0992867
76	0x3e2cc896	0.16873392
77	0xbf87c1e4	-1.0606046
78	0x3e963f1a	0.29345018
79	0xc044a984	-3.0728464
80	0xc0705983	-3.7554634
81	0x3e1650ef	0.14679311
82	0xbe40b507	-0.18819056
83	0x3e97b15b	0.296275
84	0x3e0a5621	0.13509418
85	0xc033dde4	-2.8104181
86	0xbdbe0ecf	-0.09280168
87	0xbf2703e8	-0.65240335
88	0xbfd8335e	-1.6890676
89	0xbec0d635	-0.37663427
90	0xbf6b8d14	-0.92012143
91	0x3f47522a	0.7785975
92	0xbd4def65	-0.050277133
93	0xbf44edaa	-0.76925147
94	0x3e8c134e	0.27358478
95	0xbf904c3c	-1.1273265
96	0xc0a61c66	-5.1909666
97	0xbf038b3e	-0.5138434
98	0xbe887a6a	-0.26655895
99	0x3e8ae8b3	0.2713066
100	0xbedd581c	-0.43231285
101	0xbed99062	-0.42492968
102	0xbd0999ef	-0.03359407
103	0xbf6a7735	-0.91588145
104	0xbe3e652d	-0.18593283
105	0xbecba9a2	-0.39777857
106	0xbf5a975a	-0.85387194
107	0x3d3e9bf1	0.046535436
108	0x3dcee336	0.10101931
109	0xbf6e564a	-0.93100417
110	0xbcf27d8e	-0.029600885
111	0xbf4cfb97	-0.80071396
112	0xbf08146a	-0.5315615
113	0xbf9ecc43	-1.2406086
114	0xbd69ab0c	-0.05704789
115	0x3d6acad1	0.057322327
116	0xbe9975de	-0.29972738
117	0xbfc85e7a	-1.5653832
118	0x3e665c1d	0.22496076
119	0xbe729a6f	-0.23691724
120	0xbe038e25	-0.12847193
121	0xc006da1f	-2.107063
122	0xbebf4ef3	-0.3736492
123	0x3f02ad8d	0.5104607
124	0xbc8383f2	-0.016054127
125	0xbfad7acf	-1.3553103
126	0x3caa7bea	0.02081104
127	0xbfb363af	-1.4014796
128	0xbf69e767	-0.91368717
129	0x3e1d4c33	0.15361099
130	0xbe3e1ca6	-0.18565616
131	0xbe0b10d8	-0.13580644
132	0xbe222f97	-0.15838467
133	0xc0cffcf3	-6.4996276
134	0x3e6e5061	0.2327285
135	0x3dfaa153	0.122378014
136	0xbed4ef5b	-0.41588864
137	0xc01f65a4	-2.4905787
138	0x3f7bb8ca	0.9832884
139	0xc031a7ea	-2.7758737
140	0xbf838061	-1.0273553
141	0xc047fe0c	-3.1248808
142	0xbdb8e46c	-0.09027943
143	0xbe99a149	-0.30005863
144	0xbf1347bc	-0.5753133
145	0xbf3f2962	-0.7467252
146	0x3e8239cf	0.2543473
147	0xbf82b718	-1.0212126
148	0xbd01b194	-0.031663492
149	0xc0f78fdc	-7.736311
150	0x3e6f079e	0.2334275
151	0x3e13c91a	0.14432183
152	0xbf0bd61f	-0.546236
153	0xbf874be4	-1.0570035
154	0xbea99145	-0.33118644
155	0x3f40dfa8	0.7534127
156	0x3ecca25b	0.39967617
157	0xc0e603b8	-7.187954
158	0xbe32ad97	-0.17449032
159	0xbf1dee23	-0.6169149
160	0x3e60eb2f	0.21964715
161	0xbea668bf	-0.3250179
162	0xbfa28fce	-1.2700136
163	0x3ee06cfd	0.4383315
164	0xc0d7875e	-6.7352743
165	0x3df5727f	0.11984729
166	0x3e30d792	0.17269734
167	0xbfd2bd4b	-1.6464018
168	0xbebc4c24	-0.3677684
169	0xc111a180	-9.101929
170	0xbf6d62ce	-0.9272889
171	0xbd834ff7	-0.064117365
172	0x3eba03a2	0.36330897
173	0x3e0398cf	0.1285126
174	0x3e8db7d9	0.27679327
175	0xc0a9c75b	-5.3055854
176	0xbd2973de	-0.041370265
177	0xc09c4d5c	-4.8844433
178	0x3d4e2dff	0.050336834
179	0xc0334bb2	-2.801495
180	0xc06778d3	-3.6167495
181	0xbea3f93a	-0.32026082
182	0xbde1dc68	-0.11028367
183	0x3eb7f564	0.35929406
184	0xbf5add04	-0.85493493
185	0xbf7cc45a	-0.9873711
186	0xbc83f5a0	-0.016108334
187	0xbfc62ad1	-1.5481817
188	0x3e861132	0.26184994
189	0xbfb5263b	-1.4152292
190	0xbe412167	-0.18860398
191	0x3e638bc9	0.22221293
192	0xc087ff2c	-4.249899
193	0xbda1c125	-0.078981675
194	0xbe0102db	-0.12598746
195	0xbe66a51d	-0.22523923
196	0xbeb1c3da	-0.34719735
197	0xc02552c1	-2.583176
198	0x3e9038d2	0.2816835
199	0x3f2de665	0.6792968
200	0xbdcc5f8a	-0.0997916
201	0x3e631105	0.22174461
202	0xbfb9c4ee	-1.4513223
203	0x3f082cee	0.5319356
204	0xc0421ff7	-3.033201
205	0xbf1f5f29	-0.6225458
206	0x3e728b99	0.23686065
207	0x3d529264	0.05140914
208	0xc074740f	-3.8195837
209	0x3e5136f9	0.20431127
210	0xbf0147dd	-0.5050028
211	0xbdc9d417	-0.09854906
212	0xc0b71514	-5.721323
213	0xbed91b3b	-0.42403588
214	0xbdeae0a5	-0.11468629
215	0x3f05e22c	0.52298236
216	0xc0b50c83	-5.6577773
217	0x3cbb755d	0.022883112
218	0xbd45bc6d	-0.0482754
219	0xbf03e41e	-0.51519954
220	0xbfbf5b05	-1.4949652
221	0xbf1c6e79	-0.6110607
222	0xbeaad83c	-0.333681
223	0x3dcd2abf	0.10017919
224	0xc089b7a8	-4.303669
225	0x3ef5f1eb	0.4803613
226	0xbc215440	-0.009846747
227	0xbfa0fe5b	-1.2577623
228	0xc0648a84	-3.5709543
229	0xbfbcba8d	-1.4744431
230	0xbe2aa66b	-0.16665046
231	0x3f38c900	0.721817
232	0xbf4cbbcd	-0.7997406
233	0x3e1ece3f	0.15508364
234	0xbd6ef4a3	-0.058338773
235	0xbf5f21ab	-0.8716075
236	0xc04809db	-3.1256015
237	0xc019ef9d	-2.4052498
238	0x3dd5bb86	0.10436158
239	0x3f252f08	0.6452489
240	0xbfd588f4	-1.668242
241	0xbdbba150	-0.09161627
242	0xbe4f447b	-0.20240967
243	0xbf6ddca5	-0.929148
244	0xbf8a7b4c	-1.0818877
245	0xbf8ed99d	-1.116016
246	0x3cdd6bd5	0.027028957
247	0x3f4f9eaf	0.81101507
248	0xbec678c7	-0.3876402
249	0x3f129cdb	0.5727059
250	0xbf59f52a	-0.85139716
251	0xbe144232	-0.14478377
252	0xc08f0e14	-4.4704685
253	0xc002d5e5	-2.044305
254	0xbd91d579	-0.07120795
255	0x3f064920	0.5245533

l3.bias f4 [137]
0	0xc0390b22	-2.8913045
1	0xc0632cd0	-3.5496101
2	0xc04f1762	-3.2358022
3	0xc0a8a303	-5.269899
4	0xc060a69c	-3.510169
5	0xc054d313	-3.325383
6	0xc0a01c61	-5.003464
7	0xc075e778	-3.8422527
8	0xc07f1e5e	-3.9862285
9	0xc042adc9	-3.041857
10	0xc04f5940	-3.2398224
11	0xc0385c6c	-2.880641
12	0xc019b307	-2.401552
13	0xc0234b9f	-2.5514905
14	0xc02d1117	-2.704168
15	0xc02a78ea	-2.66363
16	0xc0182fc8	-2.3779163
17	0xc066212e	-3.5957751
18	0xbff88f0e	-1.9418657
19	0xbfff3182	-1.9936984
20	0x3f0dba28	0.55362177
21	0x3f1f43bd	0.62212735
22	0x3e8306f0	0.2559123
23	0x3e060298	0.13086927
24	0x3e723de4	0.23656422
25	0xc04569fe	-3.0845942
26	0xbebcfc43	-0.3691121
27	0x3e372daf	0.1788852
28	0xbde4110b	-0.11136063
29	0xbf64a01f	-0.89306825
30	0xbf888dc8	-1.0668268
31	0xc00150c5	-2.0205548
32	0xbf87acc3	-1.0599598
33	0xbf83cf5d	-1.0297657
34	0xbf351d5f	-0.7074794
35	0xbfd84b22	-1.6897929
36	0xbf9e8992	-1.2385733
37	0xbf87ba80	-1.060379
38	0xbe0955bc	-0.13411611
39	0xbec55198	-0.38538814
40	0xbf965a33	-1.1746277
41	0xbeb0675d	-0.3445386
42	0x3e9fa43b	0.31179985
43	0xbef8a084	-0.48559964
44	0x3e0c515b	0.1370291
45	0x3ee08e4b	0.4385856
46	0x3ee5c975	0.44880262
47	0x3e8e7ff0	0.27831984
48	0x3eb235aa	0.34806567
49	0x3eafde18	0.34349132
50	0xbde6a576	-0.11262028
51	0xb96f5451	-0.00022824226
52	0x3ecdfc4a	0.40231544
53	0x3e8587e8	0.2608025
54	0x3ec3f1de	0.38270468
55	0x3ea1fecc	0.31639707
56	0xc0069d7f	-2.1033628
57	0xc0b25f00	-5.5740967
58	0xbf7113b6	-0.941707
59	0xc06b4489	-3.676058
60	0xc083d88a	-4.120183
61	0xc0509fc5	-3.2597516
62	0xc03b42e8	-2.9259586
63	0xc034201b	-2.8144596
64	0xc0224992	-2.5357404
65	0xc0594b25	-3.3952115
66	0xc087d063	-4.244188
67	0xc08466ea	-4.1375628
68	0xc08274d9	-4.0767636
69	0xc0569c51	-3.3532908
70	0xc0152345	-2.3302777
71	0xc0477088	-3.1162434
72	0xc0726b6d	-3.7878067
73	0x3f1e7404	0.61895776
74	0xbfcedf1d	-1.6161839
75	0xc0871f48	-4.2225685
76	0xc08d3663	-4.412889
77	0xc073b398	-3.8078365
78	0xc05357a4	-3.3022242
79	0xc013a80e	-2.3071322
80	0xc07062af	-3.7560232
81	0xc036a7c3	-2.8539894
82	0xc06a9ccd	-3.6658204
83	0xc03d7d02	-2.9607549
84	0xc015a65c	-2.3382788
85	0xc01b96f6	-2.431089
86	0xbf9d2d53	-1.2279457
87	0xc001f506	-2.03058
88	0xbfc09b46	-1.5047386
89	0xc01cc638	-2.4495983
90	0xbff5fd28	-1.9217882
91	0xc088e3de	-4.277816
92	0xc032a69d	-2.7914193
93	0xbf157726	-0.5838493
94	0xbf88a4bb	-1.0675272
95	0xc08cfbcf	-4.4057384
96	0xc092f295	-4.592112
97	0xc0493c8e	-3.144321
98	0xc038d97d	-2.8882744
99	0xbfb72157	-1.430705
100	0xc033aa6c	-2.8072767
101	0xc0695b7d	-3.646209
102	0xc0831a11	-4.096932
103	0xc040a588	-3.0101032
104	0xc01408bd	-2.3130333
105	0xc07079f7	-3.7574441
106	0xc03f7b55	-2.9919026
107	0xc0884e89	-4.259587
108	0xc0861dd7	-4.1911426
109	0xc02b2d34	-2.674634
110	0xc01bffe8	-2.4374943
111	0x3dade177	0.0849027
112	0xbf380549	-0.71883065
113	0xc01822d1	-2.377125
114	0x3f06bc0e	0.526307
115	0x3e954958	0.2915752
116	0x3e7609da	0.24027196
117	0x3e70579e	0.23470923
118	0xbfb9d05a	-1.4516709
119	0xbf2110e6	-0.6291641
120	0x3f293807	0.66101116
121	0x3e2db05a	0.16961804
122	0xbcdcaf44	-0.026939042
123	0x3e2fc0b9	0.17163362
124	0xbcceb9f8	-0.025235161
125	0xbd063e3d	-0.0327742
126	0x3ced231a	0.028947402
127	0xbdb202c2	-0.08691932
128	0x3e412a4d	0.18863793
129	0xbda7caf5	-0.08193008
130	0xbe6af99c	-0.22946781
131	0x3de35e99	0.111020274
132	0x3eb9b5d2	0.3627153
133	0xc0727a9c	-3.7887335
134	0x3dd123f8	0.102119386
135	0xbfabb9c1	-1.3416063
136	0x3d6992d8	0.057024807
