data.pth (torch, 19818 bytes, 6 tensors)

l1.weight f4 [8, 111]
000000 ba c2 19 40 d5 d7 1c 40 65 c7 89 be 12 54 69 be
       2.4025102 2.4506733 -0.26909938 -0.22785977
000010 10 68 c5 3f d9 20 c2 3f a1 56 62 c0 ef f7 b4 3f
       1.5422382 1.5166274 -3.5365374 1.4138163
000020 57 9d 30 3f bc 73 63 40 3a d4 33 c0 ee e2 59 be
       0.6899008 3.5539389 -2.8098283 -0.21277973
000030 7f 4a 1e 3f 19 9c ae bf a8 39 29 3f f2 15 8c bf
       0.6183242 -1.3641387 0.661036 -1.0944197
000040 f8 a1 c8 3f a4 c2 b2 bf 0f 07 a3 3e 78 7b 3f c0
       1.5674429 -1.396565 0.31841323 -2.991911
000050 a1 d7 4e c0 a6 cf 6e 40 d6 e6 bd 3f bb 99 47 40
       -3.231911 3.7314239 1.483607 3.118758
000060 10 2b 3b 3f 54 79 1e 3f 43 75 66 3f 11 67 8f 3e
       0.73112583 0.6190388 0.9002268 0.2800832
000070 50 4f b2 3e ff 39 8d 3f b7 b2 85 bf cf cc a2 3f
       0.34826136 1.1033324 -1.0445164 1.2718753
000080 3a 84 c6 be 0b 1f 57 3f 64 dd 20 40 53 b5 c4 3d
       -0.38772756 0.8403174 2.5135126 0.09604897
000090 81 2c 3c 3f f1 ee bb 3f 57 63 8a 3f 98 72 b0 3e
       0.7350541 1.4682294 1.0811566 0.34462428
0000a0 da 7d f5 3d 38 89 fe 3f aa 6a 19 3f 16 54 55 3d
       0.11986895 1.9885626 0.5992838 0.052082144
0000b0 31 bc 87 3f ff 4c 70 3f 9d da 50 3f df 39 21 3f
       1.0604306 0.93867487 0.8158358 0.6297893
0000c0 76 61 0d 3f ef b5 45 3f de 42 17 3f 01 92 1a 3f
       0.5522684 0.77230734 0.59086406 0.60379034
0000d0 d4 71 81 be 96 28 37 3f 50 81 f5 3f c2 e4 65 3c
       -0.25282156 0.71546304 1.9180088 0.014031591
0000e0 3c da ca 3e bf b0 a6 3f 18 22 3a 3f ae ba 09 c0
       0.39619625 1.3022689 0.7270827 -2.152019
0000f0 29 1f 79 bd 94 19 1b 3f 18 67 10 c0 1e cb 2f 3f
       -0.060820732 0.60585904 -2.2562923 0.6866931
000100 58 c4 15 3f 4f 6d 95 3d ad 63 b2 3f c9 1c 3f 3f
       0.5850272 0.072962396 1.3936669 0.746533
000110 54 90 66 3f 8c 76 6d be 34 de ab bd a3 3e 91 3f
       0.9006398 -0.23189753 -0.08391991 1.134724
000120 82 8c 97 bd fd 1d a4 3f 11 d2 9c 3e 59 13 c3 3e
       -0.073998466 1.2821652 0.30629018 0.381007
000130 16 94 50 3e 26 8f f5 3e 59 b5 48 bf b7 9b 1f bf
       0.2036899 0.47960776 -0.78401715 -0.62346977
000140 55 6b 55 c0 1d 80 c7 c0 c4 78 d5 3e c2 d2 33 3f
       -3.334676 -6.234389 0.416937 0.70243466
000150 4d 98 19 3f c4 78 be 3f 56 1d 62 3f f9 cb 82 3f
       0.5999802 1.4880605 0.88326013 1.0218498
000160 ee b9 15 3e a0 23 e4 3e 02 8b 03 3f 15 c7 b0 3d
       0.14621708 0.4455843 0.51383984 0.08631722
000170 45 b3 65 bf 8f fe 5f 3f 9c 20 08 3f 96 f0 bd bf
       -0.8972667 0.874978 0.5317476 -1.4839046
000180 36 c6 b0 bf 18 da f2 3e 26 98 f2 3e 9a 8e 18 3f
       -1.3810489 0.47432017 0.47381705 0.5959259
000190 4e 4e 23 3e e3 f2 ae 3f 5d 23 46 c0 c9 8c 39 40
       0.1594784 1.3667873 -3.0959084 2.8992178
0001a0 43 0d 68 3c a1 9f 96 be 51 b8 6f 3f 44 59 a4 bf
       0.014163318 -0.29418662 0.9364062 -1.2839742
0001b0 b7 cb c8 be 8a 58 11 3f e9 fa b4 be 3e 23 f1 be
       -0.39217922 0.56775725 -0.3534768 -0.470972
0001c0 69 57 f3 be 54 ee 4b bd 6f e2 b7 bb 62 5d 74 be
       -0.47527626 -0.049787834 -0.00561171 -0.23863748
0001d0 6c 3e 69 be 73 bf a9 40 b4 58 85 3f 21 00 0b 3f
       -0.22777718 5.3046203 1.0417695 0.5429707
0001e0 bf 0e 41 40 b9 79 42 40 b6 85 53 be 54 bc 99 3f
       3.016525 3.0386794 -0.20656475 1.2010598
0001f0 8d 6a 29 bf 9b 7a 72 3f 61 ac 30 3f 0d ec 25 40
       -0.6617821 0.9471833 0.6901303 2.5925324
000200 85 38 c9 3e 84 3b ab 3e 1f e3 37 40 7d cb 7c bd
       0.39300933 0.33443844 2.8732374 -0.0617175
000210 4f a5 46 40 9b f2 e5 3e 7b 88 01 40 9b 5b ef 3f
       3.1038396 0.44911656 2.023955 1.8699831
000220 f4 8d dd 3f 13 94 68 3f 0d 72 ec 3f 46 a9 31 bf
       1.7308946 0.90850943 1.8472306 -0.69398916
000230 38 27 2a bf a0 70 ef 3e 64 a2 7a be 17 86 94 bf
       -0.66466093 0.46765614 -0.2447601 -1.1603421
000240 23 14 15 3f ed d6 5f 40 92 e9 10 be 77 db 02 40
       0.5823385 3.497493 -0.141516 2.044645
000250 ee c3 c7 3f 96 8c 46 bf db e6 82 3d ec e8 d3 3e
       1.5606668 -0.7755827 0.063916884 0.41388643
000260 f3 da 84 3e 2b b0 b9 3f d2 0a 15 3f 0e 23 a6 3e
       0.25948295 1.4506887 0.58219635 0.3244862
000270 e0 43 d7 3f f6 d6 fc 3e 55 01 af bc 6c ce cf bf
       1.6817589 0.49382752 -0.02136294 -1.623487
000280 5e 43 8f 3f 87 a8 f5 bd 48 5a f7 3f 73 54 d9 3e
       1.1192434 -0.11995035 1.9324427 0.42447242
000290 14 87 44 3f 53 92 97 3e 1c 37 ea be c3 00 cf 3f
       0.7676861 0.29603824 -0.4574517 1.6172107
0002a0 80 70 87 3f aa 74 1f 3f cd fa 24 40 b6 84 20 3f
       1.0581207 0.6228739 2.5778077 0.627025
0002b0 b6 83 dd 3f da 70 c1 3f 06 be ba bf f1 bb 5d 3f
       1.730582 1.5112565 -1.458924 0.866149
0002c0 ac d2 85 bf bc 42 84 3f b7 66 55 3f 44 81 b1 3f
       -1.0454917 1.0332866 0.83359855 1.3867574
0002d0 76 aa 2c be f8 9a c0 3e f7 64 b6 be 43 77 08 3f
       -0.168619 0.37618232 -0.35623905 0.5330698
0002e0 64 cc 85 3f 2a 13 35 3d 46 ef 42 bd 30 3b 37 3f
       1.0453 0.04420773 -0.04759147 0.7157469
0002f0 2f d9 b5 bf 5d 35 8a bf b9 c6 0f bf 26 79 44 c0
       -1.4206904 -1.0797535 -0.561626 -3.0698943
000300 99 4f 7e be 1c a6 be bd 35 97 ef 3f 97 69 08 3f
       -0.24835052 -0.093090266 1.871802 0.5328612
000310 e1 05 2c 40 12 5f b5 3f 89 9e d8 3e b9 a0 43 3f
       2.6878588 1.4169638 0.42308453 0.7641712
000320 f9 1b 07 be 71 e4 af bf a6 f4 19 3f 92 75 ca be
       -0.13194264 -1.374159 0.6013893 -0.39542824
000330 9b 7a d2 3f 3a b8 23 3f fb 80 ba 3e 3a c6 65 3f
       1.6443666 0.6395298 0.3642653 0.89755595
000340 73 7a bf bf 84 08 f2 bd 8c 07 22 be 06 0f 1f 3f
       -1.4959244 -0.118180305 -0.15823191 0.621323
000350 fe 77 4c be 58 7c 91 bd cd b6 09 40 f6 45 3a 3f
       -0.19967648 -0.07103795 2.1517823 0.72763
000360 24 5c 35 bf 0d c8 2f 3d ce 0f 6d 3f a0 b6 5b bf
       -0.7084372 0.042915393 0.9260224 -0.8582554
000370 73 70 65 be f8 fd 3c bf 28 d5 d4 40 54 dd d4 40
       -0.22406177 -0.73825026 6.65102 6.6520176
000380 11 03 0b 40 b9 1d 07 40 89 bf 5c 40 ef bb 5d 40
       2.1720622 2.1111891 3.4491904 3.4645956
000390 27 b5 ab 40 47 35 1d 3f 53 57 aa 3e a4 97 be 3f
       5.3658633 0.6140942 0.33269748 1.4890027
0003a0 b3 e2 f8 40 77 df 03 bf fa dd 3c 3e 64 c2 e4 3f
       7.7776732 -0.51512855 0.18444052 1.7871823
0003b0 0c 0d 94 3f 22 b9 be 3f 63 91 2d 40 70 00 08 40
       1.1566482 1.4900248 2.7119987 2.1250267
0003c0 6d 75 80 be dd 9d f7 40 ec 97 6c 3e 66 ab c9 3f
       -0.2508959 7.7380204 0.23104829 1.5755432
0003d0 a1 11 1c 40 2c 3a e5 3f b3 20 0b 40 f1 f6 ca 3e
       2.438576 1.7908378 2.1738708 0.39641526
0003e0 05 1d a1 3f 4b 6c ea 3e a1 70 1c 40 21 02 ab bd
       1.2586981 0.45785746 2.4443743 -0.083500154
0003f0 7b 94 ff 3f b6 84 64 40 ef 64 3d 3d 67 78 03 c0
       1.9967188 3.5706 0.046238836 -2.0542238

l1.bias f4 [8]
000000 9a 89 6f 3e 8c fe d1 3e 7f 1d 47 3f ff 4e ce 3e
       0.23392335 0.41014516 0.7777938 0.40294644
000010 e4 3a 84 3e c1 09 09 3c 64 f7 8f 3f 03 8b 9f 3e
       0.2582618 0.008364142 1.1247373 0.31160745

l2.weight f4 [8, 8]
000000 f8 62 89 3f b1 8b f7 be 72 70 a2 be da dd 8d 3f
       1.0733328 -0.48348764 -0.31726414 1.1083329
000010 f7 83 53 3e b3 15 e0 3f 55 36 9c bf 54 f0 23 3f
       0.2065581 1.7506622 -1.2204081 0.64038587
000020 d8 22 02 3f e3 5f 06 40 f9 fc 04 40 6c af ab bf
       0.5083442 2.0996025 2.0779402 -1.341291
000030 92 87 16 3f b9 de 46 3e d0 67 59 bf 48 50 18 bf
       0.58800614 0.194209 -0.8492403 -0.594975
000040 a8 b2 81 bf 33 e4 ba 3f 74 25 77 3f 88 6e 3d 3f
       -1.0132647 1.4600891 0.96541524 0.7399678
000050 a1 44 87 be 13 11 69 bf c4 c3 37 40 5c f0 0d bf
       -0.26419547 -0.9104168 2.8713236 -0.55444884
000060 a4 c0 fa bf b2 f8 d6 bf d0 de b5 3e 2d 1b 41 bf
       -1.9590039 -1.6794646 0.35521555 -0.7543209
000070 21 ef 6b 3f 63 aa 98 3f 59 9a f4 bd d9 84 de 3f
       0.92161757 1.1926998 -0.11943502 1.7384292
000080 ab 6e 4c bf ba 17 59 3f d5 c3 b8 3d de 46 a7 3f
       -0.79856366 0.8480183 0.09021727 1.3068502
000090 0a 4b b6 3f b6 a8 72 bd ce 78 1a bf 1b e8 56 bf
       1.424165 -0.059242927 -0.60340583 -0.83947915
0000a0 f0 9c 46 3f 1d 55 83 3f 0b 99 8f bf 7a 7b 12 3f
       0.7758322 1.026035 -1.121858 0.5721966
0000b0 db b8 9a 3f c7 e9 74 bf 06 6d 9a be cd a0 50 3f
       1.2087663 -0.95669216 -0.30161303 0.8149536
0000c0 8e 7b f3 3f f2 c9 82 bf bf 81 85 3f 38 b8 bf 3f
       1.9022081 -1.0217879 1.043022 1.4978094
0000d0 0f 9d cc bf ce 63 25 3f 27 87 01 3f 95 6b 26 bf
       -1.598543 0.64605415 0.5059685 -0.6500791
0000e0 c7 82 cb be 8e b0 38 be c4 1a 91 3e 28 3e ad 3e
       -0.39748213 -0.180361 0.28340733 0.33836484
0000f0 0e 6f 4d bf ca 3a c7 3e 63 db 29 3e 17 81 46 bd
       -0.8024758 0.3891204 0.16587596 -0.048462953

l2.bias f4 [8]
000000 df ef 42 bf 83 2e 6d 3f 7f cb 31 3f 72 1e 31 3f
       -0.76147264 0.92649096 0.69451135 0.6918708
000010 ab aa 50 bf 93 52 b5 be 85 ca 9b 3e 38 8e 13 bf
       -0.8151042 -0.35414562 0.30427948 -0.57638884

l3.weight f4 [137, 8]
000000 a0 df de bf 38 bf 1c bf 9a 5f 88 be 34 81 2d c0
       -1.7411995 -0.61229277 -0.26635438 -2.711011
000010 45 f8 94 3e f6 9d 57 c1 4f aa eb bb cb b1 25 40
       0.29095665 -13.476065 -0.007191933 2.5889766
000020 05 0c a9 bf 50 ba 16 be da ee 17 3f 9e 3c 0e c1
       -1.3206793 -0.1471951 0.59348834 -8.889799
000030 82 97 d7 c0 dc 37 77 bf 87 96 5f be a2 cb af c0
       -6.7372446 -0.9656961 -0.21834765 -5.4936075
000040 ee 20 d8 bf 1a bd a0 be cd d2 37 be 70 b5 27 c1
       -1.6885049 -0.31394273 -0.17951508 -10.481796
000050 65 f0 b7 3f 5e 01 3a c0 bf 74 bc be a9 82 8a 3f
       1.4370238 -2.9063334 -0.3680782 1.0821124
000060 39 08 a7 bf 57 83 c8 be 0e c7 aa 3e 61 09 30 c1
       -1.3049384 -0.39162704 0.33354992 -11.00229
000070 bd 93 f1 bf 26 cb cd c0 43 a1 c5 36 0f 88 f3 3f
       -1.8873211 -6.4310484 5.889831e-06 1.9025897
000080 9b 76 08 c0 0e ba 80 bd ab 3c d1 bb b9 74 28 c0
       -2.132239 -0.06285487 -0.006385406 -2.6321242
000090 c1 63 fc be dc 39 13 c0 b9 93 f2 bd 1c 7a 8f be
       -0.49294856 -2.3004065 -0.11844582 -0.2802285
0000a0 9b 3b bd bf 99 6a 7e bf a6 90 c6 3d 3e 15 44 c0
       -1.4783815 -0.99381405 0.09695558 -3.0637965
0000b0 41 22 f7 3d 05 dc 17 bf 25 27 f2 be 7b 5b bf c0
       0.1206708 -0.593201 -0.4729549 -5.979917
0000c0 21 b3 21 c0 be ec d9 bf e1 11 01 3e df 2b a2 c0
       -2.5265582 -1.7025373 0.12604477 -5.0678554
0000d0 a6 79 d4 3f 24 08 79 c0 f7 bd a2 3c 17 a4 dc 3e
       1.6599624 -3.8911219 0.019865973 0.4309394
0000e0 0b 6c 4b c0 5b 3e 10 c1 1e 91 4d 3f b2 b6 08 c1
       -3.1784694 -9.0152235 0.80299556 -8.544603
0000f0 36 e5 fc 3e 27 af 4c c0 0b 1e 10 3e a7 7f db 3f
       0.49393624 -3.1981905 0.1407396 1.7148331
000100 48 23 cc bf 87 c5 39 c0 88 1a 03 3f ef 52 fd c0
       -1.5948267 -2.902681 0.5121236 -7.9163737
000110 69 b6 78 3f 00 2f f3 be e4 05 3b bf 66 1c d9 c0
       0.97153336 -0.47496796 -0.73055863 -6.7847166
000120 27 83 85 bf a0 2f 41 c0 a6 f8 c1 be ea 9d 91 c0
       -1.043065 -3.0185318 -0.37885016 -4.5505266
000130 08 5c a8 c0 fe 37 2f c1 34 c4 8d 3f 60 59 74 40
       -5.2612343 -10.95117 1.1075501 3.817955
000140 b3 39 e3 bf 73 0c 2f c1 48 b6 c9 3e fa a0 19 c0
       -1.7751983 -10.940539 0.39396882 -2.4004502
000150 63 4e 40 c0 ce 15 04 c1 ec 15 96 3f 86 a8 ee 3f
       -3.0047843 -8.255323 1.172544 1.8645179
000160 6a 44 85 3e e9 71 13 c1 d2 4d 21 bd 39 36 b5 bf
       0.26028758 -9.21531 -0.039380856 -1.4157172
000170 ea e3 2c c1 15 dc 13 c1 48 76 8f 3f d2 bc 24 40
       -10.805643 -9.241231 1.1207972 2.5740247
000180 75 47 05 3f 55 32 d2 c0 5e c8 ec 3e d7 b9 34 bf
       0.5206216 -6.568644 0.46246618 -0.7059607
000190 01 05 72 c0 7b 7a b9 bf 50 52 7a bf 36 4c af c0
       -3.7815554 -1.4490503 -0.9778185 -5.478053
0001a0 1d b6 d4 be 18 5a 3d c1 82 31 7d be b1 e2 1b bf
       -0.4154519 -11.834496 -0.24725917 -0.6089278
0001b0 e3 26 d1 3e aa 51 32 c0 a8 8d 69 3e 4f 1b 82 c0
       0.4084998 -2.7862344 0.22807944 -4.0658336
0001c0 26 82 8c bf 34 e6 9f c0 8f 4b 5a 3d c7 53 3b c0
       -1.0977218 -4.996851 0.053294715 -2.9269884
0001d0 c4 f9 2e 3f d9 01 67 c0 e2 a1 61 3e 98 bc c9 bc
       0.6834986 -3.6094878 0.2203441 -0.024626061
0001e0 14 d6 26 bf 68 f3 03 c0 b0 e1 2a bd fa d0 09 c1
       -0.6517041 -2.0617313 -0.04171914 -8.61352
0001f0 58 39 8a 3d 76 a5 a4 c0 d4 42 24 3f ea e1 a4 bf
       0.06749219 -5.145198 0.6416447 -1.2881444
000200 fe 79 c7 bf 66 cf 8c be ca 06 54 bf cc 2e 6c c0
       -1.5584104 -0.27501982 -0.8282286 -3.6903563
000210 da 01 dd 3f fd e8 27 c1 90 89 01 bf 1a 53 5f 3f
       1.726619 -10.494382 -0.5060053 0.8723618
000220 ea b8 12 bf 20 a7 6d be b5 f6 ce 3d e2 41 75 be
       -0.57313406 -0.23208284 0.101056494 -0.23950914
000230 0b 33 e0 be a3 28 12 c1 c7 ce dd bf d0 dc 53 3f
       -0.43788943 -9.134921 -1.7328728 0.8275881
000240 91 78 d8 bf ed 4a 5d c1 49 a0 3c 3e f9 8e ba bf
       -1.6911794 -13.830792 0.18420519 -1.4574882
000250 71 0e f5 3f 29 02 89 bf fd 2e 39 bf 3b 0d 02 c1
       1.9145032 -1.0703784 -0.72337323 -8.12823
000260 a4 d7 11 c0 47 b6 47 c0 2c f6 50 bd 04 92 aa bf
       -2.2787867 -3.1205003 -0.051016018 -1.332581
000270 16 be bd 3f b5 d5 75 c1 fb 71 10 3e d5 c9 7d 3f
       1.4823635 -15.364675 0.1410598 0.99136096
000280 6e 70 79 be 22 fc 66 3e 19 8b 00 bf 0d 0f 32 c1
       -0.24359295 0.22557119 -0.50212246 -11.1286745
000290 f5 b0 9e 3d aa 19 6c bf 0d b3 20 bf 5b 7d 06 c1
       0.077485956 -0.9222666 -0.6277321 -8.405604
0002a0 39 0e 7b be 85 3f d8 3e d9 ca 84 bf eb c9 27 c1
       -0.24517144 0.42235962 -1.0374404 -10.486796
0002b0 fe a7 31 c1 37 28 2a c1 61 f1 25 3e 2a aa bf c0
       -11.103514 -10.634818 0.1620536 -5.989522
0002c0 30 6b 33 bf 6b f8 ae 3e 21 14 2b bf 22 49 58 3c
       -0.7008543 0.34173903 -0.6682759 0.01320103
0002d0 d6 26 c7 bf 75 a5 2c bf 0f 71 59 c1 70 bf 40 c0
       -1.5558727 -0.6743997 -13.590102 -3.0116844
0002e0 fe 67 76 c1 3a 42 aa be e5 b1 e4 3e d1 21 d5 be
       -15.400389 -0.33253652 0.44666973 -0.41627362
0002f0 be c6 7b 3a df 1f 9e bf f6 5f 0a 3e bd 62 91 bf
       0.0009604505 -1.2353476 0.13513169 -1.1358258
000300 0f c0 04 c1 2d 50 2b 3f 62 26 cc 3e 7d f7 c2 c0
       -8.296889 0.66919214 0.39873034 -6.092711
000310 77 72 bf 3f 55 16 11 c1 77 41 50 c0 f4 a9 9c 40
       1.4956807 -9.067952 -3.2539957 4.895746
000320 a1 8a 03 c1 f0 83 76 be ec a1 f2 bd 7b cd 0f c1
       -8.221345 -0.24073768 -0.118472904 -8.987666
000330 a9 b0 af c0 e5 bb 27 40 e2 1d a2 c0 92 b4 30 bd
       -5.490315 2.6208432 -5.066148 -0.043140955
000340 66 64 32 c1 c5 bf 73 3e 69 a8 4e be 70 c7 3b c1
       -11.149511 0.23803623 -0.20181431 -11.736191
000350 79 7f 15 40 bd a3 8c bd 26 ee ac bf d5 2d 15 bf
       2.3359053 -0.06867168 -1.3510177 -0.5827306
000360 21 18 33 c1 bc 2a c3 3e 68 ea 4c 3c 8b 76 2f c1
       -11.193391 0.3811854 0.012507059 -10.966441
000370 6a 80 f1 bf 7d 54 90 3f cf 6f 8f bf 52 40 4f bf
       -1.8867314 1.1275784 -1.1205996 -0.8095752
000380 62 36 50 c1 65 6f 29 bd 83 93 54 3f ca 86 f3 c0
       -13.013277 -0.041366 0.83037585 -7.6102037
000390 3b 96 49 bf 32 a6 25 3f d1 f1 10 c1 65 97 20 bf
       -0.7874486 0.6470672 -9.059037 -0.6273101
0003a0 82 14 34 c1 94 f5 82 bf c1 40 64 3e 42 bd 3e c0
       -11.255007 -1.0231194 0.22290327 -2.9803014
0003b0 7f cd df 3f 9f 3a 91 3f 41 0a de c0 c9 ce 4a bf
       1.7484587 1.1346015 -6.9387517 -0.7922178
0003c0 9c 32 6b c1 c3 58 9a bf 9a ad 62 3f d8 24 14 c1
       -14.699856 -1.2058338 0.88546145 -9.258995
0003d0 da 6c 13 40 ba da cc be 8f bd 3e c0 41 eb 0d c0
       2.3035188 -0.40010625 -2.9803197 -2.2174838
0003e0 5c 4d 23 c1 15 f1 5c c0 4a c3 9e 3e 70 3b 67 c1
       -10.206387 -3.4522145 0.3100837 -14.452011
0003f0 a3 c1 4c 3e 95 d9 8b 3f 27 96 76 3f 47 7b 14 bf
       0.19995742 1.0925776 0.96322864 -0.58000606

l3.bias f4 [137]
000000 70 9b e4 c0 43 1b 3c c1 43 08 f1 c0 ff 25 06 c1
       -7.1439743 -11.756656 -7.5322585 -8.384276
000010 d4 fe 26 c1 d2 46 14 c1 93 b7 d2 c0 47 40 d7 c0
       -10.437214 -9.26729 -6.584909 -6.7265964
000020 35 4f 01 c1 e3 49 de c0 7a 3f de c0 23 70 0a c1
       -8.081838 -6.9465194 -6.9452486 -8.652377
000030 b3 d5 26 c1 4b ff 09 c1 68 e7 e6 c0 c2 ff fc c0
       -10.427173 -8.624827 -7.215748 -7.9062204
000040 88 65 f5 c0 dd b4 27 c1 8c 3e fc c0 a0 d9 f1 c0
       -7.668644 -10.481656 -7.882635 -7.5578156
000050 eb cf 6f be 7d 96 28 bd 7d 46 50 3b 50 b7 0a 3c
       -0.23419158 -0.04115914 0.0031780296 0.008466557
000060 eb 20 ef c0 ce 12 a2 c0 3b 27 b1 c0 f3 8b e3 c0
       -7.4727683 -5.0647955 -5.536039 -7.1108336
000070 5e e6 81 c0 7e 87 93 c0 b3 e6 b9 c0 77 99 81 c0
       -4.059371 -4.6102896 -5.8094115 -4.0499835
000080 79 ea d3 bf e0 a7 cd c0 58 f8 f1 c0 d8 22 ca c0
       -1.655593 -6.4267426 -7.5615654 -6.3167534
000090 1f ba fb bf dc 8e e7 c0 50 40 db c0 20 3e fc c0
       -1.9666175 -7.236189 -6.8516006 -7.8825836
0000a0 94 00 c6 c0 4e 86 8c c0 29 1d 6a c0 39 32 be c0
       -6.1875706 -4.3913946 -3.6580298 -5.9436307
0000b0 ec ba 01 be 0c c9 61 be 71 28 8f 3c 50 9b 66 3d
       -0.12668961 -0.2204935 0.017475339 0.05630046
0000c0 65 3e b8 bc 57 d4 cb 3e 17 11 6c 3e af 2a d5 be
       -0.02249069 0.3981044 0.23053394 -0.41634127
0000d0 69 4d 82 3e 9d f2 1b 3e 9f 61 8f 3e 30 2f dc bd
       0.25449684 0.15229268 0.28004166 -0.10751188
0000e0 87 45 97 c0 b3 f3 ae c0 65 dd fa c0 21 9e 91 c0
       -4.727237 -5.4672484 -7.8395257 -4.550553
0000f0 2b 04 f2 bf 63 0f 29 c0 32 dd 2d c0 35 85 af bf
       -1.8907522 -2.6415641 -2.7166257 -1.3712527
000100 c6 dc a7 c0 4e d1 8a bf aa bc 8b bf 29 35 d2 bf
       -5.2457 -1.0845125 -1.0916951 -1.6422473
000110 d8 50 f3 bf 95 9f e0 bf 2f 74 bc c0 e2 e2 9d c0
       -1.9009047 -1.75487 -5.8891826 -4.9339457
000120 a8 a6 2e c0 7e 80 b2 bf cc c2 45 c1 2e bd 01 c1
       -2.728922 -1.3945463 -12.360058 -8.108686
000130 ac d1 d2 c0 c3 05 0e c1 a8 ea 0e c1 f8 1f b5 c0
       -6.5880947 -8.876407 -8.932289 -5.6601524
000140 88 0c d4 c0 62 71 a8 c0 6e 07 b0 c0 28 5c 14 c1
       -6.6265297 -5.2638407 -5.500907 -9.272499
000150 30 b4 5e c0 58 9e bb c0 e3 81 75 c0 d0 fd d8 c0
       -3.4797478 -5.863079 -3.8360527 -6.780983
000160 03 9b c6 c0 34 a2 15 c1 df 4a fd c0 f6 52 05 c1
       -6.2064223 -9.3521 -7.9153895 -8.332754
000170 30 81 9f c0 99 47 77 c0 4f 06 15 c1 86 9d fb c0
       -4.98452 -3.863745 -9.31404 -7.862979
000180 f6 0a dc c0 26 57 11 c1 b5 5c e8 c0 aa b8 73 c0
       -6.876338 -9.083776 -7.261317 -3.808146
000190 1a 37 d8 c0 d8 c2 ca c0 34 5c 36 c0 dc 4d 47 c1
       -6.7567263 -6.3362846 -2.8493776 -12.456509
0001a0 44 32 d5 c0 53 9e f8 c0 f3 75 b4 bf 7d 75 8d c0
       -6.662386 -7.7693267 -1.4098495 -4.420592
0001b0 c6 aa cc c0 7f bf f8 c0 03 07 0f c1 65 55 c0 c0
       -6.3958464 -7.773376 -8.939212 -6.010424
0001c0 c2 47 0b c0 a6 b2 a1 c0 d1 0e a6 c0 3a 65 87 3e
       -2.1762547 -5.0530577 -5.1893086 0.26444417
0001d0 3a 08 01 3d 32 dd d7 c0 29 9f b7 c0 a1 f8 e1 be
       0.031501986 -6.7457514 -5.7381787 -0.44135
0001e0 d2 73 94 be 30 1f 79 bd 89 20 8c be 29 ce f1 be
       -0.28994614 -0.06082076 -0.27368572 -0.472276
0001f0 9f 1f 7f be 11 50 e2 be f9 20 8c bd 24 1a 36 be
       -0.24914406 -0.4420171 -0.068422265 -0.1778341
000200 5b 44 d3 3e 57 02 4e 3e 84 48 04 3c bf 98 de 3d
       0.4126309 0.2011808 0.00807393 0.10868978
000210 a0 59 c6 be a3 0d dd c0 41 1e da 3d c3 ef 03 c0
       -0.38740253 -6.9079146 0.10650302 -2.061509
000220 dd be a9 3e
       0.3315343
