data.pth (torch, 5354 bytes, 6 tensors)

l1.weight f4 [8, 54]
0.19027194 0.31133777 0.22854553 -0.45189366 -0.2071968 -0.051727407 0.40900108 -0.108636156
-0.13625765 -0.2515388 0.37369463 -0.22092716 -0.13632676 0.4747257 0.117329255 -0.20082398
0.28939855 -0.06392428 -0.0855906 -0.37502035 -0.28448704 0.3783375 -0.12550992 0.49324337
-0.11961621 -0.2632037 -0.114811294 0.44547132 -0.059542514 -0.2241282 -0.1832986 -0.13698633
0.4544535 0.29244107 0.22979105 0.42019767 0.21427979 0.4295677 0.4080953 0.4482072
-0.21108799 0.51746124 0.16259314 -0.017676504 -0.29620168 -0.15870522 -0.13271408 -0.15454336
-0.3064543 -0.31746718 0.22620323 0.4456887 -0.10703053 0.3539367 0.31887785 0.043443426
0.1808925 0.15855685 0.1829522 0.2681665 -0.18248077 -0.17729464 0.08513792 -0.11464572
0.27749974 0.4855696 0.2348033 -0.2016619 0.17948888 -0.4306488 0.72940785 -0.21373858
0.57428795 -0.35240474 -0.15144819 0.15459023 -0.04841303 0.38659993 -0.155373 0.30917704
0.42356062 0.006947845 0.22077253 -0.2125982 0.23004353 0.21245062 -0.14005916 0.16840567
-0.19696526 -0.06858592 -0.2040431 0.16161413 0.032087013 -0.07215039 -0.33093524 0.32812375
0.13699816 -0.14568616 -0.1411195 -0.25303727 -0.21505891 0.41576213 -0.38443264 -0.33346117
0.35239932 0.56344104 0.19688924 0.47498956 0.3382699 -0.19484343 0.227067 0.30329025
0.1454339 0.2425227 -0.34388518 -0.13451774 0.3772054 -0.059881255 -0.064598575 0.4552479
0.41290465 -0.2646195 0.30601847 -0.33609828 0.38577032 0.3114067 0.5721225 0.4346568
0.3277787 0.11692842 0.2623898 -0.23538375 -0.11334812 0.45381367 0.4132256 -0.101603456
0.18125372 -0.14799239 0.1715588 0.19872002 -0.29512897 0.00072808564 -0.15336248 -0.19634633
0.052427143 0.32917607 -0.076681115 -0.15656456 0.44505757 -0.29130393 0.28022978 0.35851184
0.30401486 0.3967318 -0.3622337 0.055274975 0.47397667 0.46487537 -0.19912635 -0.13396597
0.27692103 -0.06630037 0.08895999 0.1663031 0.15785843 0.52472055 0.102921315 0.1277966
0.111404836 0.14069664 0.2727827 0.21998112 -0.01849913 0.45245415 0.27207094 0.046741653
0.14749327 0.023349162 0.13976695 0.22525275 0.41539347 0.21483637 0.407542 -0.11437911
0.34434494 -0.2628888 0.20454437 0.36910006 0.35755917 0.09954837 0.11489383 0.20558265
0.031670526 0.0885735 0.058132894 0.08172056 0.14801364 0.12038936 0.04349603 0.2594835
-0.07719606 0.08115977 0.3817436 -0.22262053 0.063114904 0.3118903 0.23744845 0.49580926
0.021411803 0.088438965 0.35563475 0.51257384 -0.14904884 -0.32485667 0.1630205 -0.085465595
-0.15653725 0.1614503 -0.0517399 0.31257802 0.09724011 0.1025337 0.21566205 0.38504812
-0.041836876 0.4469067 -0.10432028 -0.23273203 0.057605777 0.23592372 0.054824214 0.68822676
-0.39352745 -0.12677756 -0.07940235 -0.084434316 -0.16051412 -0.21954599 -0.051970143 -0.15389866
0.5162963 0.013201513 0.09964759 0.21692348 0.18380524 0.46706802 0.17871217 -0.0612305
0.40557334 0.20684864 0.169368 0.3745222 0.2743274 0.0073038675 0.17872277 0.37774867
00000000: a6d6 423e aa67 9f3e d707 6a3e 9b5e e7be
00000010: 662b 54be 1ee0 53bd 9768 d13e a27c debd
00000020: 2087 0bbe b2c9 80be e754 bf3e bb3a 62be
00000030: 3e99 0bbe 3f0f f33e 524a f03d cda4 4dbe
00000040: 0c2c 943e bcea 82bd 204a afbd ab02 c0be
00000050: 49a8 91be 74b5 c13e ac85 00be 658a fc3e
00000060: 58f9 f4bd a3c2 86be 2f22 ebbd d114 e43e
00000070: dae2 73bd dd81 65be a1b2 3bbe 2546 0cbe
00000080: 21ae e83e d6ba 953e 584e 6b3e 2624 d73e
00000090: 296c 5b3e 4cf0 db3e def1 d03e 6a7b e53e
000000a0: 7327 58be 5778 043f d17e 263e 51ce 90bc
000000b0: bfa7 97be 9f83 22be 33e6 07be 9d40 1ebe
000000c0: 94e7 9cbe 0f8b a2be d2a1 673e 4f31 e43e
000000d0: d332 dbbd 3137 b53e f543 a33e bcf1 313d
000000e0: e23b 393e ba5c 223e d257 3b3e 1f4d 893e
000000f0: 3ddc 3abe ba8c 35be ca5c ae3d 60cb eabd
00000100: 7214 8e3e 949c f83e 4770 703e 7580 4ebe
00000110: efcb 373e 007e dcbe 79ba 3a3f 49de 5abe
00000120: 8904 133f 656e b4be 3c15 1bbe e74c 1e3e
00000130: be4c 46bd 6df0 c53e 1a1a 1fbe 744c 9e3e
00000140: f0dc d83e c0aa e33b 3212 623e 58b3 59be
00000150: 8890 6b3e a88c 593e ab6b 0fbe 8972 2c3e
00000160: 43b1 49be c676 8cbd adf0 50be 2d7e 253e
00000170: ac6d 033d 95c3 93bd 5870 a9be d6ff a73e
00000180: 3f49 0c3e c12e 15be a181 10be 1a8e 81be
00000190: 6738 5cbe c6de d43e 5bd4 c4be 6cbb aabe
000001a0: af6d b43e ac3d 103f 559d 493e d531 f33e
000001b0: b631 ad3e 0985 47be 4084 683e dc48 9b3e
000001c0: a0ec 143e df57 783e b811 b0be 05bf 09be
000001d0: 1121 c13e 0c46 75bd 424c 84bd 4116 e93e
000001e0: 3d68 d33e 357c 87be 74ae 9c3e 1315 acbe
000001f0: b083 c53e b370 9f3e 9f76 123f 568b de3e
00000200: 9cd2 a73e 2b78 ef3d f557 863e 7008 71be
00000210: 0f23 e8bd 445a e83e 4e92 d33e 7915 d0bd
00000220: 939a 393e 518b 17be 1cad 2f3e 437d 4b3e
00000230: 251b 97be 00dd 3e3a 0e0b 1dbe 030f 49be
00000240: d8bd 563d c489 a83e fd0a 9dbd 7652 20be
00000250: 96de e33e ca25 95be 477a 8f3e dd8e b73e
00000260: d6a7 9b3e 6e20 cb3e b276 b9be 0368 623d
00000270: 12ad f23e 2504 ee3e c7e7 4bbe 602e 09be
00000280: 98c8 8d3e 7dc8 87bd a830 b63d 5c4b 2a3e
00000290: a4a5 213e 1654 063f 69c8 d23d 1ddd 023e
000002a0: 3828 e43d c812 103e 2daa 8b3e bb42 613e
000002b0: 7d8b 97bc 12a8 e73e e24c 8b3e 2d74 3f3d
000002c0: 7a08 173e be46 bf3c 111f 0f3e a8a8 663e
000002d0: 74ae d43e 11fe 5b3e 58a9 d03e 983f eabd
000002e0: fb4d b03e 5c99 86be 1474 513e affa bc3e
000002f0: ff11 b73e 04e0 cb3d 754d eb3d 4284 523e
00000300: f4b8 013d 0666 b53d c21c 6e3d 1c5d a73d
00000310: e390 173e b28e f63d e528 323d 05db 843e
00000320: f818 9ebd 1837 a63d e673 c33e a3f6 63be
00000330: 6342 813d 16b0 9f3e b025 733e b6da fd3e
00000340: ce67 af3c 7d1f b53d c215 b63e 0a38 033f
00000350: 42a0 18be 9d53 a6be d9ee 263e 9608 afbd
00000360: 4d4b 20be 3a53 253e 38ed 53bd 3a0a a03e
00000370: d325 c73d 30fd d13d 83d6 5c3e 0725 c53e
00000380: 255d 2bbd f4d0 e43e dfa5 d5bd 4e51 6ebe
00000390: 09f4 6b3d fd95 713e 5b8f 603d a12f 303f
000003a0: 6e7c c9be fad1 01be b39d a2bd e6eb acbd
000003b0: d05d 24be aad0 60be a5de 54bd 9c97 1dbe
000003c0: ff2b 043f 294b 583c 0914 cc3d 3021 5e3e
000003d0: 7137 3c3e 8a23 ef3e 5300 373e d5cc 7abd
000003e0: 4fa7 cf3e 21d0 533e ce6e 2d3e 60c1 bf3e
000003f0: a474 8c3e 4855 ef3b 1a03 373e 4668 c13e

l1.bias f4 [8]
0.45228153 0.54529136 0.39577752 0.70491534 0.7041959 0.4008722 0.717742 0.4759532
00000000: 7291 e73e 3798 0b3f 5aa3 ca3e 5575 343f
00000010: 2f46 343f 1f3f cd3e f1bd 373f 23b0 f33e

l2.weight f4 [8, 8]
-0.44108605 -0.17373034 -0.07949464 0.104480594 -0.45941108 0.12501629 -0.32234457 -0.045224395
-0.59499556 -0.2506163 0.7264538 0.70454323 -0.2607585 0.3712912 -0.3487117 0.09303134
0.5697638 0.8867211 0.27732828 0.08178689 -0.25186962 -0.7810618 0.52194893 0.024380116
1.0176314 0.9050807 -0.3388481 0.13546939 -0.24984945 0.216408 -0.03121572 0.89640415
0.15196025 -0.88233054 -0.8603562 0.38130826 1.1555226 1.0506588 0.7446201 0.48394635
-0.5133222 -0.049602132 0.76144034 0.8296281 -0.04528575 0.20618995 -0.11148408 -0.05112986
-0.48070362 0.76773876 0.17496914 0.40838966 -0.1240771 -0.7334608 0.03230065 -0.4942495
-0.52291024 0.8166641 0.13347992 0.34387884 0.97114265 -0.38428107 1.1823974 -0.6342951
00000000: 08d6 e1be 5ee6 31be 16ce a2bd ecf9 d53d
00000010: ee37 ebbe 4504 003e 590a a5be 373d 39bd
00000020: a151 18bf c850 80be e0f8 393f f25c 343f
00000030: 2382 85be e119 be3e 578a b2be 3787 be3d
00000040: 0adc 113f 2700 633f f9fd 8d3e e37f a73d
00000050: 0ef5 80be abf3 47bf 729e 053f cfb8 c73c
00000060: bf41 823f 5eb3 673f 807d adbe 7db8 0a3e
00000070: 89d8 7fbe 0f9a 5d3e 1cb8 ffbc be7a 653f
00000080: 789b 1b3e 6ae0 61bf 4e40 5cbf d63a c33e
00000090: 2ae8 933f fd7b 863f 6c9f 3e3f d1c7 f73e
000000a0: 1569 03bf 9b2b 4bbd c1ed 423f 8262 543f
000000b0: 8d7d 39bd 7523 533e c451 e4bd 8b6d 51bd
000000c0: c91e f6be 878a 443f 1c2b 333e 7318 d13e
000000d0: 221c febd 16c4 3bbf b04d 043d 450e fdbe
000000e0: 72dd 05bf e610 513f f6ae 083e e310 b03e
000000f0: ce9c 783f 7dc0 c4be cc58 973f 2a61 22bf

l2.bias f4 [8]
-0.35439953 0.39270467 0.35545915 0.07268337 0.51121783 0.0952406 0.4860718 0.249244
00000000: db73 b5be 9610 c93e befe b53e 05db 943d
00000010: 2cdf 023f 810d c33d 67de f83e d239 7f3e

l3.weight f4 [5, 8]
-0.06337608 0.7504988 -0.90380865 -0.71155655 -0.44426155 0.643475 -0.06756057 -0.9377378
0.18968163 -0.19581239 -1.3726999 -1.0296501 0.48512277 -0.25462735 -0.3113417 0.4767704
0.041360617 -4.2273427e-05 0.33202392 -0.34398645 -0.84418845 0.04816414 0.5927391 0.43327287
-0.2157327 -0.7697864 0.4100267 0.70116556 -0.72400945 -0.53819793 -0.20716447 -1.1820971
-0.12584646 -0.7057717 -0.8293548 0.35372064 0.42308238 -0.9711493 -0.3032865 -1.1594456
00000000: 51cb 81bd b020 403f 0160 67bf 9228 36bf
00000010: 4076 e3be c7ba 243f 325d 8abd 960f 70bf
00000020: e73b 423e 0b83 48be a1b4 afbf 93cb 83bf
00000030: 0362 f83e 845e 82be 2e68 9fbe 401b f43e
00000040: c069 293d bf4e 31b8 0aff a93e fe1e b0be
00000050: bc1c 58bf c347 453d c0bd 173f f1d5 dd3e
00000060: 08e9 5cbe b910 45bf 05ef d13e 967f 333f
00000070: af58 39bf 57c7 09bf ec22 54be f54e 97bf
00000080: e5dd 00be 74ad 34bf 9950 54bf df1a b53e
00000090: 419e d83e 3e9d 78bf 5e48 9bbe b768 94bf

l3.bias f4 [5]
0.08664079 0.03455721 0.085684136 0.1668961 -0.20830442
00000000: ba70 b13d dc8b 0d3d 2a7b af3d d0e6 2a3e
00000010: c14d 55be
