data.pth (torch, 17194 bytes, 6 tensors)

l1.weight f4 [8, 92]
00000000: cdfe 6340 f915 a93f 0feb 0d40 b201 0d40
00000010: ff70 ec3e 7cd0 3e3d 4524 d7be 75aa 963e
00000020: 7c8d 263f e78f fa3d dc79 883f 87bb 493f
00000030: 46aa b53f 66db ed3e 5263 5ebf 32a3 17bf
00000040: 6d73 e0bd 0208 1340 0f32 5e3d b12e c53e
00000050: ae68 d1bc 4336 00c0 78ca 663f 6f99 91bf
00000060: 9d2f 853f 7a13 0740 4adb 91bf e2e4 f73f
00000070: b626 b93e b304 fcbf f180 bbbf 8bf3 0cbf
00000080: e926 f33e 2a08 48bf 17a0 d1bf 5e81 3cbe
00000090: 7f20 863f 03af 24be fc8f 9e3f 19f5 943e
000000a0: be0e fe3f b32e af3f f094 f73e f83f fcbe
000000b0: 824b c53e 3f50 c83e f649 c03e e783 2740
000000c0: 97ac 0740 ec3f a03d 5cdf a93f 0248 9d3f
000000d0: 5ee5 a63f 2748 973f da52 003f c9af 693e
000000e0: ddea 1f3f 937d 8dbe 82f1 1e3e ffa1 cebf
000000f0: 93e3 493f 2900 c53e 957c 813f c32d 8a3f
00000100: 02ec 39bf 2ce7 08bf 2e70 00be e878 343f
00000110: dd2f d2be 4386 1940 3ac9 0e3e 6b62 3e3f
00000120: 916b 203f 986b 85be 1c9c 3d3f 30eb 853b
00000130: 9638 4abf 522f 733f 812d 123f 20c6 983d
00000140: f645 b63f 45d1 aabc d432 1bbf 621c 30bf
00000150: 7429 60bf e2ea 86bf 9b05 d7be 0b52 4abf
00000160: 6981 95bd 93c7 213d 8176 55bf 2772 43bf
00000170: d174 3b40 50f4 9e3f 1fb0 0140 8d63 0540
00000180: 599b 713f 3bff 6e3e db83 833d 97ce 7f3f
00000190: e595 5c3f 60af 9c3f d3ce 783f 50ba 4740
000001a0: ce27 653f eecd b1bd 98dd a93f 40cd f73e
000001b0: 590e 3d3e 94fb 0140 25fa 8c3e f575 9a3f
000001c0: 9c8a 8a3e 9a1d aa3e be24 913f 9781 ddbe
000001d0: 31d4 053f 9201 2240 ccf1 383e 2e40 f73f
000001e0: 9724 933f d891 703e b638 81be c0da 173e
000001f0: 9254 f13f 4921 e23e 0b52 9dbe aeef 523e
00000200: 9f8c e43e 83d4 21bf c15d 4e3f 44ae 8b3f
00000210: a84f fe3f d63c 5e3f a079 233f 5774 6fbe
00000220: 76c2 3c3f 2607 913f 4e11 4d3f 8734 d03f
00000230: 5cf9 493f ba45 4c3e b79a 50bf 915e 513f
00000240: 9ada 0e3e 5708 513f 6f80 7a3f 47a8 b03f
00000250: be6e e93f 4d88 8dbd 88f8 403f ac8a a1be
00000260: 09d1 8d3f b1ef 8e3f bd68 dd3e 636e 033f
00000270: 0b8f cf3e d301 513d aa63 c63f a104 5a3f
00000280: 7b5d 1140 1ce0 fd3f cb1e af3e 356a 3e40
00000290: f44b f33f ec77 dd3e da79 993e d212 61bf
000002a0: fa55 f63e d7f5 b73e 5ffe fd3f 48db a93e
000002b0: 32e4 593f eb85 193f 7bf9 273e 80a0 f43e
000002c0: 474c a23f caee ecbe 4c99 aebe 6f81 88be
000002d0: e7df 1abf 779c 2e3f 3797 1dbe d345 07be
000002e0: 7c88 473f b8d1 ae3e e6bc f43e e638 123f
000002f0: 5596 083f 909d 973d 157a a1be 4df9 573c
00000300: 4fdb c03e bf57 19be ad21 883e f734 453f
00000310: b7de 3a3f cdbe 823f a6b7 cf3e eee9 4a3f
00000320: 8c75 b33f 84a3 33be 1544 df3f ffaa 3bbe
00000330: 42e4 d13f 365c 89bd eafe 9f3e 8a4d 9d3f
00000340: 8fc6 01be d4e2 b23f 2493 ec3f 172b 933e
00000350: 9884 123f d137 14be 59d7 f53f edd6 8e3f
00000360: 2c29 663f 51df 61bf 0ffd ed3f d53c d73f
00000370: d154 74be 08a7 a53f 9a56 f93d b8d2 e9bd
00000380: 0a9c 663e c593 6e3f 0fb3 5b3e ffaa 063e
00000390: fe2e b13f 0f83 1f3f 2035 c23e 1270 d83c
000003a0: ad1d 913e c5fc de3f 96dd 2ebe 7b73 353e
000003b0: ce74 353e 8507 a33d 3533 233f 8f39 103b
000003c0: 4835 673f 2b4f c3be b769 1cbc 9950 f63f
000003d0: 5d3a a03f 16a4 e83e 06cc 743e 658b 8d3e
000003e0: bf51 39bf 6c00 883f 70b1 10c0 cbd4 8c3e
000003f0: c180 1dbf d954 ecbd 50b1 4c3d e7d9 1e3f
3.5624268 1.320983 2.2174718 2.2032285 0.4617996 0.046585545 -0.4201986 0.29426923
0.6505964 0.122344784 1.0662189 0.7880177 1.4192588 0.4645645 -0.868703 -0.5923339
-0.10959516 2.2973638 0.05424696 0.38512185 -0.02556261 -2.0033119 0.9015269 -1.1374949
1.0405155 2.1105638 -1.1395047 1.9366724 0.36162347 -1.9688934 -1.4648725 -0.5505912
0.47490624 -0.7813746 -1.637698 -0.18408725 1.0478667 -0.16082387 1.238769 0.29093245
1.9848249 1.3686126 0.48355818 -0.49267554 0.3853417 0.39123723 0.37556428 2.6174257
2.119909 0.07824692 1.3271289 1.22876 1.3038747 1.1818894 0.5012642 0.22820963
0.6246775 -0.27634868 0.15521815 -1.6143187 0.78862876 0.38476685 1.0116144 1.0795215
-0.72625744 -0.5347774 -0.12542793 0.7049699 -0.41052142 2.3988197 0.1394395 0.74368924
0.62664133 -0.2605865 0.7406633 0.0040868744 -0.78992593 0.9499408 0.57100683 0.07459664
1.42401 -0.02085174 -0.6062443 -0.6879331 -0.8756325 -1.054043 -0.41996464 -0.7903144
-0.07300074 0.03949697 -0.8338395 -0.7634606 2.929005 1.2418308 2.0263746 2.084201
0.94377667 0.2333955 0.06421634 0.99924606 0.8616622 1.224102 0.9719059 3.1207466
0.8951386 -0.08681856 1.327075 0.4839878 0.18462504 2.03098 0.27534595 1.2067248
0.27058876 0.3322571 1.1339338 -0.43262932 0.52276903 2.5313458 0.18060988 1.9316461
1.1495541 0.23493135 -0.2523858 0.1482954 1.8853934 0.4416602 -0.30726656 0.20599243
0.44638535 -0.6321489 0.8061181 1.0912557 1.9868059 0.8681158 0.6385746 -0.23384224
0.73734224 1.1330307 0.8010453 1.626603 0.7889612 0.19948474 -0.81486076 0.8178492
0.13950577 0.8165335 0.97852224 1.3801354 1.8236921 -0.06910763 0.7537923 -0.3155111
1.1079417 1.1166898 0.4324397 0.5134031 0.4053882 0.05102713 1.5499165 0.85163313
2.2713306 1.9834018 0.3420318 2.9752324 1.9007554 0.43255556 0.29975778 -0.8791934
0.4811247 0.35929748 1.9843253 0.3317511 0.85113823 0.5996997 0.16403763 0.47778702
1.2679528 -0.46275932 -0.3410133 -0.2666125 -0.604979 0.68207496 -0.15389715 -0.1321023
0.77942634 0.34144378 0.47800368 0.5711807 0.5335439 0.074030995 -0.31538454 0.0131819965
0.3766732 -0.14974879 0.26588193 0.7703394 0.72996086 1.0214478 0.405698 0.792632
1.4020247 -0.17542845 1.7442652 -0.18326949 1.6397784 -0.06707041 0.31249171 1.2289288
-0.126734 1.3975472 1.8482404 0.28743812 0.5723357 -0.14474417 1.9206344 1.115934
0.89906573 -0.8823138 1.8592852 1.681544 -0.2386048 1.2941599 0.12174721 -0.114171445
0.22520462 0.9319423 0.21455024 0.13151167 1.3842466 0.62309355 0.37931156 0.026420627
0.28342953 1.7420889 -0.17076716 0.17719834 0.17720339 0.079604186 0.6375001 0.0022006964
0.90315676 -0.38146338 -0.009546689 1.9243346 1.2517811 0.45437688 0.23905954 0.27645412
-0.7239036 1.0625129 -2.26083 0.27506098 -0.6152459 -0.11539621 0.049973786 0.6205124

l1.bias f4 [8]
00000000: 8b4a 3c3f 3461 8e3f 3874 353f 8d18 843f
00000010: c2ec 583f 8ad9 f93e 989b 343f a7f6 3a3f
0.73551244 1.1123414 0.7088046 1.0319992 0.84736264 0.48798782 0.7054992 0.7303261

l2.weight f4 [8, 8]
00000000: 69c3 3ac0 ddf1 6b3f 8a51 44be 88b1 fe3f
00000010: 4aea 493f a6df eabe 342b 99bc 87bd 153f
00000020: 4fd9 9e3f d660 db3e 9fd8 6a3e 2d2a 8fbf
00000030: 350e 873f 1154 77bf 0e7a c03f 3772 3dbf
00000040: df55 cabf 950d 41bf 26f0 e53f 9b55 27be
00000050: c1c2 983f d76d edbd da74 9dbf d50c 2d3f
00000060: d1c1 3c3f a479 e5be 8613 613f eb40 863f
00000070: a861 4abf 2962 6140 06f1 4940 dd74 51bf
00000080: 307c 0d40 bb8d de3f c52a 953e 09eb 963f
00000090: 813a 83bf e0ae a4be 3953 9dbe 4891 1a40
000000a0: 54d6 c83f a3d8 a3be d217 0f3f 1adb b7be
000000b0: 7275 d43f e8f2 2cbf 0791 8ebe 0c87 78be
000000c0: 192d 1e3b 39f8 c3be cd9b fabd 7c91 9d3e
000000d0: 75f4 3fbe 10a1 58be 3341 7fbd ff67 a3be
000000e0: 6c13 a63f 5d4c 0840 2413 65bf 8562 463f
000000f0: 2abf c23f 6ae0 5dbf 3ced 64bf e1ae 7e3e
-2.918177 0.9216593 -0.1917173 1.9897928 0.7887312 -0.45873755 -0.018697359 0.5849232
1.2410067 0.42847317 0.22934197 -1.1184746 1.0551211 -0.9661265 1.5037248 -0.74002403
-1.5807456 -0.7541135 1.7963912 -0.1634125 1.1934434 -0.11593216 -1.2301285 0.67597705
0.7373324 -0.44819367 0.87920415 1.0488561 -0.7905526 3.5216162 3.155336 -0.81818944
2.2107048 1.7387003 0.29134193 1.1790477 -1.0252229 -0.3216467 -0.30727556 2.4151173
1.5690408 -0.32001218 0.5589572 -0.3590935 1.6598341 -0.67558146 -0.27845022 -0.24270266
0.0024135767 -0.38275316 -0.12236748 0.30775058 -0.18745597 -0.2115519 -0.06231804 -0.3191528
1.2974677 2.1296608 -0.8948233 0.7749408 1.5214589 -0.86670554 -0.8942449 0.24871399

l2.bias f4 [8]
00000000: 7a22 463f fd6f 283f 907c f83b b878 913e
00000010: e025 3f3f ad77 743e acca 93be 6a3c fb3e
0.7739636 0.6579588 0.0075832084 0.28412414 0.7466717 0.23873778 -0.28865564 0.4906953

l3.weight f4 [115, 8]
00000000: 1d7f 333f 1b73 9ec0 01ca 90c0 ae83 593d
00000010: c2f4 a2be b7d7 c0c0 3c7d a83d 68a8 5abf
00000020: 31b2 8f3f 6b20 90c0 6931 51c0 f842 5fbd
00000030: 92ea 363f 529c 8fc0 e420 053e 57db 8ac0
00000040: daf5 213f 58d0 c9c0 8137 f0bf aa73 62be
00000050: e23c 943e f2dc 7dc0 187e a43d 70ac aebf
00000060: 0b9c 8bbf 5529 2f3f b7e9 8ac0 bd4d 113f
00000070: d916 dabf f046 ba3c 9499 6bbe 1b89 b4c0
00000080: 4f1d 723f 91de 3abe c4d5 adbf c48e 17bc
00000090: 12b6 93bf dbe7 46bf 1f11 dbbc 2cf6 f2bf
000000a0: 1739 643f df2f cc3e 3332 e8bf 6b7d e73d
000000b0: 12d9 51c0 4b55 16bf 92a7 7c3e c3ce 15c0
000000c0: 41ca d33c d77e b63e f300 39c0 d7bc f83d
000000d0: 7285 03be b4a8 debd 39ac 813d 1954 49c0
000000e0: c22d b2bf 5e58 d8bf e426 0cc0 d37b 593f
000000f0: 872e 48c0 4b87 7bc0 4073 083c 76cf 44c0
00000100: 13e2 4cbe 5d84 36bf 7064 49c0 c9e1 cb3e
00000110: b1ae 8fbe fd89 fcbf 1ce3 8dbe fa9a c3c0
00000120: 320f eb3f 69fe bec0 62b9 75bf cc01 11be
00000130: 2ff2 53bf 1a98 353f 8814 8d3d 63b2 92c0
00000140: f90d 8b3f 0968 eac0 4b45 09be db17 60be
00000150: 6750 24bf 8d34 6cbf f9be ab3e b9d6 a4bf
00000160: 779f a93f 17cf 8fbf 30f0 f0be 4d6a 35be
00000170: 6ddf 94bf cba9 a03d b404 a7be 422d 49c0
00000180: bb02 583f ae93 383f 7124 c4bf f930 21bc
00000190: e308 59bf 0b75 05bc 89e4 ae3e a32f d8c0
000001a0: e39e 91bf e4a9 083f 8ec1 bfbf 5b17 0f3f
000001b0: 909f 20c0 00a8 cebf 1344 a73e cd21 95c0
000001c0: 13b7 12bf 0ae2 a5c0 1b53 b7c0 a66c 273f
000001d0: 272a 73bf 5aaa 45c0 7073 693d 5d0b a5c0
000001e0: 80f4 203f 43b9 03be 9c1f adc0 6005 cb3d
000001f0: 2fb7 49bd 9c51 a9c0 67ff 94be 22f2 2fc0
00000200: 41c2 f43e 93c6 45c0 0c1c 9bbf 7113 e0c0
00000210: 20a6 4f3e dffa b1be 1fea 913e 92e4 cfbd
00000220: 2463 573e fa61 efc0 9202 58bd 1ce8 fcbe
00000230: bc2a 853e 47ed 37bf 06f4 30be 455d 0bc0
00000240: 5886 383e 93fa ccc0 a487 35bf 3ada 88bf
00000250: c5c3 873e 654c 89c0 660a 41be 0032 74be
00000260: 261c e03e e17f a1bf bb83 fdbf a544 27be
00000270: 53a2 03be becb 91bd 1f66 20be de29 83bf
00000280: 8b3a 593e 8cb8 f1bf 76b5 ddc0 785d 94c0
00000290: 79a9 943e 19b3 3cc0 41ed a03e 7744 863e
000002a0: 1800 52bf c6f5 cdc0 995d 30c0 def1 a3bd
000002b0: d9b4 5a3f f6d5 c1c0 e708 82be 1af4 33bf
000002c0: 62fd 8dbe 284a 12c0 c956 82c0 44be d0bf
000002d0: 7f44 4f3f ebe5 c9c0 f0f9 a3bc 9a70 99be
000002e0: f2ab dbbf cc41 393e 3eea a2c0 b5e8 7bbf
000002f0: 2b7f 713e e1a6 a6bd a0c5 6fbc 72a7 98be
00000300: fd1a 01bf 161c a43d c051 34c0 9af3 50c0
00000310: 8e96 ce3e dc59 4c3e c057 9ebc 1b0d 69bd
00000320: 8b7d af3e 8c6c 503f 69b1 19c0 0267 a4bf
00000330: e46f 3abf af48 86be 406f 88bc 2332 bfbd
00000340: fea2 2fc0 50bf 3a3e 58bf 89c0 b216 0cc0
00000350: da13 833f f715 34be 1e4a 3a3e 77e0 05bf
00000360: b916 3abf 4b62 4ebf 1ec0 18c0 f78f 43be
00000370: aa55 a73f 3993 a1bf 507d 39be ef98 2bc0
00000380: 4c65 aebf 7e5d abbf 9945 e1c0 35b6 0fbe
00000390: 844e e43e 83e1 14bf 3dca b6bd b45c e5be
000003a0: ca5b b43c 8f6f cec0 326b acbe dd03 15c0
000003b0: 56a5 d3bd 104c e63e ff5e 913e 65d9 af3d
000003c0: 6c28 7fbf 7414 5ac0 913e b7bf ada1 18c0
000003d0: 1a5d 4f3f 2754 9b3e de96 643e aae3 2dbe
000003e0: f2aa 3ebf 2920 0cbf fe33 c5bd 8687 bec0
000003f0: f6f2 2f3f 74f3 8a3d c782 953e 3c0d fabe
0.70115834 -4.951551 -4.5246587 0.053104095 -0.3182736 -6.0263324 0.082270116 -0.8541322
1.1226255 -4.5039573 -3.2686408 -0.054507226 0.71451676 -4.487832 0.13000828 -4.339275
0.63265765 -6.3066826 -1.8766938 -0.22114435 0.289527 -3.9666104 0.08031863 -1.3646374
-1.0906996 0.6842244 -4.3410296 0.56759244 -1.7038223 0.022738904 -0.23007804 -5.6417365
0.9457597 -0.18248965 -1.3580861 -0.009250347 -1.1539938 -0.77697533 -0.026741562 -1.8981376
0.8914961 0.39880273 -1.814032 0.113032185 -3.278874 -0.58723897 0.24673298 -2.3407447
0.025853278 0.35643646 -2.890683 0.12145393 -0.12843874 -0.10872021 0.06331677 -3.145758
-1.3920214 -1.6901968 -2.1898737 0.84954566 -3.1278398 -3.9301326 0.008328259 -3.0751624
-0.20008115 -0.7129572 -3.1467552 0.39820698 -0.28062966 -1.9729611 -0.27712333 -6.112668
1.8364012 -5.968556 -0.95985997 -0.14160842 -0.8279142 0.70935214 0.06888682 -4.5842757
1.0863639 -7.3251996 -0.1340534 -0.218841 -0.64185184 -0.92267686 0.33544138 -1.2878028
1.325179 -1.1235074 -0.4705825 -0.17716332 -1.1630684 0.078448854 -0.32620776 -3.1433873
0.84379166 0.7210034 -1.5323621 -0.009838336 -0.84779185 -0.008145581 0.34158733 -6.755815
-1.1376613 0.5338423 -1.4980943 0.5589501 -2.509739 -1.614502 0.32669124 -4.660376
-0.573106 -5.1838427 -5.7288947 0.6540016 -0.94986194 -3.0885224 0.056994855 -5.157637
0.6287308 -0.1286364 -5.4101086 0.099131346 -0.049246963 -5.291212 -0.29101107 -2.7491536
0.47804454 -3.090245 -1.2117934 -7.002373 0.20278215 -0.34761712 0.28498933 -0.10151018
0.21033913 -7.48071 -0.052736826 -0.49395835 0.26009166 -0.7184643 -0.17280588 -2.1775677
0.18019998 -6.4055877 -0.70910096 -1.0691597 0.26516548 -4.2905755 -0.18851623 -0.23847198
0.43771476 -1.261715 -1.9805826 -0.1633478 -0.1285489 -0.07118939 -0.15663956 -1.0247152
0.21213739 -1.8884444 -6.928401 -4.6364098 0.29035547 -2.9484313 0.3143101 0.2622411
-0.82031393 -6.4362516 -2.7557127 -0.08005117 0.854322 -6.0573683 -0.25397417 -0.70294344
-0.27732378 -2.2857761 -4.073094 -1.6308064 0.8096389 -6.309316 -0.02001664 -0.2996872
-1.7161849 0.18091506 -5.091094 -0.9840196 0.23583667 -0.081372984 -0.01463452 -0.2981525
-0.50431806 0.080131695 -2.8174896 -3.2648683 0.4034924 0.19956154 -0.019328952 -0.056897264
0.3427547 0.8141563 -2.4014533 -1.2843935 -0.7282698 -0.26227328 -0.01665461 -0.09335735
-2.7443233 0.18237042 -4.3046074 -2.1888852 1.0240433 -0.17586504 0.18192336 -0.5229563
-0.7269092 -0.80618733 -2.386726 -0.19097887 1.3073018 -1.2623054 -0.18114209 -2.6812093
-1.3624663 -1.3387907 -7.039746 -0.1403435 0.44591153 -0.58156604 -0.08925293 -0.4479729
0.022016425 -6.451118 -0.33675534 -2.3283608 -0.1033427 0.44979906 0.2839279 0.085863866
-0.99671054 -3.4074984 -1.4315969 -2.384868 0.81001437 0.3033764 0.22323176 -0.16981378
-0.7447959 -0.5473657 -0.09629057 -5.9540434 0.68730104 0.06784716 0.29201338 -0.48838222

l3.bias f4 [115]
00000000: 6f5b 6abf 6071 ffbf 6c7b c1bf b671 903c
00000010: 2572 bebe 0f1a c4be 2b49 96bd d3d3 16c0
00000020: 82e5 3abf 15e0 21c0 adda 41c0 794b 40c0
00000030: 1502 aebf 87bd 23c0 e6ef b0be fd76 483e
00000040: c464 573e db77 99be 2d21 91bc 74b2 213f
00000050: b2cf 81bf 0356 ad3d ce7e 84bf 15c5 efbe
00000060: e2f9 84bf e97c 26c0 7857 fabf c209 c5bf
00000070: 9a55 fbbe fd9c 1fc0 b3b2 e3bf dd96 02c0
00000080: 1f00 f4bf ec33 f0bf 178b 7f3f 14a4 37bf
00000090: 5b20 cc3d e089 40be 528a 923e 1e8c fd3d
000000a0: a76c 833e 7824 0e3e 438a 35be c9a9 2d3e
000000b0: 4b31 103e 820c 0ebe 8530 b83b df46 083e
000000c0: f33d e8bf ceb6 acbe 3dae c1bf a76c b83c
000000d0: 4425 98bf 6f8d 88bf 2988 40bf e5fa dbbf
000000e0: d2c1 e63d a1a9 66c0 3ba2 43c0 c3ba 83c0
000000f0: 6e39 8cbf 2c0d 19c0 b0f0 613e f9e3 c2bf
00000100: fb66 0ec0 5be9 a2bf c1e2 1fc0 39a9 f8bd
00000110: a25a 70bf a3b7 18bf c150 9fbe 03c7 e5be
00000120: ed3d 2abf ad7f 7cbf 9165 1bc0 a71b 07c0
00000130: 9380 bbbd d4ae 95bf 7c6b b83e 3d2b a4be
00000140: ea8e 6bbf d035 633e 442a 97bf 9207 52be
00000150: a27c 36bf 76ed 92bf f66d 0abf 770c e53d
00000160: 5e85 b63f f788 47c0 5a7b 06c0 cf57 fdbf
00000170: d827 a6bf 9fa5 1dbf a396 d13f 173e 3b3f
00000180: 0dcf 2940 e706 7b3d 6f87 3c3f 8101 1bbe
00000190: ddcc 4dbe 3788 c23c 66b4 41bd 6c1f 983e
000001a0: 5549 e1be db6b bcbd f40f c0bd 5734 193d
000001b0: 0c88 473e 512d 2fbf c906 6fbf 1842 a2be
000001c0: 66e5 1cbe 28bf 153f 994c ce3f
-0.91545767 -1.9956474 -1.511579 0.017632347 -0.3719646 -0.3830113 -0.073381744 -2.3566787
-0.7300645 -2.529302 -3.028972 -3.0046065 -1.3594385 -2.5584428 -0.34558028 0.1957664
0.21034533 -0.29974255 -0.017716015 0.6316292 -1.0141509 0.08463671 -1.0351198 -0.4683005
-1.0388758 -2.601374 -1.9557943 -1.5393603 -0.49088746 -2.4939568 -1.778891 -2.040458
-1.9062537 -1.8765845 0.9982161 -0.7173474 0.09967109 -0.18802595 0.28621155 0.12380241
0.25668833 0.13881099 -0.17728524 0.16959299 0.14081304 -0.13871959 0.0056210184 0.13308285
-1.8143905 -0.3373322 -1.5131298 0.022512747 -1.1886373 -1.0668162 -0.75207764 -1.7185942
0.11267437 -3.6041033 -3.0567768 -4.116548 -1.0955026 -2.391429 0.22064471 -1.5225822
-2.2250354 -1.2727464 -2.498215 -0.12141652 -0.93888295 -0.5965521 -0.31116298 -0.44878396
-0.6650074 -0.9863232 -2.4280741 -2.1110628 -0.09155383 -1.1693978 0.36019504 -0.32064238
-0.92014945 0.22188497 -1.1809773 -0.205107 -0.71283925 -1.1478717 -0.5407404 0.11184018
1.425945 -3.1177347 -2.1012788 -1.9792422 -1.2980909 -0.6158084 1.6374096 0.73141617
2.6532624 0.06128588 0.73644155 -0.15137292 -0.2009768 0.023746593 -0.047291182 0.29711473
-0.4400126 -0.09200259 -0.09378043 0.03740343 0.19485492 -0.6842852 -0.9336973 -0.3169105
-0.15321884 0.58494806 1.6117126
